code/params/policy_DQL_parmeters.pt (torch, 23959 bytes, 6 tensors)

dense1.weight f4 [51, 51]
000000 7a 3d 67 bf 9d 48 53 3f f4 bc ab bf 15 48 a2 be
       -0.9032818 0.82532674 -1.3417039 -0.3169562
000010 14 c5 59 3f 72 bd a3 3f 20 78 aa 3f 05 b0 1e 3f
       0.8506634 1.2792189 1.3317909 0.61987334
000020 6a 25 96 bf a8 3d c8 3e 72 fe a5 bf 67 40 8b 3e
       -1.1730168 0.3910954 -1.2968276 0.27197573
000030 3c b1 ec 3f 47 93 d0 3e 98 06 98 bd d8 e6 b9 3f
       1.8491588 0.40737364 -0.07423133 1.4523573
000040 62 d0 53 bf a4 71 90 bf 74 30 2e 3e 12 36 c9 3f
       -0.8273984 -1.128468 0.17010671 1.5719626
000050 b4 a0 e5 bf 9a 15 72 3f f4 09 5a be 20 ad f6 bd
       -1.7939668 0.9456421 -0.2129286 -0.1204474
000060 98 51 b6 3e e9 bc c3 be 5a ee 82 be 91 0a 6c 3f
       0.35609126 -0.38230065 -0.25572473 0.92203623
000070 c2 ba a9 be 5b 1a 74 3c 79 95 90 bf 2e 84 fa bd
       -0.33150297 0.014898862 -1.1295615 -0.122322425
000080 1f cb 9c bf 5d 7b 75 bf bd 00 94 bd 50 59 b3 be
       -1.2249488 -0.9589136 -0.07226703 -0.35029078
000090 a6 cb 53 be df 9b a3 3e 81 bc a9 be 3a 1d f2 3f
       -0.20683154 0.31954858 -0.3315163 1.8915169
0000a0 b7 7f a5 be 9e b6 1d c0 90 a4 16 3d c8 25 6f be
       -0.32324 -2.464271 0.036778033 -0.23354256
0000b0 85 29 76 be f4 77 2a be ba d2 94 3f 0f 2a 8e bb
       -0.24039276 -0.16647321 1.1626809 -0.00433851
0000c0 01 af 80 be 24 50 c4 be fb 84 9b be 03 26 87 3d
       -0.25133517 -0.38342392 -0.30374894 0.06599047
0000d0 37 a2 92 3e ec c1 30 bc 66 88 e8 bf 78 fe 3c 40
       0.28639385 -0.010788422 -1.8166625 2.9530315
0000e0 7d 4e 16 3d 04 8d 61 bf c4 67 06 bf 48 87 9c 3f
       0.036695946 -0.881058 -0.52502084 1.2228785
0000f0 87 11 34 bf e5 d1 9c 3f d4 22 0d 3f 17 7a 21 bf
       -0.70339245 1.2251555 0.5513127 -0.6307692
000100 d2 fc 53 3f 33 92 a0 3f 7b 10 3d 3d 3f 98 8e 3f
       0.8280765 1.2544616 0.046158295 1.1140212
000110 75 c0 64 bf d7 47 a3 bf fc 11 68 3e 6d 8a 91 be
       -0.89356166 -1.2756299 0.2266311 -0.28425923
000120 66 93 99 3e 35 bc 77 bf 4b 7e 81 be e3 8e 0b 40
       0.2999527 -0.96771556 -0.25291666 2.180596
000130 15 02 fd 3d 11 23 b7 be 48 d6 12 3e ca 5f 22 3f
       0.12353913 -0.3576894 0.14339554 0.6342741
000140 12 3d 5c bf bf c0 13 3f 96 d8 f7 bc 04 0c 6d bf
       -0.86030686 0.5771598 -0.030254643 -0.9259646
000150 86 fe 25 bf 0c 69 1d be d8 ba b8 be fa 1b 9d bf
       -0.64841497 -0.15372103 -0.3608005 -1.2274163
000160 44 e7 1a bf cf 41 ec bd 1c 15 71 3e b8 1d 22 bf
       -0.60509133 -0.115359895 0.23543209 -0.633266
000170 a4 42 85 bf 00 b2 f3 be 05 26 f2 3d 07 db 09 3f
       -1.0410962 -0.4759674 0.11823658 0.53849834
000180 e2 b4 03 bf e8 dc af 3f 17 2a 8d 3e fb 54 42 bf
       -0.5144788 1.373929 0.27571175 -0.7591092
000190 85 ad a4 bf 6d 96 2d 3f cf 37 2c bf f1 54 99 3f
       -1.2865454 0.67807657 -0.6727266 1.1979047
0001a0 9d 6a da bc 66 f2 92 3e c1 55 08 bf 36 05 5e bf
       -0.026662165 0.2870056 -0.5325585 -0.867267
0001b0 7c 8a 3b bf a8 d7 45 3f f7 ea 05 3f 21 d6 9b 3f
       -0.73258185 0.7728219 0.5231165 1.2174722
0001c0 6a 49 c6 3e bb e9 dd be fc 30 08 bf b5 56 44 3f
       0.38727885 -0.43342385 -0.53199744 0.76694804
0001d0 a5 a7 fe be fd fa 46 bf 7d 77 ac be 65 17 8d be
       -0.49737278 -0.7772673 -0.33684912 -0.2755691
0001e0 96 d8 f0 3f 6d f6 e2 3e f8 ec 03 3f c8 c2 f3 3f
       1.8816097 0.44328633 0.5153346 1.9043818
0001f0 77 99 2c bf 73 58 4e 3c 89 31 84 bf 27 37 44 3f
       -0.6742167 0.01259433 -1.0327617 0.76646656
000200 1e 16 49 3f c5 49 e4 bf da 51 5f 3f a9 cb 2b 3e
       0.78549373 -1.7835013 0.8723427 0.16776909
000210 fe 81 17 bf 81 48 f3 3d 4b 4b 52 bf df ec 12 be
       -0.5918273 0.118790634 -0.8214614 -0.14348172
000220 3b 4e 87 be 9a e3 9a 3f 20 cd 6f bf fd d5 4a be
       -0.26426873 1.2100708 -0.9367237 -0.19808193
000230 b2 a4 80 bf 61 42 85 be 85 76 0f bf b7 dd eb 3f
       -1.0050261 -0.26027206 -0.5604022 1.8427037
000240 09 84 5d 3e 47 62 2a be 26 e4 65 be 28 61 81 3f
       0.21632399 -0.16639052 -0.22450313 1.0107775
000250 b2 51 8a bf 34 82 6f be 61 53 f0 bd 18 e7 a5 bc
       -1.0806181 -0.23389512 -0.11734653 -0.020251796
000260 ff 40 a4 be b5 11 15 bf 30 5c af 3f 63 ad 7c be
       -0.32080838 -0.58230144 1.3700008 -0.24675517
000270 99 8b 8c bf 87 fc e5 3e 37 59 20 3f 58 1e 99 be
       -1.0980102 0.44919226 0.6263613 -0.29905963
000280 f6 c5 bc 3e 3d 17 20 3f e6 5b 72 3f 7f d5 75 3f
       0.36869782 0.6253546 0.94671476 0.96028894
000290 e3 fa 6d bf f1 30 9a bf 2e 8d c1 3e 31 f5 b6 3e
       -0.9296095 -1.2046186 0.37803024 0.3573394
0002a0 f4 8f 30 3f 85 3f 89 bb f9 54 f0 be b9 95 eb 3e
       0.68969655 -0.0041884803 -0.4693983 0.46012667
0002b0 4e 61 f5 be ae ed 11 bd 06 51 89 3f af 01 7b 3f
       -0.479258 -0.03562706 1.0727851 0.98049444
0002c0 cc b3 11 bf a7 3b a7 3f 50 b9 78 bd 2c d4 06 bf
       -0.56914973 1.306508 -0.060723603 -0.526675
0002d0 b1 d6 57 be 0f 24 69 bf 41 e4 e6 bd df 5f 38 bf
       -0.21077992 -0.91070646 -0.11274005 -0.7202129
0002e0 b5 1f 7c bf a2 29 08 c0 b3 cd d5 3d d4 b6 d7 3f
       -0.9848588 -2.127541 0.10439625 1.685267
0002f0 78 d0 ac be 7e 89 d7 bf 5e 3f 16 3f dc 9a 9f 3f
       -0.337528 -1.6838834 0.5869044 1.2469134
000300 0f 02 cb 3e 13 86 4f 3f 64 52 09 bf 1a 4d e3 be
       0.39650008 0.81063956 -0.53641343 -0.4439476
000310 33 d4 4f bf ac 8a 58 3f de 0b 86 3f 1e 34 47 3c
       -0.81183165 0.84586596 1.0472372 0.012158422
000320 7c 06 da 3e 1a d4 ef be a4 59 87 bf 3c b1 10 bf
       0.42583072 -0.46841508 -1.0574231 -0.5652044
000330 61 9c 8b 3f c2 70 41 3f 74 a3 0d 3f 23 b5 09 bf
       1.0907098 0.7556268 0.55327535 -0.5379202
000340 81 af 13 bf 98 ad 08 3f 82 98 00 3f 4b 36 00 bf
       -0.5768967 0.53389883 0.5023271 -0.50082844
000350 a0 0b f7 3f f7 7a 0d 3f 10 21 9d 3f a5 cb ff be
       1.9300423 0.55265754 1.2275715 -0.49960056
000360 60 b1 5e 3e 9b 56 69 bf 9c 1f 7d 3f fd 34 da bf
       0.2174735 -0.91147774 0.9887636 -1.7047421
000370 ec 83 72 3f 97 48 cc 3f b8 15 91 bf ed c8 2e bf
       0.94732547 1.5959653 -1.1334753 -0.6827534
000380 69 d6 e8 3f 5d 31 7e 3f 41 53 cf be 5f 0d f1 3d
       1.8190433 0.9929407 -0.40493205 0.117701285
000390 33 19 49 3f 8b 69 a4 bf 37 24 8b 3f 3d 98 9a bd
       0.78554076 -1.2844709 1.0870427 -0.075485684
0003a0 6c c9 b3 be 98 c7 17 bf ec d2 8f be 5d d8 99 3f
       -0.3511461 -0.5928893 -0.28090608 1.2019154
0003b0 c4 84 bd bf 2a 03 0d bf 23 28 ea 3f e8 1f 33 bf
       -1.4806142 -0.5508295 1.8293499 -0.6997056
0003c0 30 03 9c 3d 28 3b fd bf 08 9b 3f 3f e8 6f 42 3f
       0.076177955 -1.9783678 0.74845934 0.75952005
0003d0 bf 71 91 3d 40 f5 5e bf ee 3e 80 3f 3f 1e d0 be
       0.071017735 -0.8709297 1.0019205 -0.40648076
0003e0 08 fd 6d bf 76 24 e4 be e4 a2 5f 3f 1d df c7 3e
       -0.9296422 -0.44559067 0.87357926 0.3903741
0003f0 77 17 ec be d6 2a f5 be 5d ed 33 bf 47 96 ae 3d
       -0.46111652 -0.47884244 -0.7028406 0.08524757

dense1.bias f4 [51]
000000 d6 46 a6 3e 84 be 2e bf e4 c7 41 3f cd 5e 82 3e
       0.3247592 -0.68259454 0.75695634 0.25462952
000010 5c b2 4f bf d1 48 7f bf 40 f4 da bd 81 09 aa bf
       -0.8113153 -0.99720484 -0.10691118 -1.328415
000020 69 e4 41 be c5 60 42 bf cb b2 13 3e 82 eb 75 3f
       -0.18934788 -0.7592891 0.14423673 0.9606248
000030 fb 22 02 3e 2a 8a 91 3e 04 ed e1 3f 0b 62 25 3f
       0.12708656 0.28425723 1.7650456 0.64602727
000040 b7 17 16 bf 4e 10 9f be a4 c9 ab 3d b3 8d 4b bd
       -0.58629936 -0.31067127 0.08388069 -0.04969568
000050 4e ac 87 3c e1 9d 5b 3e c6 bf c9 be e2 12 b0 bd
       0.016561653 0.21446945 -0.39404124 -0.085973516
000060 a0 aa 86 3e e7 61 f3 3d 88 43 8e 3f e9 09 e6 be
       0.26302052 0.11883908 1.1114359 -0.44929436
000070 b9 f6 80 3f e1 c3 5d be bb 41 cd 3e 1f dd c2 3e
       1.0075294 -0.21656753 0.4008921 0.38059327
000080 2c 17 ff 3e 76 32 c2 3e 25 df 0f 3e eb 8d 09 3f
       0.49822366 0.37929124 0.14049967 0.53732175
000090 7d 5e 8f be 13 84 08 be e9 3c 36 bf f5 73 b8 3e
       -0.28001776 -0.13331632 -0.7118669 0.36025968
0000a0 2a 4e 6f be d4 a1 54 3e fa 1c c6 3e 18 cf 6c bf
       -0.23369661 0.20764858 0.38693982 -0.925035
0000b0 75 b5 66 3f d9 dd d4 bf 9e f8 1a bd 62 d8 43 3f
       0.9012063 -1.6630203 -0.037834756 0.7650205
0000c0 1d e4 54 bf 61 dd 11 bf fd 03 4a 3f
       -0.83160573 -0.5697842 0.78912336

dense2.weight f4 [51, 51]
000000 0a 36 14 3f 5e 14 01 bf c7 5e 9c bf 96 ea 94 bf
       0.5789496 -0.504217 -1.2216424 -1.163409
000010 72 6a ca bf 0a 8f fc bc 85 8e c7 bf ba a7 a8 bf
       -1.5813735 -0.030829925 -1.5590369 -1.3176186
000020 66 c5 80 be d9 71 66 be 8c 3f e7 3c e6 d1 4d bf
       -0.25150603 -0.22504367 0.028228544 -0.80398405
000030 7a b5 cd bf 72 4f af bf a5 32 b4 bf 8b 57 55 be
       -1.6071007 -1.369612 -1.4077955 -0.20834176
000040 7f 84 ac bf 4f a1 1a bf 09 d8 ea be 41 e0 de bf
       -1.3477935 -0.6040239 -0.45867947 -1.7412187
000050 de b0 be bf 92 f1 88 bf fc bb b8 be 9a 86 16 bf
       -1.4897726 -1.0698721 -0.3608092 -0.58799136
000060 1e 80 53 bf 71 1c f1 be 20 02 30 c0 cf c5 60 be
       -0.82617366 -0.47092012 -2.7501297 -0.21950458
000070 02 36 9e bd 81 83 89 3e 3f 92 a7 bd e9 d0 2f bf
       -0.07725145 0.26858142 -0.08182191 -0.68678147
000080 fe a9 f7 bf f9 46 1d be a5 96 94 bc 1c fb ba bf
       -1.9348752 -0.15359105 -0.01813824 -1.4607882
000090 9e d4 ab bf 54 b2 7e bf 22 ca 0d bf 24 f3 38 bf
       -1.3424261 -0.9949086 -0.55386555 -0.72246003
0000a0 e5 87 2c bf 2b be 47 bd bd b0 a2 bf ff 8e d3 bd
       -0.6739486 -0.048765343 -1.2710186 -0.10330009
0000b0 23 41 8d bf 22 88 58 bf 91 ba 67 bf a0 46 34 3e
       -1.1035503 -0.8458272 -0.9051905 0.17605066
0000c0 17 a6 c7 bf 4b 32 34 3f fd aa d4 be 36 62 24 bf
       -1.5597562 0.7038924 -0.41536704 -0.6421236
0000d0 2d 57 aa be 04 7f 9b 3e 6a 38 23 be 83 c6 d4 bf
       -0.33269635 0.30370343 -0.15939489 -1.6623081
0000e0 f8 3c 9e bf 7b 5b d0 bf 0f 75 6f bf dc 5a dd bf
       -1.2362356 -1.6277918 -0.9353799 -1.7293353
0000f0 ee 9e 99 bf 50 e8 bb bf 1f 1e 41 bd 54 a9 ce 3e
       -1.2001626 -1.4680271 -0.047147866 0.40363562
000100 4f 36 92 bd 9b 70 eb 3e 9c f4 db bf 98 0f e4 3e
       -0.07139265 0.4598435 -1.7184024 0.44543147
000110 cf 1f ae bf 24 71 4b bf cd 36 5e 3e f0 14 43 be
       -1.3603457 -0.79469514 0.21700592 -0.19050956
000120 27 5a e0 bf 8a 0a eb bf 81 71 e2 bd 81 af e5 bf
       -1.7527512 -1.8362591 -0.110568054 -1.7944185
000130 50 a1 a2 bf 78 86 20 3f 7e 00 1a c0 58 08 3c be
       -1.2705479 0.62705183 -2.40628 -0.18362558
000140 45 55 fa bf b0 cb cf bf e1 fb 26 bf e0 f4 04 bf
       -1.9557272 -1.6234035 -0.65228087 -0.5193615
000150 b5 7d b8 bf a8 e9 0f c0 f7 4c 61 bf dd 5d 11 3f
       -1.4413363 -2.2486362 -0.88008064 0.5678385
000160 a1 27 05 bf 3e 49 8e bf 19 30 82 3d 8b 8c bb bf
       -0.52013594 -1.1116102 0.0635683 -1.4652265
000170 c0 3f 92 bf 9d 7a 64 3e 5f e2 32 be 64 63 45 3d
       -1.1425705 0.22312398 -0.17469166 0.04819049
000180 13 d8 9b bf 10 b1 b1 bf a3 58 14 bf 6d 3c f2 3e
       -1.2175316 -1.388216 -0.5794775 0.47311726
000190 6b a2 96 bf d6 22 7d be 88 13 44 3d 1a d8 13 bf
       -1.1768316 -0.2472032 0.04787019 -0.5775162
0001a0 eb 3c eb be 6e e1 ca 3e 41 f5 8c bf 15 4c 87 be
       -0.45944914 0.39625114 -1.1012346 -0.26425233
0001b0 84 67 82 bf b5 1a 8b be 1e 21 6d bf ce 49 10 bf
       -1.018784 -0.27168813 -0.9262866 -0.56362617
0001c0 25 9e 41 bf 18 76 d4 bc c0 57 d2 bf 67 8c 8a bf
       -0.75631934 -0.025935218 -1.6433029 -1.0824097
0001d0 9c 85 58 bf cf 5d 35 bf 31 a4 7b be 35 5f 2d bf
       -0.8457887 -0.70846266 -0.24574353 -0.677234
0001e0 15 78 5e be 77 84 97 bf ad 93 0e bf d5 cc a8 bf
       -0.21725495 -1.18373 -0.55694085 -1.318751
0001f0 c4 ab d2 be eb 5f 61 bf e1 73 60 bf 9f fc a2 bf
       -0.41146672 -0.88036984 -0.8767682 -1.2733344
000200 20 dc 88 bf 33 c0 57 bf 96 ea 28 bf 8a fd a2 bf
       -1.0692177 -0.8427765 -0.6598295 -1.2733624
000210 d2 3c a5 bf 47 16 1a bf e7 5d 07 bf 91 ff 66 bf
       -1.2909186 -0.6019024 -0.5287766 -0.90233713
000220 be 64 fc bf 23 da 4b be f0 2e 23 bd fd d4 8e bf
       -1.9718244 -0.19907431 -0.039839685 -1.1158749
000230 39 24 2e 3e 96 eb 26 bf 16 94 53 bd d0 c9 ed be
       0.17006005 -0.65203226 -0.051654898 -0.46443033
000240 c8 2c 93 bf 32 a8 1d 3e 9c 93 69 bf cd f2 3b be
       -1.1498041 0.15396193 -0.9124086 -0.1835434
000250 1a 2a 13 bf a0 9e 99 3d 5e 2a 28 bf 15 08 be bd
       -0.57486117 0.075009584 -0.6568965 -0.09278885
000260 ef a9 7d bf 7e 14 1a bf 43 83 f9 bd f6 d6 c4 3e
       -0.99087423 -0.6018752 -0.12183239 0.38445252
000270 46 68 b5 3c c4 d5 ee bf 02 3f 73 bf 11 4c de bf
       0.022144448 -1.8658986 -0.9501802 -1.7366964
000280 75 f0 66 bf 15 e4 d1 bf 4b 72 a9 bf f8 f8 a6 bf
       -0.9021066 -1.639773 -1.3238004 -1.3044729
000290 58 8f 24 bd 11 19 a5 3e 46 3d 51 be 4e 2b 95 3e
       -0.040175766 0.32245687 -0.2043353 0.291346
0002a0 4f 3e d4 bf e7 ad da 3e b2 67 bb bf 33 39 1b bf
       -1.6581515 0.42710802 -1.464102 -0.60634154
0002b0 1e f7 e3 3c 05 e1 eb be 6e 25 de bf 17 64 ea bf
       0.027827796 -0.46070114 -1.7355173 -1.8311795
0002c0 31 63 29 be a0 35 f0 bf 4e c2 b7 bf 69 18 0e 3f
       -0.16541745 -1.8766365 -1.4356172 0.55505997
0002d0 02 0c 17 c0 08 80 34 be 01 20 fa bf 76 ae f4 bf
       -2.360108 -0.17626965 -1.9541017 -1.9115741
0002e0 9e 94 0b bf 52 f5 2c bf c4 5f 96 bf b5 f5 00 c0
       -0.54523647 -0.6756183 -1.1747975 -2.0149968
0002f0 ba 4e 76 bf 8d bf ea 3e ba cb f2 be 11 db ab bf
       -0.9621388 0.45849267 -0.47421056 -1.3426229
000300 0d ee 81 bd d4 0f bc bf 2b ca 8c bf 71 35 36 3e
       -0.06344233 -1.469233 -1.0999197 0.17793824
000310 24 10 bf be de b3 01 bd 01 5a a0 bf 20 7d ac bf
       -0.37317002 -0.031665675 -1.2527467 -1.3475685
000320 20 07 e9 be 6b da 81 3e 17 e3 82 bf 91 22 d9 be
       -0.45513248 0.25361952 -1.0225552 -0.42409185
000330 b3 10 36 bf 19 84 85 be ef 6f c8 3e a4 f0 59 be
       -0.7111923 -0.26077345 0.391479 -0.21283203
000340 91 b9 c3 bf 95 6f b6 bf 09 bc f9 bf 46 64 61 bf
       -1.5291005 -1.4252802 -1.9510509 -0.8804363
000350 4c d6 de bf 5f be 94 bf cf 31 ac bf ce fc 96 be
       -1.7409148 -1.1620597 -1.34527 -0.2948975
000360 57 d6 53 3e f4 00 8c bc 78 37 d4 3e e1 6f b2 bf
       0.20687233 -0.017090298 0.4144857 -1.3940393
000370 ac ab ea 3e a7 e5 93 bf 25 8e 30 bf 6c fc 09 3e
       0.458341 -1.1554459 -0.68966895 0.13475198
000380 fc bf 9d be ca 45 ce bf b5 b0 ed bf 9f 6f a2 3d
       -0.30810535 -1.6115048 -1.8569552 0.07931446
000390 9c aa f4 bf 30 f3 ac bf 4f 37 86 3e 9f cf 18 c0
       -1.9114566 -1.3511715 0.26214072 -2.3876722
0003a0 bc cf 86 be 65 43 f2 bf b5 26 fd bf 5a 14 29 bf
       -0.26330364 -1.8926817 -1.9777437 -0.6604668
0003b0 bd 3d 18 bf c2 a5 a7 bf af 87 0b c0 1e eb 94 bf
       -0.59469205 -1.309746 -2.1801565 -1.1634252
0003c0 af b3 e1 3e 82 0d 49 bf 9d 1b 99 bf 9a 4e 8f bd
       0.440824 -0.78536236 -1.1961552 -0.06997414
0003d0 2b 47 a1 bf f2 22 55 bf dc df 6d 3e 39 3e a1 bd
       -1.2599844 -0.8325645 0.23229927 -0.07873196
0003e0 60 a4 8f 3d 9e fe 7a bf 87 ce 8b bf d8 af 47 bf
       0.07013774 -0.98044765 -1.0922402 -0.7800269
0003f0 81 af cf 3e bd 7b 95 bf 45 41 7f be e3 dc 76 bf
       0.40563586 -1.1678387 -0.24927242 -0.96430796

dense2.bias f4 [51]
000000 fd 7f 47 be 21 e0 e7 3d 2e 34 c9 be a1 a2 8b 3e
       -0.19482417 0.11322046 -0.39297622 0.27272514
000010 0d 58 78 3e 00 43 6a 3e 98 c1 e1 bd 5b 23 6b be
       0.24252339 0.22877121 -0.11023253 -0.22962706
000020 fd 88 66 be 9b de 15 3e e7 3e 7b be 50 8c 6e bf
       -0.22513194 0.14635698 -0.24535714 -0.9318285
000030 19 9a 81 be f0 b1 b9 3e 23 98 10 be ad 17 d8 3d
       -0.2531288 0.36268568 -0.14120536 0.10551391
000040 63 20 20 bc ff b3 24 3e bb 76 4c 3e e5 5f 7a 3e
       -0.009773347 0.16084288 0.19967167 0.24450643
000050 6f 9f f9 be ca 60 a9 be 01 96 bf 3d c3 1e b8 3e
       -0.4875445 -0.33081657 0.09354783 0.3596097
000060 4b a3 89 3e 7d 81 42 be 6e b8 2e bf 5b e5 94 3c
       0.26882395 -0.18994708 -0.6825017 0.018175771
000070 ef 54 5d be bf a5 1c 3e b6 19 a0 3e 18 b9 fa be
       -0.21614431 0.15297602 0.31269616 -0.4896934
000080 90 d4 43 3e db e5 5d bf c4 6c 93 be da 33 dd be
       0.19124055 -0.86678857 -0.2879392 -0.43203622
000090 f3 fd d5 be ed 2f 90 3d df 70 78 3e 06 c0 ac be
       -0.4179531 0.07040391 0.24261807 -0.33740252
0000a0 43 0c 4d 3e 76 6d 33 bf 9a f7 15 be 86 02 fb be
       0.20024209 -0.700889 -0.14645234 -0.49025363
0000b0 41 01 8f 3e fb 45 92 3e 40 f2 4e 3e a2 61 ee be
       0.27930644 0.28569016 0.20209599 -0.46558863
0000c0 e7 40 db 3d 14 5a 56 be 20 aa cf be
       0.107057385 -0.209328 -0.40559483

dense3.weight f4 [3, 51]
000000 b0 5a fc 3e 4a 2e 88 bf 38 5a 1c 3f fb 58 4d bf
       0.4928794 -1.0639126 0.6107516 -0.802139
000010 5f af 45 bf 7d 83 08 bf 5d 16 f7 3c a4 c4 8c be
       -0.7722072 -0.53325635 0.03016203 -0.27493775
000020 5b 83 79 3e d6 f5 12 bf a1 55 36 3f 6b 33 05 3f
       0.24366514 -0.57406366 0.7122441 0.5203158
000030 a3 33 3b 3f 98 21 03 bf ef c8 5e bf d2 ee 10 bf
       0.73125666 -0.51223135 -0.8702535 -0.5661441
000040 42 2b 5a bf b2 f2 22 bf 3d eb 7a bf 4a 7b 7e bf
       -0.85222256 -0.63651574 -0.98015195 -0.99406874
000050 bf 5a 43 3f 8c bc 39 3f f2 83 53 be c9 37 83 bf
       0.7631034 0.72553325 -0.20655802 -1.0251399
000060 ae c8 04 bf bf cb bb 3e 63 62 61 3e 3c f8 f2 be
       -0.5186871 0.36678883 0.22010188 -0.47455013
000070 3e 02 e9 be 87 69 88 bf 6f b0 05 bf 17 57 49 3f
       -0.45509523 -1.0657204 -0.5222234 0.78648514
000080 9e ae 1e bf b1 f8 91 bd 28 c9 f1 3e cf ac 1e 3f
       -0.61985195 -0.07127512 0.47223783 0.61982435
000090 b2 3b 55 3f fd e0 36 bf fd 7b 5f bf 9d 98 0c 3f
       0.8329421 -0.71437055 -0.87298566 0.5492037
0000a0 43 ba b7 bf 58 4e 3b 3f a3 b6 6c bf 48 62 39 3f
       -1.4353718 0.7316642 -0.9246618 0.7241559
0000b0 82 f6 7f bf fc 47 24 bf fd b7 37 3e 9c 42 0c 3f
       -0.99985516 -0.6417234 0.1794128 0.5478914
0000c0 de 20 07 bf 02 23 42 3f 86 aa d3 3e 2b bb 7f 3e
       -0.52784526 0.7583467 0.41341037 0.24973743
0000d0 ff 83 88 3f fe fe 78 3e 0e 4d 81 3f 13 df 92 3f
       1.0665282 0.24316022 1.010164 1.1474327
0000e0 b2 50 88 3f 82 1d 45 3f 5a c1 5a 3f d8 5f 40 3f
       1.0649626 0.7699815 0.8545128 0.75146246
0000f0 54 b6 4a 3f 9c 78 fb bd 95 88 98 3e 60 d4 a2 be
       0.7918446 -0.12278864 0.29791704 -0.31802654
000100 27 8e 8c 3f 7c 26 56 3f 0c 2f 88 3f 53 c8 6e 3f
       1.0980881 0.8365247 1.0639358 0.9327442
000110 58 be 4f 3f 53 0d 71 3f 4c 97 96 3f 72 98 8b 3e
       0.81149817 0.94160956 1.1764922 0.27264744
000120 77 ed 0b bf ce 08 7d 3f 68 30 94 3f fb e2 77 3f
       -0.5465922 0.9884156 1.1577272 0.9683072
000130 87 46 30 bf 3f 34 cc be f4 3a 74 3f 21 b5 3b 3f
       -0.68857616 -0.3988361 0.95402455 0.73323256
000140 91 13 86 3f 9a f9 82 3f b1 43 08 bf ab 39 79 3f
       1.0474721 1.0232422 -0.5322829 0.9735362
000150 69 2c 00 3e 1a 71 a9 3e a4 f6 71 bd 66 15 48 bf
       0.12516941 0.33094102 -0.059073105 -0.7815765
000160 64 b1 68 bc 45 2d 07 be d5 90 88 3e 4b 0b 0c 3f
       -0.0142024495 -0.13200863 0.26672998 0.5470473
000170 36 5e c8 3d 31 70 b4 3f 3d 16 3d bf ce ac 88 3f
       0.09783594 1.4096738 -0.7386206 1.0677736
000180 fa 57 99 3f 92 6d 83 3f 8f bf a8 3e fc f4 02 3e
       1.1979973 1.0267813 0.32958648 0.12788767
000190 9d ae 0f bf 06 fa 26 bf 17 31 73 bf e0 6a e4 be
       -0.56125814 -0.65225255 -0.9499678 -0.4461279
0001a0 a4 2c 0c bf d8 7f c4 be ba 8b ed be df 8a ec be
       -0.54755616 -0.38378787 -0.46395665 -0.461997
0001b0 7f 01 b8 be d8 cc ef be 43 98 03 bf be e9 d4 be
       -0.3593864 -0.4683597 -0.5140421 -0.4158458
0001c0 27 ba 79 be f8 14 1d bf 2c 72 39 be 58 17 2a bf
       -0.24387418 -0.6136012 -0.1810996 -0.6644187
0001d0 54 a0 44 3e 92 0d 05 bf 80 4f 1b be 8c 8b 02 bf
       0.19201785 -0.5197383 -0.15167046 -0.5099418
0001e0 18 f8 98 be ea 04 86 be 23 77 f4 be 4c 0b 8d 3d
       -0.2987678 -0.26175624 -0.47747144 0.0688692
0001f0 b2 67 9b be 4c d0 bf be 3c 65 58 bf a5 e5 a8 3e
       -0.3035255 -0.37463605 -0.8452947 0.32987705
000200 ed 76 c5 3e b6 7c f7 be 99 41 93 3e ab 3c 65 be
       0.38567296 -0.48337334 0.28760985 -0.22386424
000210 d6 47 3d bf b7 b5 58 bd 5f a6 27 bf 7d 33 ae bd
       -0.7393774 -0.05290767 -0.6548824 -0.08505914
000220 39 f5 3d bf 9f c4 40 be cd 7e fa bd f0 7b 86 3f
       -0.74202305 -0.18825005 -0.122312166 1.0506573
000230 f9 21 7a 3f 5c 40 3b bf cf c2 eb 3e f8 56 0d be
       0.9770809 -0.7314508 0.46047065 -0.13802707
000240 d8 2d 07 bf 16 7e 22 bd 24 ab 93 be 26 e4 c5 be
       -0.52804327 -0.039671026 -0.28841507 -0.38650626
000250 8a 53 72 bf 5d fd f8 be 3d c4 29 3f 72 cf 63 be
       -0.9465872 -0.486308 0.6631506 -0.22247103
000260 0d cc 4a 3e
       0.19804402

dense3.bias f4 [3]
000000 d0 8d 61 3e f8 5f 1b 3e a1 25 54 3e
       0.22026753 0.15173328 0.2071748
