code/params/policy_A2C_parmeters.pt (torch, 23959 bytes, 6 tensors)

model.0.weight f4 [64, 51]
0	0xbaf6f55a	-0.0018841431
1	0xbd18757b	-0.037221413
2	0x3da60300	0.08106041
3	0x3bf5a4dc	0.0074964594
4	0x3d263cad	0.04058521
5	0x3cfd1337	0.030892951
6	0xbb4d7203	-0.0031348474
7	0x3e05110e	0.12994787
8	0x3dc0ecb8	0.094201505
9	0xbce60b11	-0.028081449
10	0x3c68448e	0.014176501
11	0x3d0de445	0.034641523
12	0xbd6439f8	-0.055719346
13	0x3c954d6c	0.018225394
14	0xbd87e3c4	-0.0663524
15	0xbd96170a	-0.07328613
16	0x3d92604d	0.07147274
17	0x3ce09635	0.027415374
18	0xbd8adbae	-0.06780182
19	0x3d05ae98	0.03263721
20	0x3d953cfc	0.072870225
21	0x3e105a83	0.14097027
22	0x3d866f36	0.065641806
23	0xba1452af	-0.0005658073
24	0x3e025ef8	0.1273154
25	0xbd4256bd	-0.047446
26	0xbd692284	-0.056917682
27	0xbdcb3409	-0.09922034
28	0xbd7eec2a	-0.062236942
29	0x3d94f17c	0.07272622
30	0xbde18b3b	-0.11012884
31	0xbd51eb30	-0.051249683
32	0xbbd432af	-0.0064757685
33	0x3b547e34	0.0032423856
34	0x3db5ec82	0.08883001
35	0x3de14db5	0.110011496
36	0x3b9578de	0.0045615276
37	0xbe0e9348	-0.13923371
38	0xbd7a58de	-0.061119907
39	0x3dec9f9f	0.11553883
40	0x3dc81d95	0.09771267
41	0xbcefb662	-0.029261772
42	0x3e134315	0.14381059
43	0x3c7edf43	0.015556159
44	0x3ca8b380	0.020593405
45	0x3c47e3e1	0.012200327
46	0x3cf1c512	0.029512916
47	0x3db78f8b	0.089629255
48	0xbdcdfeec	-0.10058388
49	0x3dbb3776	0.09141438
50	0xbe0e50d4	-0.13898021
51	0xbda8d131	-0.08243025
52	0x3b902869	0.0043993485
53	0xbd6a19cf	-0.05715352
54	0x3dda4b9b	0.10658952
55	0xbdceb311	-0.10092748
56	0x3d44ec11	0.048076693
57	0xbcd3680e	-0.025806453
58	0x3daac2d3	0.08337941
59	0xbd17bd53	-0.037045788
60	0x3dd13773	0.10215654
61	0xbde11e88	-0.109921515
62	0xbe0451ae	-0.12921783
63	0x3dbd7ff6	0.09252922
64	0xbde3a05c	-0.111145705
65	0x3d22331a	0.039599515
66	0x3d7fbd1f	0.06243622
67	0x3cc3b831	0.02389154
68	0xbdcdc107	-0.10046583
69	0x3dc12791	0.09431375
70	0xbdd854a1	-0.10563017
71	0xbe013660	-0.12618399
72	0x3dba6d7b	0.09102913
73	0xbe044a40	-0.12918949
74	0x3c69c543	0.014268222
75	0x3dbbfc49	0.09178979
76	0x3bb38373	0.0054783165
77	0xbd123687	-0.035696533
78	0xbd2d7f45	-0.0423577
79	0xbdcbbe20	-0.09948373
80	0xbda533e6	-0.080665395
81	0xbb73f26c	-0.0037223352
82	0x3d45a481	0.048252586
83	0x3dc2b80a	0.09507759
84	0x3c092282	0.008370044
85	0x3d285c28	0.041103512
86	0xbe0bf024	-0.13665825
87	0xbd3bdd27	-0.045865204
88	0x3d9b3a7b	0.07579514
89	0xbd5a8775	-0.05335184
90	0xbdd14926	-0.1021903
91	0x3c9187a1	0.017764868
92	0xbe143dd8	-0.14476717
93	0xbd322690	-0.043493807
94	0xbbb95999	-0.005656433
95	0x3e03f1be	0.12885186
96	0x3d0480eb	0.03234951
97	0x3d0e09c7	0.034677293
98	0xbde55830	-0.11198461
99	0xbca3163f	-0.019908069
100	0xbe0d7249	-0.13813128
101	0x3dce5dbb	0.100764714
102	0xbd2a5bb5	-0.041591365
103	0xbd496908	-0.04917243
104	0x3ddeb3bb	0.108741246
105	0x3dde0a2c	0.10841784
106	0xbd8dd368	-0.06925088
107	0xbd51e2c9	-0.05124167
108	0xbd80512b	-0.062654816
109	0x3ba96471	0.0051694443
110	0xbe023b77	-0.12717997
111	0x3dd610a5	0.104523934
112	0x3e0225dc	0.12709755
113	0x3d8fd6bd	0.0702338
114	0xbcaf3bdf	-0.021390853
115	0x3b62b33e	0.00345917
116	0x3daaeec7	0.083463244
117	0xbd1049ee	-0.035226755
118	0xbde7af6e	-0.113127574
119	0x3ddf057b	0.10889717
120	0x3de12ce2	0.10994889
121	0x3d368534	0.044560626
122	0x3b2eabfa	0.00266528
123	0x3e0a2673	0.1349123
124	0xbc57dd27	-0.013175285
125	0x3d6af414	0.057361677
126	0xbdfded69	-0.12398798
127	0xbd834e72	-0.06411447
128	0x3d07c8bd	0.033150423
129	0xbd65b39e	-0.0560795
130	0xbdf43d75	-0.119257845
131	0xbdef9f8f	-0.11700355
132	0x3d36388d	0.044487525
133	0x3d35c53d	0.044377554
134	0x3e0b5361	0.13606025
135	0xbb27018c	-0.00254831
136	0xbc918767	-0.01776476
137	0xbd873bce	-0.06603204
138	0x3d7f93df	0.06239688
139	0xbad06693	-0.001589971
140	0x3d909703	0.07060053
141	0xbd80cacf	-0.06288683
142	0x3dee52e2	0.116369024
143	0xbd59f819	-0.05321512
144	0x3d0d1a9c	0.034449205
145	0xbe0a784b	-0.1352245
146	0xbdff3dc0	-0.1246295
147	0x3e00110c	0.12506503
148	0xbde552c4	-0.11197427
149	0x3da94c23	0.08266475
150	0x3e03219f	0.12805794
151	0xbda9afcf	-0.08285486
152	0xbdfb1cde	-0.12261365
153	0xbcbd40c0	-0.023102164
154	0xbe0815c0	-0.13289547
155	0x3cc17216	0.02361397
156	0xbc3e1608	-0.011601932
157	0xbdc33955	-0.095324196
158	0xbd545e43	-0.051847707
159	0x3d9d2331	0.07672728
160	0x3d1347a4	0.035956994
161	0xbe08223e	-0.13294312
162	0xbde17501	-0.11008645
163	0xbd828acd	-0.063741304
164	0xbd88d165	-0.06680564
165	0xbd0a71c7	-0.033799913
166	0x3daec0c1	0.08532859
167	0xbb17d72c	-0.0023169024
168	0xbd11e80e	-0.035621695
169	0x3d182a7e	0.0371499
170	0xbdce4336	-0.10071413
171	0x3c89f15c	0.016838722
172	0x3dd46cf3	0.10372343
173	0xbde862d2	-0.113469735
174	0xbdc77775	-0.097395815
175	0xbc1826bf	-0.009286582
176	0x3d928d7e	0.07155894
177	0xbd5e6e6a	-0.054304518
178	0x3d33d800	0.043907166
179	0xbc752a0f	-0.014963641
180	0x3d82674e	0.0636736
181	0x3d77ed73	0.060529184
182	0x3d20d0ce	0.03926163
183	0x3d8d6e61	0.06905819
184	0xbdddf620	-0.1083796
185	0x3dab4024	0.08361843
186	0x3e0ecfcd	0.13946457
187	0xbca267a7	-0.019824816
188	0xbd9dd574	-0.077067286
189	0x3b9608da	0.004578692
190	0x3d3c82da	0.046023227
191	0xbcdc1e64	-0.02686996
192	0xbd399d12	-0.04531581
193	0x3cbb04ff	0.02282953
194	0xbdbf8fe2	-0.09353615
195	0xbdf5d84f	-0.12004148
196	0x3ddf85f6	0.10914223
197	0x3babeb44	0.0052465517
198	0x3dc6887f	0.09694003
199	0x3d104b5b	0.035228115
200	0x3d5a65d9	0.053319786
201	0xbb0ed98d	-0.002179715
202	0x3de34bb4	0.110984236
203	0x3d610ee3	0.054945838
204	0x3d6ea2ad	0.05826061
205	0xbc746852	-0.01491745
206	0x3da8c1b4	0.08240071
207	0x3e0d04e6	0.137714
208	0x3da06950	0.07832587
209	0x3d0a43d3	0.03375609
210	0x3c291b59	0.010321462
211	0xb9c58b36	-0.00037678488
212	0xbd5d3d4b	-0.05401353
213	0x3df852d2	0.12125172
214	0x3d2130ff	0.039353367
215	0xbcc5ea9f	-0.024159728
216	0x3d869d1a	0.065729335
217	0x3df75084	0.12075904
218	0x3d22e32c	0.03976743
219	0x3d14608c	0.036224887
220	0xbd8318ab	-0.064011894
221	0xbdb63852	-0.08897461
222	0xbd398bb6	-0.045299254
223	0xbe010bc7	-0.12602149
224	0xbcba25ca	-0.022723097
225	0xbbf4ae7a	-0.0074670883
226	0xbd84d750	-0.0648638
227	0x3c85fdf5	0.016356448
228	0x3e02fa17	0.12790714
229	0x3e02c205	0.12769325
230	0x3d623093	0.055222105
231	0xbd938d0b	-0.07204636
232	0x3db16dc4	0.08663514
233	0x3dbacd87	0.091212325
234	0xbdcae524	-0.09906986
235	0xbe09dd48	-0.13463318
236	0x3dfa1b5f	0.12212252
237	0x3c9f190c	0.019421123
238	0xbd9f2be3	-0.077720426
239	0x3c9e58e1	0.01932949
240	0xbd22f519	-0.039784525
241	0x3ce1483e	0.027500268
242	0x3d99cea9	0.075101204
243	0xba77069a	-0.0009423286
244	0xbdb2b099	-0.087250896
245	0xbd828cec	-0.06374535
246	0x3e16385d	0.14669938
247	0xbd69f315	-0.057116587
248	0xbc9a066c	-0.01880189
249	0xbd6a0b8d	-0.057139922
250	0xbdc608be	-0.09669636
251	0x3cbc2eb1	0.022971483
252	0xbdf70450	-0.120613694
253	0x3d070e3b	0.032972556
254	0x3a45519a	0.0007527113
255	0xbdc982c9	-0.098393984

model.0.bias f4 [64]
0	0xbd93a66a	-0.07209475
1	0xbd555698	-0.052084535
2	0x3dfaa211	0.12237943
3	0x3d873836	0.06602518
4	0x3d42029e	0.047365777
5	0xbde30379	-0.11084647
6	0xbc7ecee2	-0.015552254
7	0x3dd48a34	0.10377923
8	0xbd61aa34	-0.05509396
9	0xbd5315a5	-0.051534314
10	0xbd39d30a	-0.04536728
11	0xbd13d369	-0.03609029
12	0xbda59d66	-0.08086662
13	0x3d5a0f6e	0.05323737
14	0x3d980983	0.07423689
15	0xbdc23d15	-0.09484307
16	0x3d9a1b6a	0.0752476
17	0xbc973abf	-0.01846063
18	0x3a616cd9	0.00085992884
19	0x3daabed5	0.083371796
20	0x3dac5805	0.08415226
21	0xbda40ad1	-0.080098756
22	0xbd3162e5	-0.043307204
23	0xbc0c61c7	-0.008568234
24	0x3ca86f01	0.020560743
25	0x3d98b2f8	0.074560106
26	0xbdc42415	-0.095771946
27	0x3e09789c	0.13424915
28	0xbdbeab19	-0.09309978
29	0x3df6c6e1	0.12049652
30	0xbdbcf8ea	-0.09227164
31	0xbd2f9983	-0.04287101
32	0xbcb21833	-0.021740055
33	0x3d3d4f6e	0.04621833
34	0x3cb3c4c6	0.021944415
35	0x3d94df9e	0.07269214
36	0x3d2be029	0.041961823
37	0x3ce1f3cd	0.027582074
38	0xbde24f0a	-0.11050232
39	0x3dfa80da	0.12231608
40	0x3dea37f4	0.114364535
41	0x3d62300a	0.055221595
42	0xbcbfce75	-0.023413876
43	0xbcdb3bec	-0.026761971
44	0x3dab836f	0.08374678
45	0x3d0e2bdd	0.0347098
46	0x3d87e12d	0.06634746
47	0x3d5c5419	0.05379114
48	0xbde8e521	-0.11371828
49	0xbdccbd05	-0.0999699
50	0x3d452a3a	0.048135974
51	0x3ba23411	0.0049500545
52	0xbd2f1834	-0.04274769
53	0x3d84f629	0.06492264
54	0xbdb68ed8	-0.08913964
55	0xbd354848	-0.044258386
56	0xbc23258c	-0.009957682
57	0x3b830f3a	0.003999618
58	0x3c252547	0.010079688
59	0x3dff8ce2	0.12478043
60	0xbd91710a	-0.071016386
61	0x3cb681d7	0.02227871
62	0xbca8725d	-0.020562345
63	0xbdb6bca5	-0.089227

model.2.weight f4 [32, 64]
0	0xbda7c4cd	-0.08191834
1	0xbdfac555	-0.12244669
2	0xbe015918	-0.12631643
3	0xbd3c232a	-0.045931973
4	0xbd8ae44b	-0.06781825
5	0x3d2eb150	0.042649567
6	0x3c8dca86	0.017308485
7	0x3d32cbc8	0.043651372
8	0x3db6e5ff	0.08930587
9	0x3d205362	0.03914202
10	0x3d31eb2d	0.04343717
11	0x3bd58643	0.0065162494
12	0xbd3503b2	-0.044192977
13	0x3df677aa	0.12034543
14	0xbba6ebfe	-0.0050940504
15	0x3d081c6e	0.033230238
16	0x3cfbab80	0.030721426
17	0x3ce67d6f	0.028135983
18	0x3d7e979d	0.06215631
19	0x3c2edaa6	0.010672247
20	0xbd952893	-0.072831295
21	0x3dd7295a	0.10505934
22	0xbd788396	-0.060672365
23	0xbce23739	-0.027614223
24	0x3dca981b	0.09892293
25	0x3dce2585	0.1006575
26	0xbacc2756	-0.0015575688
27	0xbd7401e9	-0.059572134
28	0xbd127016	-0.035751425
29	0xbdf1addf	-0.118007414
30	0x3c7c4012	0.015396135
31	0xbda3aebf	-0.079923145
32	0xbde26964	-0.11055258
33	0x3d0c18d5	0.03420337
34	0x3ca41f6b	0.020034513
35	0xbd1b0fef	-0.037856992
36	0x3ce64f70	0.02811405
37	0x3e09c149	0.13452639
38	0xbda6cce0	-0.081445456
39	0xbd9d76ab	-0.0768865
40	0x3c6228e5	0.013803695
41	0xbde17005	-0.11007694
42	0xbcbec94d	-0.023289347
43	0x3d5d2fb4	0.05400057
44	0x3ca09b9e	0.019605454
45	0x3df1dbbc	0.11809489
46	0x3dd293c9	0.10282094
47	0x3df19cca	0.11797483
48	0xbb6a050e	-0.003570858
49	0x3de64682	0.11243917
50	0x3c3f819f	0.011688619
51	0xbcd218c4	-0.025646575
52	0xbd2c1473	-0.04201169
53	0xbd8d2113	-0.06891074
54	0xbcb41b41	-0.021985652
55	0x3c39c7da	0.011339152
56	0x3d68b73a	0.056815363
57	0x3c97b0af	0.018516866
58	0x3b534d73	0.0032242208
59	0xbd439b41	-0.047755484
60	0xbc62ec1c	-0.013850238
61	0x3dee3cbe	0.116326794
62	0x3d3219da	0.043481685
63	0x3d61a43a	0.05508826
64	0x3da3e2e4	0.0800226
65	0x3dba81dd	0.09106801
66	0xbd9b34b2	-0.0757841
67	0x3d7c2528	0.061558872
68	0xbc5a67a1	-0.013330371
69	0xbd92ffee	-0.07177721
70	0x3d1bbd9f	0.038022634
71	0xbd6b213b	-0.057404738
72	0xbc8d89fb	-0.017277708
73	0x3d424137	0.047425475
74	0xbd14cf2a	-0.03633038
75	0xbdabe798	-0.083937824
76	0x3d5fc2c2	0.054629095
77	0x3de95d70	0.11394775
78	0xbdd0f87b	-0.10203644
79	0x3db4f9af	0.08836686
80	0xbc940dda	-0.018073011
81	0x3deb8f7c	0.11501977
82	0xbd6fe9b9	-0.058572505
83	0x3db58b5a	0.0886447
84	0xbd8998d2	-0.06718601
85	0xbb86ef6c	-0.004117897
86	0xbc552d98	-0.013011359
87	0x3db2c51f	0.08729004
88	0xbd09a314	-0.03360279
89	0x3d32b8c1	0.043633226
90	0x3d9abc4f	0.07555448
91	0xbd0afe5c	-0.033933982
92	0x3af464fe	0.0018645821
93	0xbd534b1c	-0.0515853
94	0x3d62cc20	0.05537045
95	0x3bfc3052	0.00769619
96	0xbd7642f2	-0.060122438
97	0xbda1a3c7	-0.07892566
98	0x3d664c37	0.056225028
99	0x3d0334e4	0.032032862
100	0xbd8ec61d	-0.06971381
101	0xbd91f887	-0.07127481
102	0x3d78d1f8	0.060747117
103	0xbdfcd200	-0.12344742
104	0x3d7263b3	0.05917711
105	0xbdbd89b4	-0.092547804
106	0xbd0287bd	-0.03186773
107	0xbc6306b4	-0.013856579
108	0xbd9c47c6	-0.07630877
109	0x3dc7127f	0.09720325
110	0x3d2b016f	0.041749414
111	0xbda3287d	-0.07966707
112	0x3dc7af52	0.097502366
113	0xbd6fa8a8	-0.058510453
114	0x3d1d5bc6	0.0384176
115	0x3dca9f6f	0.09893691
116	0xbb8fa130	-0.0043832287
117	0xbc6dde23	-0.014518294
118	0xbdb57806	-0.08860783
119	0x3d7f8dc0	0.062391043
120	0xbc8290a6	-0.015938114
121	0xbda856c9	-0.08219678
122	0xbdfb9f37	-0.12286227
123	0xbca78037	-0.02044688
124	0xbd46d13a	-0.048539378
125	0x3dea60e6	0.11444263
126	0xbd57f6dd	-0.05272566
127	0x3df07440	0.11740923
128	0x3dba3100	0.09091377
129	0xbd4d6302	-0.05014325
130	0xbdc4e1f7	-0.09613412
131	0xbba5a859	-0.005055469
132	0x3dc9f30f	0.09860813
133	0xbd8add6b	-0.067805134
134	0xbde29d2f	-0.11065137
135	0xbd90b3dd	-0.07065556
136	0xbde4559a	-0.1114914
137	0x3d833369	0.0640629
138	0xbd9e2c55	-0.077232994
139	0xbd753ca9	-0.059872303
140	0xbd778628	-0.060430676
141	0xba8bed85	-0.0010675645
142	0x3d94b140	0.0726037
143	0xbd8178c5	-0.06321863
144	0x3dbfc74e	0.09364186
145	0x3d846bab	0.064658485
146	0xbd3fd742	-0.046836145
147	0xbd539218	-0.051652998
148	0xbd89f837	-0.06736796
149	0x3da9885b	0.08277961
150	0xbd9f425b	-0.07776328
151	0x3dd155b8	0.10221428
152	0x3e02867b	0.12746613
153	0xbd2621e5	-0.040559668
154	0xbcb80c69	-0.022466855
155	0xbd2ccdd2	-0.042188473
156	0xbdf37949	-0.11888368
157	0x3c894ea6	0.016761135
158	0x3de91ccf	0.11382448
159	0xbd2afd1f	-0.0417453
160	0x3d2ba353	0.041903805
161	0xbdf0eb1d	-0.11763594
162	0xbb4cf52d	-0.0031274066
163	0xbd827837	-0.063705854
164	0x3db4813e	0.088137135
165	0xbd9fbd16	-0.07799737
166	0x3db28ef6	0.08718674
167	0xbd1d2fe0	-0.038375735
168	0xbdef0a2e	-0.116718635
169	0x3dac573d	0.08415077
170	0x3bbdcb4e	0.005792058
171	0xbdab96ab	-0.08378347
172	0x3db1956a	0.086710766
173	0x3da73c73	0.08165827
174	0x3da1064b	0.078625284
175	0x3c37b12e	0.0112116765
176	0x3dad1b5a	0.084524825
177	0x3d87b9d3	0.0662724
178	0xbd388238	-0.04504606
179	0x3d9089ef	0.07057559
180	0xbdbaf07b	-0.09127899
181	0xbdea8897	-0.11451834
182	0xbd2f56b8	-0.04280731
183	0xbb120172	-0.0022278694
184	0xbc9f9146	-0.019478451
185	0x3c83c708	0.016086116
186	0x3dc3fcfa	0.09569736
187	0xbd0f86e5	-0.035040755
188	0xbd04de68	-0.032438666
189	0x3b9feed7	0.004880767
190	0xbd8429c7	-0.06453281
191	0x3d743e2a	0.059629597
192	0x3c16c82e	0.009203
193	0xbdf18cd6	-0.117944404
194	0xbdad7de7	-0.084712796
195	0xbd943d61	-0.072382696
196	0x3daf869e	0.08570598
197	0x3db22a84	0.086995155
198	0x3d64f2dd	0.055895675
199	0xbb66326a	-0.0035125264
200	0xbda148f6	-0.07875244
201	0x3d5c18d5	0.05373462
202	0x3c09d242	0.008411946
203	0xbd75e194	-0.06002958
204	0x3da702e1	0.08154846
205	0x3d43a2a2	0.04776252
206	0x3d727f04	0.059203163
207	0xbc6d20f2	-0.014473187
208	0x3d896404	0.067085296
209	0x3d1c5143	0.038163435
210	0xbcfd90d6	-0.030952852
211	0x3c4f75d3	0.012662369
212	0xbd89d343	-0.06729748
213	0xbd22b26b	-0.039720934
214	0xbe0028fb	-0.12515633
215	0x3e0012a8	0.12507117
216	0xbde2fd29	-0.11083443
217	0xbd827bbf	-0.06371259
218	0x3c814984	0.015782125
219	0x3d8ce4e2	0.068795934
220	0x3dd35614	0.103191525
221	0x3df84244	0.12122014
222	0x3d84b311	0.06479467
223	0x3c3888bc	0.011263069
224	0x3dead991	0.11467279
225	0x3d74ceee	0.059767656
226	0xbe0436b8	-0.12911499
227	0xbd768bbb	-0.06019185
228	0x3d804cd9	0.062646575
229	0x3d95745b	0.07297584
230	0x3d91b7aa	0.07115109
231	0x3df71d17	0.12066095
232	0x3defc4c3	0.11707451
233	0x3b19b0ff	0.0023451445
234	0xbd861923	-0.06547763
235	0x3de147b9	0.11000008
236	0xbd58c9d5	-0.052926857
237	0xbd8d9551	-0.069132455
238	0x3d1dca85	0.038523216
239	0x3d341067	0.043960955
240	0x3de9ab41	0.11409617
241	0x3dbaeedc	0.0912759
242	0x3c969d40	0.01838553
243	0x3dc853e4	0.09781626
244	0xbe024915	-0.12723191
245	0x3cbb132f	0.022836296
246	0x3d539c12	0.051662512
247	0xbd950457	-0.072762184
248	0xbde89745	-0.113569774
249	0xbdd86fde	-0.10568212
250	0xbd907184	-0.070529014
251	0x3dca59cf	0.09880411
252	0xbbfcf663	-0.0077198013
253	0xbd735946	-0.05941131
254	0xbd992873	-0.07478418
255	0xbd4c3da7	-0.049863484

model.2.bias f4 [32]
0	0xbca602ab	-0.020264944
1	0x3dd25bd9	0.10271425
2	0xbd380516	-0.044926725
3	0x3d7b1548	0.061299592
4	0x3dfae66d	0.122509815
5	0x3d33fabb	0.043940287
6	0xbdfad8be	-0.122483715
7	0xbd90c6f4	-0.07069197
8	0xbdb21f4e	-0.08697377
9	0x3da11c7c	0.07866761
10	0x3dc04b2a	0.093893364
11	0x3dd2bb32	0.10289611
12	0xbdd85a98	-0.105641544
13	0xbc918821	-0.017765107
14	0xbd9ae97d	-0.075640656
15	0xbdf40939	-0.119158216
16	0xbdd5499a	-0.10414429
17	0x3cc17644	0.023615964
18	0xbd42caf5	-0.047556836
19	0xbd96456e	-0.073374614
20	0x3dea7b74	0.11449328
21	0x3cefdade	0.029279169
22	0xbd678a3d	-0.05652832
23	0xbc29d04b	-0.010364602
24	0xbda41f75	-0.080138125
25	0x3da7b60d	0.0818902
26	0xbe0102a3	-0.12598662
27	0xbd2bdb72	-0.041957326
28	0x3d494db4	0.04914637
29	0xbd89140b	-0.06693276
30	0x3d15b4cc	0.036549374
31	0x3dc11cb3	0.09429302

model.4.weight f4 [3, 32]
0	0xbe2ac152	-0.16675308
1	0x3d537595	0.051625807
2	0xbdeb883b	-0.11500593
3	0x3d324058	0.043518394
4	0x3d93d7c5	0.07218889
5	0xbd165215	-0.036699373
6	0x3c48e369	0.01226125
7	0xbe26654f	-0.16249584
8	0x3e103441	0.14082433
9	0xbd0dc837	-0.034614768
10	0x3cffbb2e	0.031217184
11	0x3e0d377e	0.137907
12	0x3dcd5550	0.10026038
13	0x3c86a6a0	0.016436875
14	0xbe01f8c0	-0.12692547
15	0x3d368c60	0.044567466
16	0xbc0f1168	-0.008732177
17	0x3e191223	0.14948325
18	0xbe148d84	-0.14507109
19	0x3d670606	0.05640223
20	0xbe2b41a4	-0.16724259
21	0xbdf54e8d	-0.11977873
22	0x3e0a2009	0.13488783
23	0xbd6d28f0	-0.05790037
24	0xbdd860a3	-0.10565307
25	0xbda544f2	-0.08069791
26	0xbd8c5793	-0.06852641
27	0x3dd30109	0.10302932
28	0x3dbf3397	0.09336012
29	0x3dec17a3	0.11527946
30	0x3e28b411	0.1647494
31	0xbc57e983	-0.013178232
32	0xbd802170	-0.06256378
33	0x3ca0566d	0.019572461
34	0x3e0539a1	0.13010265
35	0xbd6b7729	-0.057486687
36	0x3e00b8e1	0.12570526
37	0x3d1d1412	0.03834922
38	0x3c877ad9	0.01653807
39	0x3d451152	0.04811222
40	0xbc5e58c9	-0.013570973
41	0x3c4b2a53	0.012400228
42	0x3e20b0a5	0.15692385
43	0xbd3577cc	-0.0443037
44	0xbdabaad2	-0.08382191
45	0x3d8691fa	0.065708116
46	0xbde22ced	-0.11043725
47	0x3d59fd3a	0.05322001
48	0x3e0ed614	0.13948852
49	0x3d0ef07c	0.034897313
50	0x3da7da27	0.08195906
51	0xbcd667ce	-0.026172545
52	0x3aee9afd	0.0018204149
53	0x3e15e1fd	0.14636989
54	0xbdd2ca6d	-0.10292516
55	0x3de71ffe	0.11285399
56	0x3c9a17b2	0.018810127
57	0xbe1f2c88	-0.15544331
58	0x3cf06d73	0.029349064
59	0x3d433108	0.04765418
60	0x3cabee3a	0.020987619
61	0x3c1aa09a	0.009437704
62	0x3c5754eb	0.013142805
63	0x3d901096	0.070344135
64	0x3c98a960	0.018635452
65	0xbd975199	-0.073886104
66	0x3e06116e	0.13092586
67	0xbe22c6d3	-0.15896158
68	0x3c4a1590	0.012334242
69	0xbde228eb	-0.11042961
70	0x3d15a3d2	0.036533184
71	0xbe10805e	-0.14111468
72	0x3e2c52c6	0.1682845
73	0xbca5d9c5	-0.020245442
74	0x3d7ad81e	0.06124126
75	0x3d8f06dd	0.06983731
76	0xbe17f85e	-0.14840838
77	0xbe35eba3	-0.1776567
78	0x3e275487	0.16340838
79	0xbc564dab	-0.013080041
80	0x3cb80128	0.022461489
81	0x3d4e8d23	0.050427567
82	0xbe35064b	-0.17678182
83	0xbc9ab683	-0.018885856
84	0x3e22fc2e	0.15916511
85	0xbd3a7b87	-0.04552796
86	0x3df7214d	0.120668985
87	0xbe192686	-0.14956102
88	0x3e2d5172	0.169256
89	0xbda79b6b	-0.081839405
90	0x3e32338c	0.17402476
91	0xbdff7029	-0.12472565
92	0xbe120a15	-0.14261658
93	0xbdfcd8e0	-0.12346053
94	0x3e20cdac	0.15703458
95	0x3db0d8d1	0.086351044

model.4.bias f4 [3]
0	0x3d9dee08	0.077114165
1	0x3d8c95c6	0.068645045
2	0x3cc0b136	0.023522
