code/params/policy_DQL_parmeters.pt (torch, 23959 bytes, 6 tensors)

dense1.weight f4 [51, 51]
-2.0983734 1.7562246 -1.1224184 -0.2635296 0.0921718 -1.6196387 0.35978863 -0.37563345
2.4308054 2.4939673 -1.797671 -0.77505964 -1.2368171 -1.7801968 -0.68725854 -0.72469485
0.008099303 1.2187903 0.17841095 3.6967778 -1.8720626 -0.91208225 -1.4915009 -0.31995806
-0.55334926 1.5679439 0.33003122 -3.4977665 0.07339421 -1.4934268 -0.399023 2.8895738
0.8832866 -1.0819484 -1.1096549 0.3596857 -0.9305508 2.5467749 0.12699193 -0.14732794
-0.9667093 -0.7721325 -0.7646581 0.5461387 0.16696075 -0.81499094 -0.26217607 -1.2998377
-3.100506 1.9369665 0.0032242504 -0.8211152 -0.82963693 0.3789832 0.19149065 0.12853411
0.9135779 0.6655977 -2.391185 2.1777072 -1.6610789 -0.35221297 -1.3210479 -0.30952284
1.6713047 2.253369 -0.40609384 -1.2022996 1.1997278 0.47764423 -0.51130766 1.1592196
1.304045 1.7404674 -0.54614544 -0.9993219 3.6921725 -4.638612 -0.10276603 2.1056294
-1.3018659 0.24176472 -1.7453718 -0.41861397 -1.321194 -0.7527854 0.009043725 -1.0169646
-0.13140021 0.4037658 -0.86122084 0.2173155 -1.0253093 -2.0029573 -0.5921181 0.47937018
0.2126366 1.5297192 0.88173336 0.28452098 -1.5602494 -1.9666315 -0.21836965 -0.62862176
0.97376484 0.5590158 -2.7429874 0.830899 0.14524637 -1.8499497 2.271373 -1.1687717
-0.041590136 0.19570123 -0.108340524 -1.4390765 -1.5429038 2.1252072 0.84092176 -0.25390851
0.25995055 0.35520518 -1.2680409 -1.2622387 -0.8733916 -1.1559914 2.09713 -0.66037613
-3.9659166 -0.2200081 3.473282 -0.35244438 -2.8331182 1.9090731 -0.085997745 0.051018797
1.2557942 -0.4220184 0.11090619 2.8414288 -0.11194969 -2.5213525 -0.036957197 -1.4740238
0.77872825 0.1493161 0.43309042 -0.6140045 -3.4358847 1.4799048 1.9899321 -3.0310354
-0.83123875 2.7854977 -1.7597507 0.7757824 2.4107213 1.0692968 2.2372994 -0.48743823
1.7606744 -2.8565648 3.6863122 -1.1924375 0.13107097 0.39232707 -0.012891285 -0.121723056
0.3686996 -2.5441146 -0.23868644 0.14966434 -3.0344148 1.6678824 0.9230641 0.37672538
1.1656184 -1.7743512 -0.6532191 3.0416548 1.5940686 1.5868328 1.1230431 -1.3365371
-0.8592033 0.67100585 -0.32066622 -1.1821148 -0.7967587 2.77558 -1.4690117 0.8887252
-0.5932721 -0.30667272 1.1249243 0.41724837 -0.5716626 0.34481475 0.7233425 -0.6957798
1.0261375 1.0577364 -0.656515 -0.25818893 -1.8205962 -2.1750307 0.16381346 2.8955774
-2.0527937 -1.2381932 2.594091 -2.1223907 1.0105747 1.2059902 0.6534718 2.2598205
-1.5932987 -1.1295122 1.4448229 1.4364737 1.8194077 0.04892355 -1.020388 -2.0782726
1.5622598 1.0509393 -0.8910279 1.8994125 2.7902124 -3.0717838 0.77671266 1.9430449
0.5372212 0.32572684 2.9273834 0.31425667 0.18024886 -3.1245482 -1.9442086 1.1872865
2.176281 -1.086555 0.88091433 0.59488744 0.75994563 -0.495483 -1.757385 0.5335824
0.06820368 1.0352011 0.32933417 -1.9213117 0.6791107 -0.6666891 1.4403849 0.5732904
00000000: c04b 06c0 f8cb e03f 68ab 8fbf 5aed 86be
00000010: 92c4 bc3d 5250 cfbf 3736 b83e 0753 c0be
00000020: 5192 1b40 299d 1f40 151a e6bf 4f6a 46bf
00000030: 0650 9ebf 7ddd e3bf 2df0 2fbf 9a85 39bf
00000040: f0b2 043c 5201 9c3f 5cb1 363e 0298 6c40
00000050: bf9f efbf 397e 69bf 80e9 bebf 8bd1 a3be
00000060: 4ca8 0dbf 63b2 c83f daf9 a83e 68db 5fc0
00000070: b44f 963d 9c28 bfbf be4c ccbe c7ee 3840
00000080: 121f 623f 497d 8abf 2c09 8ebf b928 b83e
00000090: 9438 6ebf 5cfe 2240 2c0a 023e 23dd 16be
000000a0: 437a 77bf 7aaa 45bf a2c0 43bf bfcf 0b3f
000000b0: c2f7 2a3e 3fa3 50bf f13b 86be 1561 a6bf
000000c0: b16e 46c0 85ee f73f f24d 533b 9b34 52bf
000000d0: 1663 54bf 160a c23e 2016 443e 729e 033e
000000e0: 3ee0 693f 9c64 2a3f 2d09 19c0 8e5f 0b40
000000f0: 3c9e d4bf 4255 b4be 1918 a9bf c779 9ebe
00000100: 50ed d53f 3337 1040 88eb cfbe f4e4 99bf
00000110: ae90 993f c98d f43e 0fe5 02bf 4f61 943f
00000120: f2ea a63f a3c7 de3f 30d0 0bbf 8fd3 7fbf
00000130: 8e4c 6c40 826f 94c0 ff76 d2bd a2c2 0640
00000140: 8ba3 a6bf 2c91 773e 5868 dfbf 9254 d6be
00000150: e31c a9bf 8bb6 40bf 222c 143c e52b 82bf
00000160: c78d 06be 64ba ce3e f878 5cbf f487 5e3e
00000170: 563d 83bf 7430 00c0 0d95 17bf 0270 f53e
00000180: 69bd 593e d7cd c33f 47b9 613f bcac 913e
00000190: 41b6 c7bf 95ba fbbf 4b9c 5fbe 5bed 20bf
000001a0: a748 793f a91b 0f3f 1b8d 2fc0 ccb5 543f
000001b0: 77bb 143e 27cb ecbf 2d5e 1140 509a 95bf
000001c0: 6b5a 2abd e765 483e a3e1 ddbd a933 b8bf
000001d0: df7d c5bf 6503 0840 a646 573f 4c00 82be
000001e0: 3d18 853e 74dd b53e 2a4f a2bf 0a91 a1bf
000001f0: 9896 5fbf 87f7 93bf 6137 0640 690e 29bf
00000200: 94d1 7dc0 ce49 61be 414a 5e40 9773 b4be
00000210: cf51 35c0 825c f43f 961f b0bd 16f9 503d
00000220: ddbd a03f cc12 d8be c922 e33d f8d9 3540
00000230: e145 e5bd d75d 21c0 6e60 17bd d0ac bcbf
00000240: bc5a 473f 52e6 183e 07be dd3e 662f 1dbf
00000250: 89e5 5bc0 856d bd3f 18b6 fe3f 7cfc 41c0
00000260: 10cc 54bf 9845 3240 833f e1bf ad99 463f
00000270: 4249 1a40 b8de 883f ea2f 0f40 8191 f9be
00000280: c75d e13f f5d1 36c0 8aec 6b40 cba1 98bf
00000290: 7837 063e 18df c83e f835 53bc f049 f9bd
000002a0: 32c6 bc3e c6d2 22c0 386a 74be 9c41 193e
000002b0: da33 42c0 2c7d d53f ee4d 6c3f 26e2 c03e
000002c0: fc32 953f f11d e3bf 5e39 27bf 79aa 4240
000002d0: 710a cc3f 561d cb3f e0bf 8f3f a613 abbf
000002e0: bff4 5bbf 0ac7 2b3f 5d2e a4be 8a4f 97bf
000002f0: 61f8 4bbf 1aa3 3140 9308 bcbf 7f83 633f
00000300: aee0 17bf 3504 9dbe 85fd 8f3f 94a1 d53e
00000310: 7b58 12bf 8f8b b03e f92c 393f a01e 32bf
00000320: 7958 833f e863 873f 5e11 28bf 5731 84be
00000330: 4c09 e9bf b433 0bc0 b7be 273e 2451 3940
00000340: f960 03c0 1d7d 9ebf 9605 2640 40d5 07c0
00000350: 835a 813f e35d 9a3f ee49 273f e6a0 1040
00000360: 36f1 cbbf db93 90bf f5ef b83f 5fde b73f
00000370: 5ae2 e83f 0f64 483d 139c 82bf 6b02 05c0
00000380: 21f8 c73f 2e85 863f 681a 64bf f31f f33f
00000390: d792 3240 1b98 44c0 a4d6 463f b2b5 f83f
000003a0: 5487 093f abc5 a63e 405a 3b40 40e6 a03e
000003b0: 2893 383e 99f8 47c0 d4db f8bf 01f9 973f
000003c0: 3048 0b40 3c14 8bbf 9a83 613f 8b4a 183f
000003d0: cc8b 423f f3af fdbe fef1 e0bf db98 083f
000003e0: 5fae 8b3d 7881 843f 7d9e a83e 8bed f5bf
000003f0: 33da 2d3f 23ac 2abf 885e b83f 29c3 123f

dense1.bias f4 [51]
-7.6600614 -6.7428136 -5.2553167 4.4778185 4.3796797 -5.8410883 6.1494565 -5.309538
-6.412655 3.409797 3.9857018 -4.231069 -2.2270706 -2.4274187 -2.7461238 4.323243
-7.9042563 4.453818 1.2543108 3.3202045 -7.0720735 0.04473762 -0.6933492 6.3766994
-4.494624 -3.9001052 4.4952416 -8.556809 -6.300661 -6.0199566 1.867092 1.5638176
2.8905828 -6.9634323 -6.970262 4.0986753 2.340023 2.7310526 -7.0243506 -5.6475344
-3.7965684 3.0797632 -5.049988 2.359587 -6.3362045 -2.1114461 -5.059973 6.2009625
-8.432742 -7.1007924 -4.7900033
00000000: 391f f5c0 21c5 d7c0 8e2b a8c0 4a4a 8f40
00000010: 5626 8c40 32ea bac0 59c8 c440 bce7 a9c0
00000020: 7834 cdc0 1d3a 5a40 bd15 7f40 eb64 87c0
00000030: 5388 0ec0 d45a 1bc0 7ec0 2fc0 0258 8a40
00000040: abef fcc0 ad85 8e40 428d a03f 3b7e 5440
00000050: 6d4e e2c0 cb3e 373d 557f 31bf ec0d cc40
00000060: f6d3 8fc0 539b 79c0 05d9 8f40 b1e8 08c1
00000070: 049f c9c0 7ca3 c0c0 dffc ee3f 2d2b c83f
00000080: 4fff 3840 70d4 dec0 630c dfc0 5928 8340
00000090: f0c2 1540 91c9 2e40 7bc7 e0c0 9ab8 b4c0
000000a0: fafa 72c0 d71a 4540 8099 a1c0 7903 1740
000000b0: 30c2 cac0 ef21 07c0 4ceb a1c0 496e c640
000000c0: 83ec 06c1 b139 e3c0 b547 99c0

dense2.weight f4 [51, 51]
-0.26915893 -0.38180095 0.70536983 -0.68025833 -0.66104406 1.0859278 -0.8525659 0.79991585
0.11104431 -1.4626338 -1.8731031 -0.120367005 -0.526508 -0.020066949 0.16450872 -0.56716645
0.7264792 -1.0568404 -0.91005844 -0.30661076 0.028088938 0.12203042 -0.76736623 0.119524404
0.87951845 1.0041158 -0.6095427 -0.5066271 0.5563622 0.565509 -2.1989145 -0.13041954
-0.47740722 0.40141606 0.5679051 -1.433606 -1.07182 0.0051732743 -0.39978907 1.0061541
0.07120228 -0.1495789 0.3592556 -1.803613 1.3017159 -1.0399508 -0.051951043 -1.7373807
-1.0351205 1.4777671 0.21042423 1.2481872 0.42366272 -0.3221602 -2.8141947 -1.7583759
-0.7219072 1.0602667 0.8038034 1.1436117 -1.8188025 -0.08798069 0.8277118 -1.095476
-1.0597321 0.36898223 -1.635421 0.8380397 -2.1348922 -3.3806226 -1.4000545 1.8492597
-0.6135918 -0.9002758 -0.7740712 0.7551074 0.32084167 -1.4379252 -0.93477446 1.891845
0.35503337 -0.0031757888 -2.7241166 -0.80686563 0.85053825 -0.3958178 -1.2361442 -0.11750967
0.036156673 -0.20461781 0.29333168 -1.7791076 -1.6686839 1.3432119 -0.24365103 0.86992866
-1.5142751 0.5731982 -1.779978 1.8168453 0.78035563 0.904227 2.444511 1.7308027
1.1558563 -1.534348 -1.9448291 -0.45122942 -0.80764264 0.046216697 1.729263 -0.517623
-1.8727299 1.0021198 -1.4872308 -1.4085386 2.4989076 -1.802521 1.6612613 -0.9031135
-2.215161 -0.825736 4.5683403 -0.8937011 -1.0621384 -1.5608779 -0.8436658 1.8062452
-0.30031964 -0.17603898 -0.05352154 0.0003086407 0.040488344 -1.9179261 -0.29805353 1.209829
3.8365767 -1.6055914 -0.8095572 -0.817713 0.11982305 1.6132994 0.9898934 -2.4686587
0.005607447 -0.61007273 2.1246307 -1.5731145 0.4201519 -1.7546076 2.8714004 2.3982892
1.6416988 -0.07182948 -0.41548732 0.41933605 -1.6873823 -1.3313626 1.0505613 -1.7990713
0.11243605 0.0029859592 -1.2441843 -0.7275818 -0.076044105 -0.22429757 -1.1333655 -2.2832944
-1.1321567 1.2143168 -0.6124397 -1.8250983 -0.42611855 0.7419412 -1.2177627 -1.1304715
0.74544567 1.7078346 -1.0082846 -1.8036585 -0.4144388 1.0039133 -0.5567276 -0.78780246
-1.9175084 -0.63139486 0.18262976 -0.68577 -1.1867199 -2.134955 -1.1225702 0.35633305
1.0240637 -0.79004806 -1.3812636 -0.10224166 -2.2618256 0.77832913 -1.426709 0.7107103
-2.5281029 -0.63502824 0.1571019 1.6035495 0.24797013 -0.8919536 0.51205474 -1.9137167
-0.25046074 0.9306712 -0.31135398 -0.22357942 -0.5119003 -1.1365677 -0.9978289 -0.59116435
-0.86009985 -0.94165754 -0.98176855 -0.74504465 0.73141754 -0.24680054 -1.4349458 -0.21967945
0.34793207 -1.8020298 -1.1990134 0.2973265 -0.27499327 -0.68965715 -1.0271764 -0.2756183
0.72037405 -0.32705903 -1.5145698 -1.0150158 -0.81025904 0.006039739 0.5188769 -0.9087873
-1.8287169 -0.98526335 -0.7518604 0.44836524 -0.4843255 -1.0800861 -1.0668988 -1.9397217
0.021557804 -1.2591338 -0.61465627 -1.5519717 -1.2366909 1.2201729 0.8477071 3.4519103
00000000: 33cf 89be 6a7b c3be 1e93 343f 6925 2ebf
00000010: 2f3a 29bf afff 8a3f c241 5abf 49c7 4c3f
00000020: 336b e33d 9637 bbbf d8c1 efbf fa82 f6bd
00000030: 3ac9 06bf 7163 a4bc f974 283e d231 11bf
00000040: 8afa 393f 8c46 87bf 97f9 68bf 16fc 9cbe
00000050: c61a e63c 16eb f93d 1d72 44bf 36c9 f43d
00000060: 1f28 613f de86 803f fe0a 1cbf 50b2 01bf
00000070: c16d 0e3f 33c5 103f 04bb 0cc0 b38c 05be
00000080: b86e f4be 6886 cd3e 3b62 113f 6780 b7bf
00000090: 6631 89bf 9284 a93b 27b1 ccbe a8c9 803f
000000a0: 80d2 913d 362b 19be 5af0 b73e cadc e6bf
000000b0: a09e a63f 1c1d 85bf 9eca 54bd 7e62 debf
000000c0: d47e 84bf 7927 bd3f 7379 573e 99c4 9f3f
000000d0: 52ea d83e 2ff2 a4be c41b 34c0 7612 e1bf
000000e0: e9ce 38bf d2b6 873f 0fc6 4d3f de61 923f
000000f0: 85ce e8bf 382f b4bd ece4 533f 8f38 8cbf
00000100: 4da5 87bf 3deb bc3e 7a55 d1bf c589 563f
00000110: 13a2 08c0 1f5c 58c0 fc34 b3bf 8bb4 ec3f
00000120: 5a14 1dbf 7a78 66bf 8829 46bf b84e 413f
00000130: 5c45 a43e ef0d b8bf 614d 6fbf fa27 f23f
00000140: efc6 b53e e520 50bb ed57 2ec0 bf8e 4ebf
00000150: e0bc 593f a1a8 cabe f939 9ebf e9a8 f0bd
00000160: 0519 143d 5587 51be 922f 963e ccb9 e3bf
00000170: 6f97 d5bf 5eee ab3f a87f 79be a5b3 5e3f
00000180: c4d3 c1bf 1ebd 123f 52d6 e3bf 638e e83f
00000190: 63c5 473f 6c7b 673f de72 1c40 f18a dd3f
000001a0: 19f3 933f 8465 c4bf 29f0 f8bf 8b07 e7be
000001b0: abc1 4ebf b84d 3d3d 7d58 dd3f f182 04bf
000001c0: 9db5 efbf 7645 803f 945d bebf fe4a b4bf
000001d0: 1aee 1f40 02b9 e6bf 36a4 d43f 7232 67bf
000001e0: 33c5 0dc0 6f63 53bf d82f 9240 98c9 64bf
000001f0: 27f4 87bf d9ca c7bf 7bfa 57bf 0b33 e73f
00000200: 7fc3 99be 9043 34be 6739 5bbd 0ed1 a139
00000210: 1bd7 253d 9a7e f5bf 799a 98be addb 9a3f
00000220: 798a 7540 0584 cdbf 243f 4fbf a455 51bf
00000230: ca65 f53d 9880 ce3f a769 7d3f 81fe 1dc0
00000240: adbe b73b ba2d 1cbf f3f9 0740 d15b c9bf
00000250: 261e d73e fb96 e0bf 06c5 3740 927d 1940
00000260: 3023 d23f 561b 93bd c1ba d4be 37b3 d63e
00000270: 25fc d7bf 176a aabf cb78 863f f847 e6bf
00000280: df44 e63d 15b0 433b 6e41 9fbf cd42 3abf
00000290: 03bd 9bbd 43ae 65be 1f12 91bf 7f21 12c0
000002a0: 83ea 90bf bc6e 9b3f d9c8 1cbf d29c e9bf
000002b0: 362c dabe dcef 3d3f a6df 9bbf 4ab3 90bf
000002c0: 87d5 3e3f 539a da3f 780f 81bf 48de e6bf
000002d0: 5331 d4be 3b80 803f b385 0ebf 6cad 49bf
000002e0: ea70 f5bf 18a3 21bf 4c03 3b3e 9f8e 2fbf
000002f0: 70e6 97bf 1aa3 08c0 61b0 8fbf 4971 b63e
00000300: 8514 833f 9740 4abf 3fcd b0bf 1364 d1bd
00000310: c0c1 10c0 9440 473f 679e b6bf 1cf1 353f
00000320: 70cc 21c0 3691 22bf 52df 203e 1c41 cd3f
00000330: e2eb 7d3e 1257 64bf 0516 033f abf4 f4bf
00000340: 643c 80be 7840 6e3f ca69 9fbe 01f2 64be
00000350: e60b 03bf 0d7b 91bf b771 7fbf 8c56 17bf
00000360: 812f 5cbf 7810 71bf 2f55 7bbf 3fbb 3ebf
00000370: 2e3e 3b3f 48b9 7cbe 4eac b7bf a6f3 60be
00000380: 2724 b23e eaa8 e6bf 4579 99bf 2e3b 983e
00000390: ebcb 8cbe 5f8d 30bf 847a 83bf d81d 8dbe
000003a0: 6f6a 383f 4874 a7be 6cdd c1bf 0aec 81bf
000003b0: 236d 4fbf 01e9 c53b 1ed5 043f 49a6 68bf
000003c0: 6513 eabf 383a 7cbf ec79 40bf 2190 e53e
000003d0: 83f9 f7be 4340 8abf 2490 88bf cd48 f8bf
000003e0: fe99 b03c 4c2b a1bf 1d5a 1dbf 02a7 c6bf
000003f0: e34b 9ebf a02e 9c3f 5503 593f 19ec 5c40

dense2.bias f4 [51]
0.062553816 0.15153086 0.0968806 0.5490381 0.016339896 0.18786776 -0.099891424 0.05536942
0.36435163 0.17637679 0.5924547 0.03295064 -0.44744974 -0.4279521 -0.7924803 -0.38219392
0.12399002 0.47631624 -1.5610058 0.7831882 -0.8048602 0.16370502 0.14477094 -0.5134398
0.03542958 1.1473017 -0.5911145 -0.93601966 -0.48157907 0.5604097 -0.20175189 -0.1686934
-0.25547183 -0.51207286 0.033292715 0.39872947 -0.34629273 -0.8911158 -0.29448494 1.3356353
-1.0778322 0.02536788 -0.7783891 0.061635625 -0.3633221 -0.52677804 -0.062782176 -0.91967213
0.511569 0.40469277 0.2551856
00000000: 371c 803d e82a 1b3e 5669 c63d c38d 0c3f
00000010: 3fdb 853c 6860 403e e093 ccbd 0ccb 623d
00000020: 4c8c ba3e 1e9c 343e 1cab 173f 40f7 063d
00000030: 2218 e5be 8a1c dbbe fddf 4abf ecae c3be
00000040: 7bee fd3d b9df f33e 0acf c7bf 067f 483f
00000050: 510b 4ebf 4aa2 273e d53e 143e ca70 03bf
00000060: 9b1e 113d c8da 923f 4853 17bf fc9e 6fbf
00000070: 8891 f6be 0377 0f3f 0c98 4ebe f6bd 2cbe
00000080: 34cd 82be 3517 03bf f15d 083d 4526 cc3e
00000090: 484d b1be 2a20 64bf bbc6 96be 19f6 aa3f
000000a0: 68f6 89bf 4dd0 cf3c 8244 47bf a375 7c3d
000000b0: 5b05 babe edda 06bf f193 80bd a26f 6bbf
000000c0: 30f6 023f e433 cf3e b0a7 823e

dense3.weight f4 [3, 51]
-0.0518291 -0.6898035 -0.5406379 0.17589337 -0.20923601 1.4541893 0.28316888 -1.3686069
-0.14598578 -0.09195614 -0.41762346 0.90346706 -0.7647022 1.8466014 1.0763745 1.1773386
0.5326769 -0.4871114 0.83691156 -0.109867804 -0.03636176 1.1935196 -0.064551294 -0.28651902
-1.2134714 -0.9370054 0.07995351 -0.06975158 -0.28955007 -0.15812746 0.2724335 -2.2242985
-1.5907623 -0.08869329 -0.64726055 -0.5812304 0.2667451 0.64921546 1.3141521 0.2681261
0.647328 0.40318707 0.38445592 -0.043361656 0.38116857 1.6839329 0.3295679 0.85654587
0.08474764 0.4407781 3.2887928 1.1679884 0.9749883 1.2967533 1.7128065 1.0372573
1.4916848 2.066227 2.2691326 1.4392105 1.3008242 1.314105 1.467611 1.4827499
0.7637766 1.6606462 3.3234525 1.1417555 2.4967341 1.1183139 1.7101629 0.361922
0.935671 2.7090561 0.8185405 2.7289608 2.9487782 1.5684764 1.9770366 0.8570781
1.6370407 1.1994004 1.1425573 1.8131251 2.017153 1.3085874 2.0153623 0.93629044
0.2353652 1.1612694 2.1161458 0.23044567 1.3947102 -0.68294233 1.3073857 0.93816775
0.89492714 1.1070318 0.37785923 1.3551956 1.9744172 1.6734333 -0.19170631 0.43671662
0.7150872 -0.70027053 -0.15083942 1.2107333 1.5678896 0.52594906 -0.23206301 -0.51206744
0.261795 1.2266678 0.9178215 0.51831204 0.045018226 -0.31176713 0.018737067 -0.6123281
1.4646229 -0.054671023 0.48932385 -0.7453521 1.115115 0.32128125 1.847328 0.41000685
0.87400395 1.8810121 0.43745837 -0.106048174 0.6430871 1.7156422 0.69692177 0.6203594
-0.18648395 1.0789903 -0.14591655 -0.009691158 -0.16088448 -0.39520442 0.36550018 1.446812
1.308561 0.4692687 -0.48802996 0.768544 0.03222054 0.2567167 -0.50908065 -0.6852297
1.5062572
00000000: c04a 54bd f696 30bf 3f67 0abf 641d 343e
00000010: f741 56be e022 ba3f 83fb 903e 832e afbf
00000020: 4c7d 15be 8053 bcbd bed2 d5be 9e49 673f
00000030: 86c3 43bf 6f5d ec3f a4c6 893f 08b3 963f
00000040: 835d 083f aa66 f9be d63f 563f 5f02 e1bd
00000050: 12f0 14bd 40c5 983f 7833 84bd 9fb2 92be
00000060: 0853 9bbf 96df 6fbf aabe a33d ebd9 8ebd
00000070: e83f 94be 2aec 21be 677c 8b3e e85a 0ec0
00000080: 199e cbbf d4a4 b5bd deb2 25bf 84cb 14bf
00000090: d092 883e fc32 263f 2336 a83f d347 893e
000000a0: 4ab7 253f 896e ce3e 68d7 c43e fe9b 31bd
000000b0: 8728 c33e 1d8b d73f 20bd a83e 9746 5b3f
000000c0: 2c90 ad3d abad e13e 957b 5240 a580 953f
000000d0: d598 793f 03fc a53f 3e3d db3f d9c4 843f
000000e0: 87ef be3f 103d 0440 7839 1140 0d38 b83f
000000f0: 6881 a63f 9834 a83f adda bb3f c0ca bd3f
00000100: dd86 433f 0e90 d43f 72b3 5440 0b25 923f
00000110: 7eca 1f40 e924 8f3f 9ee6 da3f d74d b93e
00000120: 2288 6f3f 2d61 2d40 df8b 513f 4ba7 2e40
00000130: c8b8 3c40 d6c3 c83f 890f fd3f 7869 5b3f
00000140: 8d8a d13f f485 993f 513f 923f 7c14 e83f
00000150: 0919 0140 cb7f a73f b2fb 0040 bbb0 6f3f
00000160: 9303 713e 7aa4 943f ef6e 0740 f3f9 6b3e
00000170: dd85 b23f 4fd5 2ebf 6a58 a73f c32b 703f
00000180: f219 653f 38b3 8d3f c476 c13e 0d77 ad3f
00000190: b4b9 fc3f 1033 d63f a94e 44be 5299 df3e
000001a0: f40f 373f ee44 33bf a675 1abe 4ff9 9a3f
000001b0: 9bb0 c83f 99a4 063f eda1 6dbe da16 03bf
000001c0: ff09 863e 7303 9d3f 5af6 6a3f 19b0 043f
000001d0: 0865 383d f19f 9fbe 7a7e 993c 89c1 1cbf
000001e0: c378 bb3f b9ee 5fbd a888 fa3e 65cf 3ebf
000001f0: 17bc 8e3f fa7e a43e 3e75 ec3f 6bec d13e
00000200: b9be 5f3f 01c5 f03f 8bfa df3e c92f d9bd
00000210: 5ba1 243f 2a9a db3f 7769 323f e0cf 1e3f
00000220: a6f5 3ebe 5b1c 8a3f 266b 15be aac7 1ebc
00000230: e7be 24be 3c58 cabe d722 bb3e 2331 b93f
00000240: ed7e a73f fd43 f03e 10df f9be 4dbf 443f
00000250: aff9 033d 5f70 833e 1c53 02bf 376b 2fbf
00000260: 09cd c03f

dense3.bias f4 [3]
1.8693562 1.6550449 1.7245138
00000000: 1047 ef3f 83d8 d33f debc dc3f
