code/params/nxt_cost/policy_DQL_parmeters.pt (torch, 23959 bytes, 6 tensors)

dense1.weight f4 [51, 51]
00000000: 0776 c3bd ffcb 1f40 9c87 25bf bf79 44bf
00000010: c98b 29bf a0db 94bf eba2 b23e 7678 d2bf
00000020: 271d 85bf 8ec2 d43e dd31 90be f0e5 793e
00000030: ea68 3e3f 2aa2 5dbe 97fc 0d3f 54ea 0c3f
00000040: 3f8e c2be 1e51 58bf bccb 09be 9a4b 6a3e
00000050: 07f2 87bb bc84 1440 97d0 a03e 11d4 c8be
00000060: 2eb9 93be fe37 ddbb 925c b4bf 42e5 303e
00000070: 6806 a23f a854 283f 2300 7a3f 1309 e6bd
00000080: 337d 193f 8793 4d3f 6390 90bf 609c f2bd
00000090: cc52 74be 6d63 0ec0 0611 913f 3295 c0bf
000000a0: 0995 d03f 4753 93bd 4788 b83f 3469 cd3f
000000b0: f2f0 cbbf 705a d33e 38f2 c33f 8a45 b4be
000000c0: b162 c13f 196a bfbf ad17 69be f515 833e
000000d0: 86ab 20c0 dc83 8dbe 2c09 36bf 44ac 743c
000000e0: 2de7 edbe d633 90bf 109c d4be dbe7 f23e
000000f0: 125f 2a3f 2e05 2e3f 4666 cabf 81b4 82be
00000100: 0f97 17be e8cb 773e 8414 31bf 008f 053f
00000110: df76 193f b88f 4cbf 62ac 613f d592 59be
00000120: 71f4 64bf 135b e33e c0d0 aa3f 4c9c c7be
00000130: 2931 12c0 c389 5dbf 37fe 2a3f ab6d 4dbe
00000140: 8d12 19bf d960 1940 19de 8ebf 14f6 d43d
00000150: 3f99 d13e 725a 523d 1933 1ec0 2b59 f43d
00000160: 969f 613f 0d15 223f 3f8b a4be 17e5 193f
00000170: 335d 163f 86af 5cbf 5c5f 74bf f83a d7bf
00000180: 18d0 383e 1180 1040 4491 ac3e 6aae 7dbf
00000190: c574 93bf c014 8ebf d39a 54be d66c 8c3f
000001a0: d6e8 e6be 38bc c73f c0e1 8b3f ddf6 35c0
000001b0: 0c0a 17bf 0f35 e1be 1d8d 0cbe b83c ccbe
000001c0: f06e 01bf 32d6 6cbe aec8 6e3f 53cd 403f
000001d0: 8fab b53d 6838 81bf ceb9 873e 4c19 17be
000001e0: 0256 4d3f 0025 513f e504 c83e ade7 58bf
000001f0: 6737 01c0 34bc d0be 495b 883f aef5 9abf
00000200: 43e0 b23e d9d0 91bc 36c5 023e feba dc3e
00000210: 1477 6e3f a76f 5fbe ea14 ac3c 5672 df3e
00000220: f668 d53e 73fb fe3f b864 e0be 1715 283f
00000230: 909b 7ebf 679f d8bf 6312 fa3e 19d5 c4be
00000240: bf4f b0be b7cf 303f 9149 6ebd 2892 62bf
00000250: 8455 2640 deea 4abf bb65 1a3f 3028 a1bf
00000260: 905b 02bf 64d4 2d3f 6c73 0d3f 32a2 63bf
00000270: b39a 30bf c09b 023e d18a 90bf aee7 a5bf
00000280: 49ea 6dbd eaa7 1040 782b b8be 4fa2 00bd
00000290: 9cbf 3fbf a5b8 d13f 9ddb 24bf f4dc ca3f
000002a0: a3b5 5f3f e470 a23e 461d fb3e 62eb f3bf
000002b0: 1bb7 163f 9aef b53e 66ff 273e 0f83 6abf
000002c0: de77 063f ec44 cebf 88c5 643f a40e 003e
000002d0: a6d3 a4bf b6b2 103f 08a4 7ebd 3cee bd3f
000002e0: 3b53 98be 9c05 4e3e 9975 2340 4ab6 b0bf
000002f0: 625e 5cbd 0616 83bd e642 63bf 4c01 fa3e
00000300: f91d 97be 9296 9e3f 4f9d 96bf 4c45 6dbf
00000310: 1505 833f de12 0c3e 09d3 9dbe 5e80 fc3f
00000320: f4ac ecbe 0f35 893f cdda cbbf ad01 54bf
00000330: 8422 16bf 58a3 78be a5f3 f4be d11d 5abf
00000340: 3598 f9be 127f 0a3e 6158 10c0 bb07 c83e
00000350: 7bc9 09bf dc36 d13d 60ee c73f 448c b7bf
00000360: b30b a6bf 78c9 0cbe 8515 753f b9c0 c33e
00000370: 880b 2c3d 968f a3be 8226 46bf 3f0c cbbe
00000380: a90f 573f 26fe 57be 1d3f 8ebf c7ce ae3f
00000390: 65ad 2dc0 3bcd ed3e 8bc5 f4bf 7f4c cfbe
000003a0: 7a2d ec3f 665c afbf e553 6a3f 2215 b8be
000003b0: c67c c2bf 32f1 293f 8e16 b5bf 6214 35bf
000003c0: 93fa 7ebe a16c 863e 3aeb 943f 3807 73bf
000003d0: 3d60 a03f 2580 cf3f 8949 d1bf e945 8cbf
000003e0: f422 93bf 6fec 573f d0ce a03e 8755 b4bd
000003f0: 5359 94bf a074 1bbe 20dd b5be 9c2d 123f
-0.09543996 2.496826 -0.6466005 -0.7674827 -0.6622892 -1.1629524 0.34889922 -1.6443012
-1.0399522 0.41554683 -0.28163043 0.2440412 0.74378836 -0.21643892 0.55463547 0.55045056
-0.3799915 -0.84498775 -0.13456625 0.22880402 -0.004148725 2.3206015 0.3140914 -0.39224294
-0.28852218 -0.0067510596 -1.409075 0.17274955 1.2658205 0.65754175 0.9765646 -0.112321995
0.59956664 0.80303234 -1.1294063 -0.118462324 -0.2385971 -2.2248185 1.133332 -1.5045531
1.6295482 -0.07193618 1.4416589 1.604773 -1.5932906 0.41279936 1.5308294 -0.35209304
1.5108243 -1.4954253 -0.22762938 0.2560269 -2.510469 -0.27639663 -0.71107745 0.014933649
-0.46465436 -1.1265819 -0.41525316 0.47442517 0.66551316 0.67976654 -1.5812461 -0.2552834
-0.14803718 0.24198878 -0.6917193 0.52171326 0.5994701 -0.799068 0.8815366 -0.21247418
-0.8943549 0.44405422 1.3344955 -0.38986433 -2.2842505 -0.8653833 0.6679415 -0.20061366
-0.5979393 2.396536 -1.1161529 0.10398498 0.4093723 0.051355787 -2.4718688 0.1193107
0.88134134 0.6331337 -0.32137486 0.6011519 0.5873596 -0.8620533 -0.95458007 -1.6814871
0.18048131 2.2578166 0.3370458 -0.9909426 -1.152001 -1.1100082 -0.20762186 1.0970714
-0.45099515 1.5604315 1.0928268 -2.8431923 -0.58999705 -0.43985793 -0.13725705 -0.39890075
-0.505599 -0.23128584 0.9327496 0.753133 0.08870613 -1.0095339 0.26508945 -0.14755744
0.8020936 0.8169708 0.39066234 -0.8472851 -2.0190065 -0.40768588 1.0652858 -1.2106225
0.34936723 -0.017799782 0.12770543 0.43111414 0.9315045 -0.21819936 0.021006066 0.4364192
0.4168164 1.9920486 -0.43826842 0.6565718 -0.9945612 -1.6923646 0.48842153 -0.3844383
-0.3443584 0.6906695 -0.058175627 -0.88504267 2.5989695 -0.7926463 0.6031148 -1.2590389
-0.50920963 0.6790221 0.55254245 -0.88919365 -0.6898605 0.12754726 -1.1292363 -1.2961328
-0.05808476 2.2602487 -0.35970664 -0.03140479 -0.7490175 1.6384474 -0.64397603 1.584868
0.8738653 0.31726754 0.4904577 -1.9056208 0.58873147 0.35534364 0.1640602 -0.9160623
0.5252665 -1.6114783 0.8936391 0.12505585 -1.287709 0.5652269 -0.06216815 1.4838328
-0.29751 0.20119327 2.5540526 -1.380563 -0.053800948 -0.06400685 -0.88773954 0.48829114
-0.29515055 1.23897 -1.1766757 -0.92683864 1.0235926 0.13679072 -0.3082507 1.9726675
-0.46225703 1.0719317 -1.5926148 -0.8281506 -0.58646417 -0.2428106 -0.47842136 -0.85201746
-0.48748937 0.13525036 -2.2553942 0.39068398 -0.5382306 0.10215542 1.5619621 -1.4339681
-1.297232 -0.13748729 0.9573596 0.38232973 0.042003185 -0.31945485 -0.7740251 -0.3965778
0.8400827 -0.21093044 -1.1113011 1.3656853 -2.7137082 0.4644564 -1.9122785 -0.4048805
1.8451378 -1.3700073 0.9153426 -0.35953623 -1.5194328 0.6638366 -1.4147508 -0.70734227
-0.24900274 0.26254752 1.1634285 -0.9493289 1.252937 1.6210982 -1.6350566 -1.0958835
-1.1495042 0.84345144 0.31407785 -0.088053755 -1.158976 -0.15181208 -0.35520267 0.57100844

dense1.bias f4 [51]
00000000: b41f 463f 89e9 e6be b913 c2bf 2bd4 0f3f
00000010: 371c 223e ec7e babf c635 ac3f 9b36 24c0
00000020: 6b96 cb3f 4f88 853e c242 e83f 0874 933f
00000030: e7d7 07c0 da09 403f 2da0 3bc0 2fc7 9a3f
00000040: 3fd1 2f3f 4b9b ae3f e2a8 85bf 56e7 9abf
00000050: 5e0b 84bf 7642 9dbf 31ba 453d fa0d 23bf
00000060: 1063 afbf 71ee 59be 8355 d13f b937 df3e
00000070: 46e4 08c0 52ca 0ec0 422b e03e 526e 4fbf
00000080: 1a68 993f 07b9 7bbf a401 b33f 6a1b 883d
00000090: 17a1 b03f 37df 8d3e c5ba 853f 47bc 97bf
000000a0: ad4e bf3f 2e27 6bbe 8f1c 03c0 0920 f13e
000000b0: 7e34 e13f 0c5c a13f 6193 273f 9e18 51bf
000000c0: 828a 73be d74e 8ebf a345 a4bd
0.77392125 -0.45100048 -1.5162269 0.5618312 0.15831076 -1.4569983 1.345391 -2.5658329
1.5905279 0.26080558 1.8145373 1.1519785 -2.1225526 0.7501503 -2.9316514 1.2092036
0.6867866 1.3641142 -1.0442164 -1.2101848 -1.0315969 -1.2285907 0.04827327 -0.636932
-1.3702106 -0.21282364 1.6354221 0.435972 -2.1389327 -2.2310987 0.43783003 -0.8102771
1.1984894 -0.98329204 1.3984876 0.06645854 1.3799161 0.27709362 1.0447623 -1.1854333
1.4945885 -0.22964165 -2.048618 0.47094753 1.7594144 1.2606215 0.6545926 -0.8167819
-0.23783305 -1.111781 -0.08021095

dense2.weight f4 [51, 51]
00000000: d1f5 cdbf eddc 8ebf 4a12 46bf 59bc 12bf
00000010: f7b4 b7bf 97cf e43d 6d1b cfbf 1b1a 33bf
00000020: 5464 29c0 2471 3ebf b54c 8fbf 6baf 14c0
00000030: eb4b fdbe f758 8abf 65e1 7dbd b8cb 40bf
00000040: 6d4a 25bf 3184 e6bf 0423 e63c c190 79bf
00000050: 7181 3d3c 2a08 99bd 6331 9dbf a14b 18bf
00000060: fd93 ecbe 4084 b1bf 23a6 e6bf abb4 5dbf
00000070: 3124 e03e ebde 783b c212 1ebf c38e aebe
00000080: 737d 04c0 b9c1 b33e b047 0ec0 9bf3 8bbf
00000090: 0b05 b5bf be76 74bf 3993 dcbf 1774 cdbd
000000a0: 89f7 02c0 6b87 81bf cbe4 923e 923b e7be
000000b0: 125f 32c0 c91f ecbf f303 ddbe 0a5a eebf
000000c0: 75b3 283f f900 3abf dab5 bdbf 011a e8bf
000000d0: 2425 0abf 9c2d fabe 539b 26bf 986d 9cbf
000000e0: f342 56bd 75de dcbf e649 03bf c6e1 23c0
000000f0: 8cd3 fdbe 8bd5 90bf c4d9 0fc0 2bda fabe
00000100: b2b5 c9bf 6e1b 81be 6323 31bf 838f d8be
00000110: f02f cfbf 332e 493e 61de 83bf 8184 2dbe
00000120: e99a 1abf 4acb acbf 7492 47bf a475 c3be
00000130: f7a3 a3bf 1544 ebbf a735 4bbf a401 ba3e
00000140: 8825 9a3d 27e7 0bbf 8cf8 d8be a8de f5bf
00000150: 225b 893b b22c 05c0 5cd4 6ebf 9667 b3bf
00000160: c2bd 45bf bb7e c7bf 1a55 e1be 50a0 fcbf
00000170: 632a 82bf 92d4 c23e 16a4 15bf 297b 19c0
00000180: f22b f6bf f4ca 2dbf 1036 fdbf 5427 0c3f
00000190: 249e 1fbf cf43 cdbf 5f9d 8f3f 7910 fa3e
000001a0: 3d9f 1a3f df4c 2b3f e7e3 a33f 4939 59bf
000001b0: 78c4 7c3f 31e1 7cbf 304f cc3f 6b4a 86bf
000001c0: 07c8 343f 9df3 2e3f 7841 79be 31b7 b83e
000001d0: 9bbe 8ebf 8132 183f 3f15 b8be 36c7 7e3f
000001e0: cc34 5bbf 3f1a 4d3f 4e89 5ebf f2dc 12bf
000001f0: 7b90 e2be 84d1 b1be 2f2f 5fbf 4c27 e33d
00000200: 9044 853f 25ce 1a3f 7359 a6bf 5446 81bf
00000210: a854 9b3e 65e2 6abf 02b9 ab3f 4938 c5bf
00000220: c12e bd3f c6cd f7be 67bf 6a3f 6334 ffbd
00000230: 13cb 2b3f 8f51 8dbf c0b0 2b3f 35ff 853f
00000240: d176 0fbf c5e9 453e e5c0 b63f 84a4 8d3f
00000250: 11e5 b23e 3b2a 873f 9bb5 c03d ab2b 65bf
00000260: a647 dd3e 1071 c9bf 08c5 5dbf 0a4e 50bf
00000270: cab7 17bf 3f93 95bf c82c 833d ed1e d5bf
00000280: 1495 23bf dd92 30c0 2a11 2dbf ab2d 7abf
00000290: 5cc4 14c0 5b3a d9be 335f 92bf 2b98 2c3d
000002a0: d3ba 5bbf a653 68bf 5437 dfbf 5713 123e
000002b0: 8f54 9dbf ce1f 5fbe c560 42be eea8 9bbf
000002c0: a33c 1dbf 90fc c5be 76b1 87bf 3d15 00c0
000002d0: edfa 85bf 8df4 d13e 769a 173e 30b8 0bbf
000002e0: 2cf7 01bf 62a4 01c0 1353 7c3e 9110 0bc0
000002f0: 9b9a 96bf 6880 d2bf ddda 5fbf 261b d9bf
00000300: 749a a7be 6c7f 02c0 df1a 64bf 7c53 b33e
00000310: dee7 26bf 450f 14c0 30a3 09c0 95a0 1bbf
00000320: 0e6e f6bf 8df2 133f 5ba7 15bf 69b3 debf
00000330: 03a7 dcbf fd34 5abf 3f4b 32bf 8cff ccbe
00000340: 3539 abbf b2fa 443e 1ba3 e0bf 1297 f4be
00000350: 0efa 21c0 a0ed 56bf bf50 9abf 0aba 0dc0
00000360: 0992 23bf 4668 8fbf a494 c43d ecfb 3abf
00000370: 50c6 33bf 8dab d1bf 8f4e 633e 9e0a 72bf
00000380: 73d4 84bd 48fe 643d 982b 92bf e72c 35bf
00000390: cd04 67be f4b6 9ebf ac1f f7bf fe09 45bf
000003a0: 020f e33e 8031 52bd 5458 05bf 161d 9fbe
000003b0: 4d16 0ac0 794c 17bd f6de 0fc0 fe16 82bf
000003c0: bd57 aabf daeb 60bf 4ef1 f3bf ff4a 0bbe
000003d0: 219e 09c0 abf9 98bf 66c0 3a3e 37f6 1ebf
000003e0: 99c5 2cc0 a27b f9bf b725 0abf de4b febf
000003f0: 2b72 2e3f 8b06 37bf f3d9 b2bf c7d7 dfbf
-1.6090642 -1.1161171 -0.77371657 -0.57318646 -1.4352101 0.11172407 -1.6180245 -0.6996171
-2.6467485 -0.7439139 -1.1195284 -2.3232067 -0.49471983 -1.08084 -0.06198253 -0.7531085
-0.6456669 -1.8009092 0.028092869 -0.974865 0.011566506 -0.0747226 -1.2280697 -0.594904
-0.46206656 -1.3868484 -1.8019451 -0.866038 0.43777612 0.0037974666 -0.6174737 -0.34093294
-2.0701568 0.35108736 -2.2231255 -1.0933717 -1.4142164 -0.95493686 -1.7232429 -0.10031908
-2.0463583 -1.0119451 0.2869018 -0.45162636 -2.7870526 -1.84472 -0.43167076 -1.8621228
0.6589883 -0.72657734 -1.4821122 -1.8132936 -0.5396292 -0.48862922 -0.65080756 -1.2220945
-0.05230994 -1.7255388 -0.51284635 -2.560655 -0.4957546 -1.1315168 -2.2476664 -0.48994574
-1.5758574 -0.2521624 -0.6919462 -0.4229699 -1.6186504 0.1964653 -1.030224 -0.16945077
-0.60392624 -1.3499539 -0.77957845 -0.3817569 -1.2784413 -1.8380152 -0.7937874 0.36329377
0.0752669 -0.54649585 -0.42377126 -1.9208574 0.004191772 -2.080853 -0.93292785 -1.4015987
-0.7724267 -1.558555 -0.4401024 -1.9736423 -1.0169185 0.38052803 -0.584535 -2.398142
-1.9232161 -0.67887807 -1.9782124 0.5474751 -0.6235068 -1.6036319 1.1219901 0.48840693
0.6039923 0.6691417 1.2803925 -0.84853035 0.9873729 -0.98781115 1.5961666 -1.049146
0.7061772 0.68340474 -0.2434138 0.36077264 -1.1151918 0.5945206 -0.3595371 0.9952272
-0.85627437 0.80118173 -0.8692826 -0.57368386 -0.44250855 -0.3473016 -0.8718137 0.1109148
1.0411549 0.604708 -1.2996048 -1.0099587 0.30338025 -0.917517 1.3415835 -1.5407802
1.4779893 -0.4839918 0.91698307 -0.12461164 0.6710674 -1.1040515 0.67066574 1.0468508
-0.56040674 0.19327457 1.4277617 1.1065831 0.3494039 1.0559763 0.094096385 -0.8951976
0.43218726 -1.5737629 -0.8662877 -0.8136908 -0.59264815 -1.1685561 0.06405026 -1.6650063
-0.6389935 -2.7589638 -0.67604315 -0.97725934 -2.3244848 -0.42427334 -1.1435302 0.042137306
-0.85831946 -0.9075264 -1.743876 0.1426519 -1.229143 -0.21789476 -0.18982227 -1.2160928
-0.6142065 -0.38669252 -1.0601032 -2.0012963 -1.0467201 0.4100689 0.14805016 -0.5457792
-0.5076778 -2.0256581 0.24641065 -2.1728861 -1.1765932 -1.6445436 -0.87443334 -1.696141
-0.32735026 -2.0390272 -0.891035 0.3502463 -0.6519755 -2.313432 -2.1505852 -0.60791904
-1.9252336 0.5779198 -0.5845849 -1.7398502 -1.7238468 -0.85237104 -0.69646066 -0.40038717
-1.3376833 0.19236258 -1.7549776 -0.47771508 -2.5308871 -0.83956337 -1.2055892 -2.21448
-0.63894707 -1.1203697 0.095986634 -0.7304065 -0.70224476 -1.6380478 0.22197936 -0.9454745
-0.06485834 0.055906564 -1.1419554 -0.7077164 -0.22560425 -1.2399583 -1.930654 -0.7696837
0.44347388 -0.051316738 -0.52087903 -0.31076878 -2.1576111 -0.036938164 -2.2479835 -1.0163267
-1.3308026 -0.8785988 -1.9058015 -0.13602827 -2.1502764 -1.1951193 0.18237457 -0.62094444
-2.6995604 -1.9490855 -0.539638 -1.9866903 0.68142956 -0.7149436 -1.3972763 -1.7487725

dense2.bias f4 [51]
00000000: 8ddf 5ebd bea6 e6bc fdfd 73bf 1358 87be
00000010: 146b 4ebe 11ce 55be 5d56 2abf 6cd3 72bd
00000020: a2f1 f1be 542e c3be 0784 bdbe 0a5f 1bbf
00000030: 4a05 dbbe ecc2 07bf f817 90be c6b3 53be
00000040: 09fd 4abe 22cd 0fbf fdd2 b3be 0d5c 4bbf
00000050: 0525 aabe d76e 28be 1c15 04bd 4492 673e
00000060: 5a05 8bbe e693 c8bd 497a b9be 62d3 19bf
00000070: 86d5 703e 5eba 2dbe 8f00 51bd e99c 6dbe
00000080: 51bc 3f3c 3996 96bd dd43 72bf 4889 a7be
00000090: 4f00 2cbf 5de1 64bf 853f 7bbe 882d 71be
000000a0: 3126 31bc c6fa 71bf 7349 31bf a0cf 34bf
000000b0: 16ad ddbe 75f7 3dbf c18a 7abf 34bf adbe
000000c0: 78c2 4cbf 62bb 46bf c14f 6fbe
-0.054412413 -0.02815568 -0.9530943 -0.26434383 -0.20158035 -0.2087939 -0.6653803 -0.05928366
-0.47254664 -0.38121283 -0.3701479 -0.60691893 -0.42777473 -0.530318 -0.28143287 -0.20674047
-0.19823088 -0.5617238 -0.3512191 -0.79437333 -0.3323137 -0.16448532 -0.032246694 0.2261439
-0.2715252 -0.097938344 -0.3622611 -0.6008817 0.23518953 -0.16965625 -0.051025923 -0.23204388
0.011702613 -0.073528714 -0.946348 -0.32721925 -0.6718797 -0.8940638 -0.2453595 -0.23552525
-0.010812328 -0.94523275 -0.692527 -0.7062931 -0.43296117 -0.74205714 -0.9786797 -0.3393494
-0.79984236 -0.77629673 -0.23370267

dense3.weight f4 [3, 51]
00000000: 07d1 5b3f 5839 7c3f e182 99bf 35fe 5e3f
00000010: d5b7 643f 6cdc 5c3f 4cd8 dfbf de49 783f
00000020: 74fe b43e 8e76 0bc0 c064 4a3f c5b2 703f
00000030: debb 653f ed12 fd3e faed 473f baff 5b3f
00000040: a227 5b3f 29e6 f0bf 0745 0fc0 d6d8 693f
00000050: 7aed a9bf e17a 4f3f 1a84 593f 517f 373f
00000060: 6405 783f c585 b1bf ffcc f9bf d4da c6bf
00000070: 2fd6 463f e939 18c0 b8f4 6d3f d037 4d3f
00000080: 2021 603f a51e 4b3f 3fa6 dcbf 14b4 633f
00000090: 5439 7a3f 96d3 683f 04fb 4d3f e5a9 4f3f
000000a0: 952b 553f 7397 763e 43b1 f7bf df94 523f
000000b0: 4042 cfbf 765a 04c0 c902 4f3e a9f8 503f
000000c0: 40a4 d5bf b234 6b3f 5529 553f b47c 78bf
000000d0: 5a3a 47bf 2c6f 203f 2748 73bf a256 63bf
000000e0: 306e 4ebf ab05 663f f773 5cbf 55d3 cabe
000000f0: a4f3 8d3f 16c6 77bf 0036 26bf 4f64 67bf
00000100: dc4f b4be 204c 7dbf 4edf 7fbf 70ca 64bf
00000110: cdf4 2540 052d 8c3f ff94 20bf e66b 713f
00000120: 2c77 63bf 7307 74bf f7d2 7fbf c9d5 63bf
00000130: 255e 8b3f b0c3 893f 926c 0a40 69ad 4dbf
00000140: 94e3 323f b92a 60bf 2778 76bf 1e22 6fbf
00000150: 9434 54bf 0148 643f 72d4 65bf ca71 55bf
00000160: 724a 49bf 3e14 6bbf 03c2 81bf ae1b 82bf
00000170: 93fe 49bf c892 6b3f 9503 4cbf 6d70 4a3f
00000180: 9b2f 603f ba46 1abf 3e34 5fbf 0972 463f
00000190: fe54 58bf 6a51 58bf 04f0 6f3f 46e4 5a3f
000001a0: 9609 d73e bd6d 303f b0e5 6b3f 857d 313f
000001b0: 1778 913e 0bde 743f 498c 943f a991 373e
000001c0: d325 733f fe15 773f 3aaf 223f d44a 9e3f
000001d0: 9c70 453f 2b54 4b3f 2ffb 473f 0da3 1fc0
000001e0: 6c38 8b3e 9def 8b3f ac07 8e3e 7705 5a3f
000001f0: fba1 683f baaf c43f 769b 703f ccfd 823e
00000200: 1d16 3c3e 0166 25c0 687f 8d3f 2ef8 bf3e
00000210: 4a0a 6f3f 524f 683f 0318 453f e1ef 643f
00000220: a418 f33e 89ae 583f 1adf 853f 7b4f 743f
00000230: 1f9b 603f 2ce9 493f 89ef 5d3f 776a 873f
00000240: db6b 573e 7592 623f 2be5 1b3e 1029 3f3e
00000250: 2574 963f 15ac 503f 68b8 aa3e c0a4 8b3f
00000260: 35cf 623f
0.85865825 0.98525 -1.1993066 0.8710664 0.89343005 0.8627384 -1.7487884 0.9698771
0.35350382 -2.179111 0.7905998 0.9402278 0.8973979 0.49428502 0.780975 0.8593708
0.8560735 -1.8820239 -2.238588 0.9134649 -1.3275597 0.81046873 0.84967196 0.71678644
0.96883225 -1.3868948 -1.9515685 -1.5535531 0.7767057 -2.3785346 0.92951536 0.8016329
0.87550545 0.79343635 -1.7238234 0.8894665 0.97743726 0.90947855 0.80461144 0.81118613
0.83269626 0.24081211 -1.9350971 0.8225841 -1.6192093 -2.0680213 0.20215906 0.81629425
-1.669075 0.9187728 0.8326619 -0.9706528 -0.7782341 0.62669635 -0.9503197 -0.88804066
-0.8063688 0.898524 -0.8611445 -0.3961436 1.1089978 -0.9678663 -0.6492615 -0.90387434
-0.35217178 -0.9894428 -0.9995011 -0.89371395 2.5930665 1.0951239 -0.6272735 0.94305265
-0.88853717 -0.95323867 -0.9993128 -0.88998085 1.0888106 1.0762844 2.1628766 -0.8034273
0.69878507 -0.8756519 -0.9627709 -0.93411434 -0.8289273 0.8917237 -0.8977729 -0.83376753
-0.7862922 -0.9182776 -1.0137333 -1.0164697 -0.78904074 0.92020845 -0.79692966 0.790778
0.8757264 -0.6026417 -0.8718909 0.77517754 -0.8450469 -0.8449923 0.9372561 0.8550457
0.419995 0.6891745 0.9214735 0.6933215 0.28411934 0.9565131 1.1605312 0.17926659
0.9497959 0.9651793 0.63548625 1.2366586 0.77124953 0.79425305 0.7811765 -2.4943268
0.27191484 1.0932499 0.27740228 0.8516459 0.9087216 1.5366127 0.93987215 0.25584257
0.1836781 -2.5843508 1.1054506 0.37494034 0.93375075 0.90746033 0.76989764 0.89428526
0.47479737 0.8464132 1.045871 0.9543378 0.87736696 0.7887142 0.86693627 1.0579365
0.21037237 0.88504726 0.1522414 0.18668008 1.1754194 0.81512576 0.33343816 1.0909653
0.8859742

dense3.bias f4 [3]
00000000: 90fd 7ebf 2217 9b3e e0fe 793f
-0.99605656 0.30291086 0.97654533
