code/params/nxt_cost/policy_A2C_parmeters.pt (torch, 23959 bytes, 6 tensors)

model.0.weight f4 [64, 51]
0	0xbdaded43	-0.0849252
1	0x3da0b39d	0.078467585
2	0xbe00e44f	-0.12587093
3	0x3dc37686	0.09544091
4	0x3de5d717	0.11222666
5	0xbdfa1d1a	-0.12212582
6	0x3c904760	0.01761216
7	0x3cdff8a3	0.027340239
8	0x3cd1cc4f	0.025610117
9	0x3e1984a6	0.14992008
10	0xbdc80f8a	-0.09768589
11	0xbd1cc327	-0.03827205
12	0x3ce951e6	0.028481435
13	0xbe02119a	-0.12702027
14	0x3d81ae26	0.06332044
15	0xbd86aa17	-0.06575411
16	0x3d48cb91	0.04902226
17	0xbd83b0b2	-0.06430186
18	0x3cb67b58	0.022275612
19	0x3dc6add2	0.09701122
20	0x3c01732c	0.007900994
21	0xbe109f73	-0.14123325
22	0xbdebae24	-0.11507824
23	0xbaed873c	-0.0018121968
24	0xbdaf3745	-0.08555464
25	0xbdc9b380	-0.0984869
26	0x3d70172d	0.058615852
27	0x3ca08e08	0.019598976
28	0x3e08a839	0.13345422
29	0xbdcab660	-0.098980665
30	0x3d6ebaab	0.05828349
31	0xbde0ae71	-0.10970772
32	0xbd14e4ab	-0.036350887
33	0xbdb5ec46	-0.08882956
34	0xbdbc60fc	-0.09198186
35	0xbdc3ac50	-0.095543504
36	0x3d5f6e89	0.054548774
37	0x3d2ccfbb	0.042190295
38	0xbda16824	-0.078811914
39	0x3e0a6c21	0.1351781
40	0xbc966cd9	-0.01836245
41	0x3d94c237	0.07263606
42	0xbd6a49ec	-0.057199404
43	0x3c8c507d	0.017128224
44	0xbe0b9345	-0.13630398
45	0xbda3d8c6	-0.080003306
46	0xbd090a17	-0.033456888
47	0xbe08dac0	-0.13364697
48	0x3e118ff1	0.14215066
49	0x3dcd4870	0.10023582
50	0x3d325e37	0.04354688
51	0xbb864f26	-0.0040987907
52	0x3d763e45	0.06011798
53	0x3e09a324	0.1344114
54	0x3ced0cc6	0.028936755
55	0x3ceb992a	0.028759558
56	0x3d9af5e5	0.07566432
57	0x3d520703	0.05127622
58	0x3d7072cc	0.05870323
59	0xbd95d97a	-0.07316871
60	0x3b64af90	0.0034894682
61	0xbd3692b8	-0.044573516
62	0x3ca21b7a	0.019788492
63	0xbd383077	-0.044968095
64	0x3d26180c	0.040550277
65	0xbd27d17b	-0.04097126
66	0xbc13d550	-0.009023026
67	0x3c4d74b1	0.012540028
68	0xbdef9684	-0.116986305
69	0xbdc610a9	-0.096711464
70	0x3dc53e5e	0.09631036
71	0x3d7297e8	0.0592269
72	0xbdcf767b	-0.1013002
73	0x3dfcb56f	0.12339293
74	0xbd0b1416	-0.033954702
75	0xbdbb19d9	-0.091357894
76	0xbc60cf7c	-0.013721343
77	0xbdb9d87f	-0.090744965
78	0x3c175d4a	0.00923855
79	0xbd38893c	-0.045052752
80	0x3d626b1c	0.05527793
81	0x3bb7298a	0.0055896686
82	0x3c604b10	0.013689771
83	0x3dd9f5b9	0.10642571
84	0xbde52e59	-0.11190481
85	0xbb7ff5ec	-0.0039056493
86	0xbd9b04bd	-0.07569263
87	0xbe1285d4	-0.14308864
88	0x3e1bcc20	0.15214586
89	0x3e01018e	0.1259825
90	0xbe18e3b3	-0.1493061
91	0xbd733940	-0.05938077
92	0x3dbc27ba	0.09187265
93	0xbd82ea19	-0.06392307
94	0x3d178746	0.03699424
95	0xbdde47b8	-0.10853523
96	0x3df79de8	0.12090665
97	0xbcabc526	-0.020968031
98	0xbe0c8858	-0.13723886
99	0xbdabfa95	-0.08397404
100	0x3bd7b59e	0.0065829298
101	0x38a311f9	7.775793e-05
102	0x3dcc3029	0.09970123
103	0x3db64f45	0.08901838
104	0x3c2a6bd2	0.010401683
105	0x3d92f424	0.071754724
106	0xbe1122a2	-0.14173368
107	0x3cba1996	0.022717278
108	0xbde4effd	-0.11178587
109	0x3e0be01b	0.13659708
110	0xbc093701	-0.00837493
111	0x3d8600ba	0.06543107
112	0x3da5134a	0.0806032
113	0xbc6efdac	-0.014586847
114	0xbcaf0f58	-0.021369621
115	0x3a54c13f	0.0008115954
116	0xbcb011ed	-0.021492923
117	0x3d3b4966	0.045724295
118	0x3ce84ce9	0.028356986
119	0x3d4cb6b9	0.049978945
120	0x3d42b990	0.047540247
121	0xbdaeb5c1	-0.085307606
122	0x3d70d341	0.058795217
123	0x3d80b232	0.06283988
124	0x3dca6b4b	0.09883746
125	0x3cee6c6a	0.02910443
126	0xbd21e035	-0.03952046
127	0xbbb187b2	-0.0054177875
128	0x3dfa5803	0.12223818
129	0x3d4f1195	0.050553877
130	0x3da3f5b2	0.08005847
131	0x3d004769	0.031318102
132	0x3dc7d4b1	0.097573645
133	0xbdef3335	-0.11679689
134	0x3d52994c	0.051415727
135	0xbd4cd798	-0.050010294
136	0x3bcab5d8	0.0061862282
137	0xbdca6cea	-0.09884055
138	0xbdad780c	-0.08470163
139	0x3d786338	0.060641497
140	0xbdedaa6e	-0.116047725
141	0xbdd8c986	-0.105853125
142	0x3d0d96a9	0.03456751
143	0xbd550c3e	-0.05201363
144	0x3d99c978	0.0750913
145	0xbdd5868b	-0.10426053
146	0xbe03cdce	-0.12871477
147	0xbd2c5005	-0.0420685
148	0xbdb9bda2	-0.09069373
149	0x3d5f1dc1	0.054471735
150	0xbbd0803f	-0.0063629444
151	0x3e00e637	0.1258782
152	0xbdf7cfa2	-0.1210015
153	0x3de2e725	0.110792436
154	0x3d99de34	0.07513085
155	0x3d8d8f42	0.0691209
156	0x3dcb3728	0.099226296
157	0xbda5e9f7	-0.08101266
158	0xbbe75cdd	-0.0070606307
159	0xbdc45586	-0.09586625
160	0x3d8817cf	0.06645166
161	0xbd94eb41	-0.072714336
162	0xbde8e9a3	-0.11372688
163	0xbc04c61c	-0.008103874
164	0x3d926680	0.071484566
165	0x3db2a658	0.08723134
166	0x3d5ef899	0.0544363
167	0xbd3ce4cb	-0.04611663
168	0x3dd88b53	0.10573449
169	0x3d8c7b23	0.06859424
170	0xbd58356f	-0.052785333
171	0x3e0baa06	0.13639078
172	0xbe07e253	-0.1326993
173	0x3da2a760	0.079420805
174	0x3d2f6a2c	0.042825863
175	0x3cfd9d66	0.030958842
176	0xbdb4776f	-0.08811843
177	0xbde677f0	-0.11253345
178	0xbbdc10d1	-0.006715872
179	0xbcb6dfb4	-0.022323467
180	0xbdd491dd	-0.10379384
181	0xbd905560	-0.07047534
182	0xbda5cd79	-0.080958314
183	0xbd8df351	-0.069311745
184	0x3dfac9d9	0.12245531
185	0x3da32825	0.07966641
186	0xbd5bf528	-0.053700596
187	0x3d171b50	0.03689128
188	0x3e053535	0.13008578
189	0x3ddb5e38	0.1071133
190	0x3df451dc	0.11929676
191	0xbcee4159	-0.029083895
192	0xbe04e452	-0.12977722
193	0xbd43be3a	-0.047788836
194	0x3d40eb54	0.047099426
195	0x3d934980	0.071917534
196	0xbcea824e	-0.028626587
197	0x3dc2973a	0.095015004
198	0x3e0497ad	0.12948485
199	0x3d8d9702	0.06913568
200	0xbde24022	-0.110473886
201	0x3e04e82d	0.12979193
202	0xbd6600fe	-0.05615329
203	0xbb8777c1	-0.004134149
204	0xbd8d6959	-0.06904859
205	0xbcb4d3a9	-0.022073584
206	0xbd346465	-0.044041056
207	0xbcb10616	-0.021609347
208	0xbdff0bed	-0.124534465
209	0x3db29c31	0.087211974
210	0xbde15384	-0.110022575
211	0xbd22814d	-0.039674092
212	0x3d340ae7	0.04395571
213	0xbd0d45bc	-0.034490332
214	0xbdb234e6	-0.08701496
215	0xbcd28500	-0.025698185
216	0xbe13e193	-0.14441518
217	0xbd860074	-0.06543055
218	0x3e06bbe5	0.13157614
219	0xbd2aa8eb	-0.041665
220	0x3df177dc	0.117904395
221	0x3c06b484	0.008221749
222	0x3debaa05	0.11507038
223	0xbdfba31d	-0.12286971
224	0x3dd977c9	0.1061855
225	0x3d9d08f5	0.07667724
226	0x3de4237c	0.111395806
227	0x3d1f01b4	0.038819984
228	0xbcbe646b	-0.023241242
229	0xbdcf70c5	-0.10128931
230	0xbd85faf8	-0.06542009
231	0x3dcaacca	0.09896238
232	0x3cf28bad	0.029607618
233	0xbc118c5a	-0.00888356
234	0x3dc90bec	0.09816727
235	0x3df6ff01	0.12060357
236	0xbc4cf655	-0.012509902
237	0x3c4dafa5	0.012554084
238	0xbdb28a41	-0.08717776
239	0x3d2b39a0	0.041803002
240	0xbdf918bc	-0.12162921
241	0xbda30c88	-0.079613745
242	0xbdfb147a	-0.12259765
243	0xbdb91cc3	-0.09038689
244	0xbc9f470d	-0.01944306
245	0xbd4c897a	-0.049935795
246	0xbc9a03cd	-0.01880064
247	0xbdc6dd0f	-0.09710132
248	0xbdf98c09	-0.12184913
249	0x3e09389c	0.13400501
250	0xbd93f590	-0.07224572
251	0x3d8e70ec	0.06955132
252	0x3ddfd0b9	0.109284826
253	0x3e0437bb	0.12911884
254	0x3d0bdc71	0.034145776
255	0x3d5e485a	0.05426822

model.0.bias f4 [64]
0	0xbdd6b475	-0.10483638
1	0xbd2f0962	-0.042733558
2	0x3d467de4	0.048459902
3	0x3d57913f	0.05262875
4	0x3db5e932	0.08882369
5	0x3dd2070c	0.1025525
6	0xbc545207	-0.01295901
7	0xbcbfbcb6	-0.023405414
8	0xbd158ff7	-0.03651425
9	0xbd4da168	-0.050202757
10	0xbc378408	-0.011200912
11	0x3def4005	0.11682133
12	0xbd713b1d	-0.058894265
13	0x3e0589a0	0.13040781
14	0x3c15d4ec	0.009145003
15	0x3d3cd9ad	0.04610603
16	0x3dfd6a78	0.12373823
17	0xbd12a7d7	-0.035804596
18	0x3dd7dd1f	0.105402224
19	0x3dc4714d	0.09591923
20	0x3daf9e11	0.08575071
21	0x3d8c64e7	0.06855183
22	0xbe0609b0	-0.13089633
23	0x3d383b66	0.04497852
24	0x3dd9bf1a	0.10632153
25	0xbd5e1f53	-0.05422909
26	0x3dfd0e6a	0.12356265
27	0x3d40b794	0.047050074
28	0xbd6b4492	-0.05743844
29	0x3ddc94a7	0.10770541
30	0xbccc95f4	-0.024973847
31	0xbdf71ddd	-0.12066243
32	0xbccd0b85	-0.025029907
33	0xbd48db87	-0.049037483
34	0xbd5a6661	-0.053320292
35	0x3d1fa4b5	0.038975436
36	0xbdc7132a	-0.09720452
37	0x3d84e539	0.06489033
38	0x3e00e458	0.12587106
39	0x3d819d19	0.06328792
40	0x3cc9bc31	0.02462587
41	0x3dee2b7d	0.116293885
42	0x3c9dec21	0.019277634
43	0x3d8adba7	0.067801766
44	0xbe0a294c	-0.13492316
45	0xbdb0b01b	-0.086273395
46	0x3df44f11	0.11929143
47	0xbe0331c3	-0.12811951
48	0x3e0e41a2	0.13892224
49	0x3c9ee64e	0.019396927
50	0xbdff8e48	-0.1247831
51	0xbd22c4e6	-0.03973856
52	0x3c65c6d0	0.014024451
53	0x3dc15ebe	0.09441899
54	0xbcfd5a35	-0.030926803
55	0x3d8dd99e	0.06926273
56	0xbd636a41	-0.055521253
57	0x3dc52137	0.09625476
58	0x3d684b56	0.05671247
59	0x3bed2404	0.0072369594
60	0xbcafe266	-0.02147026
61	0xbd3720a1	-0.04470885
62	0x3dd3194d	0.1030756
63	0x3d776260	0.060396552

model.2.weight f4 [32, 64]
0	0xbdfdd887	-0.12394815
1	0x3dd5910e	0.104280576
2	0x3c9eee28	0.019400671
3	0xbc8ebda0	-0.017424405
4	0xbc93475e	-0.017978366
5	0x3b165dc1	0.0022944065
6	0xbe0c5ca7	-0.13707219
7	0xbd1170c2	-0.035507925
8	0x3ded4a24	0.11586407
9	0xbbe179e7	-0.006880987
10	0x3d54e0c9	0.051972184
11	0xbd9d8482	-0.076912895
12	0x3dc0591c	0.09391996
13	0x3d9d1136	0.07669298
14	0xbd225231	-0.039629165
15	0x3cbcf427	0.02306564
16	0xbc445b7e	-0.011984704
17	0x3bb7d84e	0.0056105023
18	0x3d0bb9be	0.034112684
19	0x3baccaf7	0.0052732187
20	0x3c9387b8	0.018009052
21	0xbc4682e7	-0.0121161705
22	0xbd54dcf3	-0.051968526
23	0x3d0738ad	0.033013035
24	0xbd5fd966	-0.054650687
25	0x3d4d5681	0.050131325
26	0xbdaf9e0a	-0.085750654
27	0xbcd9a498	-0.026567742
28	0xbdab2e79	-0.08358473
29	0x3dd53b97	0.104117565
30	0xb8cb0d35	-9.682254e-05
31	0x3d9e4c04	0.077293426
32	0xbd85e904	-0.06538585
33	0xbc368d35	-0.011142065
34	0x3da90302	0.08252527
35	0x3dc6fb4c	0.097159
36	0xbe026858	-0.12735116
37	0xbcf19a88	-0.029492632
38	0x3ba675bb	0.0050799525
39	0xbc76ff18	-0.0150754675
40	0xbdcc98df	-0.09990095
41	0xbc89820a	-0.01678564
42	0xbd4b65c3	-0.049657594
43	0xbd37e1b1	-0.04489297
44	0xbdee28bc	-0.11628863
45	0x3e018b7e	0.12650868
46	0x3d786c21	0.060649995
47	0xbd36e280	-0.0446496
48	0xbbccb0fe	-0.006246685
49	0x3df2c77e	0.11854456
50	0xbdb96bbb	-0.09053751
51	0xbdec2257	-0.11529987
52	0xbd891065	-0.0669258
53	0x3cc3324d	0.023827696
54	0xbde928e9	-0.11384756
55	0x3d77a990	0.06046444
56	0xbd5be66d	-0.053686548
57	0x3d8b3bb1	0.067984946
58	0xbdc48ce7	-0.095971875
59	0xbcb6b16d	-0.0223014
60	0x3c5d7d26	0.013518607
61	0x3dbccce8	0.0921877
62	0xbda521c7	-0.08063083
63	0xbd9afb07	-0.07567411
64	0xbc25a480	-0.010110021
65	0xbcc42af1	-0.023946257
66	0xbdedba60	-0.11607814
67	0x3d2101bb	0.03930829
68	0x3dd3aa3f	0.10335206
69	0x3ddfaf0c	0.109220594
70	0x3da62886	0.08113198
71	0xbd233720	-0.039847493
72	0xbba3a5b9	-0.004994121
73	0x3db1135e	0.08646272
74	0xbcc1343c	-0.023584478
75	0x3da19a73	0.07890787
76	0xbd816fb3	-0.06320133
77	0x3dadc2a8	0.08484393
78	0xbda41176	-0.08011143
79	0x3d1e6320	0.03866875
80	0xbc2ea5c6	-0.010659641
81	0xbd4d23ee	-0.050083093
82	0x3dd3a695	0.103345074
83	0xbce67182	-0.028130297
84	0x3b947acd	0.0045312406
85	0xbd7a6cb6	-0.06113883
86	0x3d62127e	0.055193417
87	0xbcc4ca95	-0.02402238
88	0x3db8b23a	0.09018369
89	0x3d01a0a8	0.031647354
90	0x3e009a86	0.12558946
91	0xbd29fad6	-0.04149898
92	0xbd9e3870	-0.07725608
93	0xbcad36f1	-0.021144362
94	0x3c875373	0.016519284
95	0xbdb2ce38	-0.08730739
96	0x3be5f12c	0.0070172753
97	0x3d654c97	0.055981245
98	0xbdb358f7	-0.08757203
99	0x3dce881a	0.10084553
100	0xbd9d60fd	-0.07684515
101	0xbbf9ab49	-0.0076192957
102	0xbdb0d2bb	-0.08633944
103	0x3dc3a6f2	0.09553327
104	0x3db81752	0.08988823
105	0x3cd0e62b	0.025500378
106	0x3d9d7dc9	0.07690007
107	0xbd8d9a41	-0.06914187
108	0xbd5ae74b	-0.053443234
109	0x3d4b5145	0.04963805
110	0xbd615251	-0.055010144
111	0xbdb53549	-0.08848054
112	0x3df9bd70	0.121943355
113	0x3dbddfe3	0.09271219
114	0xbd622fec	-0.055221483
115	0x3df4fa2f	0.11961781
116	0x3dd0f937	0.10203784
117	0x3d2a7874	0.04161878
118	0xbc5d2b84	-0.013499144
119	0x3dceed50	0.101038575
120	0xbc2dc915	-0.010607024
121	0xbc9afbf3	-0.018918967
122	0xbce2c85a	-0.027683426
123	0xbdd6c547	-0.104868464
124	0xbb878da4	-0.004136758
125	0xbd99262f	-0.07477986
126	0x3db22d98	0.087001026
127	0x3cca46e0	0.024691999
128	0xbc949bf1	-0.018140765
129	0x3dc527f2	0.096267596
130	0x3da3cb2d	0.07997737
131	0xbdeedec2	-0.116635814
132	0xbdeffa52	-0.11717667
133	0xbdac484e	-0.084122285
134	0x3ca59428	0.020212248
135	0x3df0e5b7	0.11762565
136	0x3d804bde	0.062644705
137	0xbcbb4b8b	-0.02286317
138	0x3dd3eb9a	0.10347672
139	0x3d2abc43	0.041683447
140	0xba3cbb0c	-0.0007199503
141	0x3d6b3c59	0.0574306
142	0x3ded08c9	0.11573941
143	0xbc0046fd	-0.007829425
144	0x3d191ddd	0.037381995
145	0x3d46b16c	0.048509046
146	0xbd7dc1d9	-0.061952446
147	0x3d9f55f1	0.07780064
148	0xbe00761c	-0.12545055
149	0xbd4a8bd7	-0.049449768
150	0xbd991f73	-0.074767016
151	0xbde7ec6f	-0.11324393
152	0xbd597940	-0.05309415
153	0xbd8d0737	-0.06886142
154	0xbd92ec79	-0.0717401
155	0xbdfd6e6c	-0.12374577
156	0xbce08c36	-0.027410608
157	0x3de941b7	0.11389487
158	0x3c315d7d	0.010825512
159	0x3dda8a06	0.10670857
160	0xbe039d5d	-0.12852998
161	0xbda89e0b	-0.08233269
162	0xbde72cde	-0.112878546
163	0xbc9c04d3	-0.01904527
164	0xbd624b9e	-0.055247895
165	0xbd74006a	-0.059570707
166	0x3cd4fb87	0.025998844
167	0xbcf06d09	-0.029348867
168	0xbc15d03a	-0.009143883
169	0xbde628ba	-0.11238237
170	0x3de625d6	0.112376854
171	0xbd72941f	-0.05922329
172	0xbdc64f76	-0.09683125
173	0x3db5d44d	0.08878384
174	0xbd65df4b	-0.056121152
175	0xbd3b29c8	-0.045694143
176	0x3d923a98	0.07140082
177	0xbd404d7f	-0.046948906
178	0xbd8ed2a6	-0.06973772
179	0x3da30720	0.07960343
180	0x3dba9024	0.09109524
181	0x3d19575f	0.03743684
182	0xbc353f76	-0.011062494
183	0xbcdfa579	-0.027300583
184	0x3d542198	0.05178985
185	0x3d19f26d	0.03758471
186	0xbd88492e	-0.06654583
187	0x3dbae2c5	0.09125284
188	0x3d6348c3	0.055489313
189	0xbd80d3d7	-0.06290405
190	0xbd9d99f9	-0.076953836
191	0x3d6ea3f2	0.05826182
192	0xbde3bb54	-0.111197144
193	0xbd77c866	-0.06049385
194	0x3d79196d	0.060815264
195	0xbde78a8e	-0.11305724
196	0xbd185674	-0.037191823
197	0xbdb1f179	-0.086886354
198	0xbdb34c89	-0.08754832
199	0x3e0253cf	0.12727283
200	0xbda1020f	-0.07861721
201	0x3df20cbe	0.11818837
202	0xbb9f387e	-0.0048590293
203	0x3db876ce	0.09007035
204	0x3d73ece5	0.059552092
205	0xbd5b1931	-0.05349082
206	0x3d168f6a	0.036757864
207	0x3d2c9abd	0.042139757
208	0xbd05b336	-0.032641612
209	0x3def2a29	0.11677963
210	0x3cfc9806	0.03083421
211	0xbcb73c9c	-0.022367768
212	0xbd5fbf69	-0.054625902
213	0xbd7eb40f	-0.062183436
214	0xbcc04c37	-0.023473842
215	0x3cf63c69	0.030058103
216	0x3ca3212f	0.019913284
217	0xbddcc3bc	-0.10779521
218	0x3d26f62b	0.040762108
219	0x3dcf6cdc	0.10128185
220	0xbda0d467	-0.078530125
221	0xbdf7cd21	-0.12099672
222	0x3dabc826	0.08387785
223	0xbdfca471	-0.12336052
224	0x3d91f4c9	0.07126767
225	0xbdcd47c8	-0.10023457
226	0x3de74455	0.1129233
227	0xbd9236ad	-0.07139335
228	0x3dcf1df7	0.10113137
229	0x3d14fc3a	0.036373354
230	0xbd2a7883	-0.041618835
231	0x3e0050fa	0.1253089
232	0x3d439838	0.04775259
233	0xbd299c45	-0.041408796
234	0xbcbdf277	-0.023186905
235	0x3d59617e	0.05307149
236	0x3c8b6869	0.01701756
237	0xbde95570	-0.11393249
238	0xbdec23a9	-0.11530239
239	0x3d841cae	0.06450783
240	0x3d9a9197	0.075473
241	0xbd3a89db	-0.045541625
242	0x3df1333a	0.11777349
243	0x3d865bf3	0.06560507
244	0xbd89649e	-0.06708644
245	0xbdd7bdd8	-0.10534257
246	0xbb73c7ed	-0.0037198022
247	0x3d092bff	0.033489224
248	0xbd21fbaf	-0.039546665
249	0x3df8a94b	0.12141665
250	0x3d887582	0.06663038
251	0x3dd7f21b	0.10544225
252	0xbddfa219	-0.109195895
253	0xbcf3d5d7	-0.029765053
254	0x3de4e739	0.11176915
255	0xbcba1a37	-0.022717578

model.2.bias f4 [32]
0	0x3d989634	0.07450524
1	0x3de120fb	0.10992619
2	0xbd6e2638	-0.058141917
3	0x3d724523	0.059147965
4	0x3d459070	0.04823345
5	0x3dc157da	0.094405845
6	0xbc000084	-0.007812623
7	0xbd44b6b0	-0.048025787
8	0xbdac8217	-0.0842325
9	0xba71fd7b	-0.0009231192
10	0x3cf4e027	0.02989204
11	0x3c6064c1	0.013695897
12	0x3dc57ca9	0.09642918
13	0xbd5d2d5c	-0.053998336
14	0x3db36698	0.087598026
15	0xbdc664f8	-0.09687227
16	0x3d304003	0.043029796
17	0xbcda34c7	-0.026636494
18	0x3ded7c0a	0.11595924
19	0x3d022d29	0.03178135
20	0x3db090f5	0.08621398
21	0x3df4a9f3	0.11946478
22	0x3d0c37cb	0.034232896
23	0x3d01d1f8	0.031694382
24	0x3c44d60f	0.012013926
25	0x3dd25de6	0.10271816
26	0xbd882732	-0.06648101
27	0xbd8a92a5	-0.067662515
28	0xbd98a75e	-0.07453798
29	0x3dd945ad	0.10608993
30	0xbdc7dfb5	-0.097594656
31	0xbcf97e69	-0.030455785

model.4.weight f4 [3, 32]
0	0x3dea4b93	0.11440196
1	0xbc21d4fa	-0.009877438
2	0x3df4438d	0.11926947
3	0xbcb6fc71	-0.02233717
4	0xbd4b980c	-0.04970555
5	0x3d83a55f	0.064280264
6	0xbd16ecdd	-0.036846984
7	0x3daef5b8	0.08542961
8	0x3c6a2b8b	0.014292608
9	0xbe1d0b7c	-0.15336412
10	0xbe2c3d7f	-0.16820334
11	0xbe0def19	-0.1386074
12	0x3dcd7e66	0.10033874
13	0xbe2997cd	-0.16561814
14	0xbc4ea157	-0.012611709
15	0x3dca6b2b	0.09883722
16	0x3c8a3524	0.016871043
17	0x3d02badf	0.031916495
18	0xbd8c820f	-0.06860744
19	0x3cd9602b	0.026535114
20	0x3e1b8b75	0.15189917
21	0xbd576412	-0.05258567
22	0xbcca229e	-0.02467471
23	0xbd4dc9f3	-0.050241422
24	0xbe2cea1c	-0.1688618
25	0x3e0f623a	0.14002314
26	0x3e2cad30	0.16862941
27	0x3d438702	0.047736175
28	0xbd29032d	-0.041262794
29	0xbe32c306	-0.17457208
30	0xbccdc444	-0.025118
31	0x3d0daacd	0.034586716
32	0x3db358b8	0.08757156
33	0x3b96dc87	0.0046039256
34	0xbe1d21f1	-0.15344979
35	0xbdc958fc	-0.098314255
36	0xbdf38c57	-0.11892002
37	0x3d4d5f10	0.050139487
38	0xbda1ec44	-0.07906392
39	0xbe1c0e0f	-0.15239738
40	0x3c944ca3	0.01810295
41	0x3dfeab99	0.124350734
42	0xbdf8cfb8	-0.12148994
43	0x3ceacaa1	0.028661074
44	0x3d90e363	0.070746206
45	0xbd46b975	-0.04851671
46	0xbe149039	-0.14508142
47	0xbde72b69	-0.11287577
48	0xbdab2da8	-0.083583176
49	0xbe1f7700	-0.15572739
50	0xbca6b8f2	-0.02035186
51	0x3dfaa40b	0.1223832
52	0xbe14385f	-0.14474629
53	0xbd50f2db	-0.051012855
54	0x3e1e030b	0.15430848
55	0x3de2345d	0.11045144
56	0xbe121ea9	-0.14269508
57	0x3dabcfb8	0.083892286
58	0xbde9ea2e	-0.11421619
59	0xbd8f5dc6	-0.07000308
60	0xbe24b279	-0.16083707
61	0x3e1610bb	0.1465482
62	0xbe09924f	-0.13434719
63	0x3d95e814	0.07319656
64	0x3d350791	0.04419667
65	0xbe2cbe6e	-0.16869518
66	0xbdc22be5	-0.094810285
67	0xbe1688d7	-0.14700638
68	0x3ab431d7	0.0013747764
69	0xbcf1f9af	-0.029538004
70	0xbe18c2d0	-0.14918065
71	0x3e0576f8	0.13033664
72	0xbe13ba2e	-0.1442649
73	0xbd7be289	-0.061495338
74	0xbe0d015d	-0.13770051
75	0x3dd6a27f	0.104802124
76	0x3d3a8604	0.045537964
77	0xbd66ae29	-0.056318436
78	0xbe099b6c	-0.13438195
79	0xbde3017c	-0.110842675
80	0x3e03d350	0.12873578
81	0xbe2f2110	-0.17102456
82	0xbdcdd2d2	-0.100499764
83	0x3d858150	0.06518805
84	0xbc90fd81	-0.017699005
85	0xbdac7278	-0.08420271
86	0x3d5fb3f9	0.054614995
87	0x3d16022d	0.03662317
88	0xbe12c0d6	-0.14331374
89	0xbdc7b642	-0.0975156
90	0xbe25159a	-0.16121522
91	0x3e14e4c8	0.14540398
92	0xbda95dc9	-0.08269841
93	0xbda0f9f7	-0.07860177
94	0x3e0081bf	0.12549494
95	0x3d909478	0.07059568

model.4.bias f4 [3]
0	0xbddf7c0e	-0.109123334
1	0x3d75aa9f	0.05997717
2	0x3dbe41dd	0.09289906
