run/policy_A2C_parmeters.pt (torch, 24415 bytes, 6 tensors)

model.0.weight f4 [64, 51]
000000 4b b1 07 bd 63 ae fe bd a5 30 e6 3d 6b da 2a 3d
       -0.033128064 -0.124356054 0.11239747 0.041712206
000010 c3 b5 74 bd fe b4 c8 3d 21 d0 a5 3d 37 a9 cd 3d
       -0.059743654 0.098001465 0.08096338 0.10042041
000020 0e 34 d1 bd 5b 40 84 bd e3 1f 7e bd 41 1e d8 3c
       -0.10215007 -0.06457587 -0.06204213 0.026381614
000030 f1 96 02 3d 6c 5b 52 bd 85 b6 c8 bd 36 01 e0 bd
       0.03188223 -0.051356718 -0.09800438 -0.10937731
000040 54 13 e2 bd ef fc 61 3d a4 ea fe bd 11 30 0c 3d
       -0.11038843 0.055172857 -0.12447098 0.034225527
000050 40 fe b6 3b 55 ad b3 3d 5b e4 db 3c 08 5c eb bd
       0.005584508 0.08773295 0.026842287 -0.11492163
000060 18 3b a1 bd 06 41 0a 3d 35 dd a3 bc 6c 0d 19 3d
       -0.07872599 0.033753417 -0.02000294 0.037366316
000070 80 48 eb 3d 68 a1 67 3d 75 31 77 3d 36 0c d5 bd
       0.11488438 0.056550413 0.0603499 -0.1040272
000080 c3 f4 a3 bd 6b 1f 65 3d 6d 1d bf bd 64 2f 0c be
       -0.08005669 0.055938166 -0.093317844 -0.13689953
000090 77 b8 b5 bd 53 84 6f bd f2 05 6e 3d 1b a8 cf bd
       -0.088730745 -0.058475804 0.05811114 -0.101394854
0000a0 53 5e a0 bd bd ac 43 bc 92 db 82 3c fd db 02 3e
       -0.07830491 -0.0119430395 0.01597384 0.12779231
0000b0 33 70 f4 3d ec 1e d1 bd 43 bc 9f bd 91 5c 8e 3d
       0.11935463 -0.10210976 -0.0779958 0.069512494
0000c0 fb 2d 50 3c b6 fe 41 3d 8a c0 14 bd d4 9c f7 bd
       0.012706275 0.047362052 -0.036316432 -0.120904595
0000d0 b6 0d 19 3c 8c 03 ec bd b7 aa 04 be 34 5f 35 3c
       0.009341648 -0.11524114 -0.12955748 0.0110700615
0000e0 b2 84 be 3d ac ea 0a 3e ae 3b 1b 3d b2 ec 0e 3e
       0.09302653 0.13566083 0.03789871 0.1395748
0000f0 94 1a f4 3c 57 12 2e bc 6f f8 0a bd 97 16 ef 3d
       0.02979783 -0.01062449 -0.03392833 0.116742305
000100 40 ce c4 bd 09 4c d8 bd a9 f3 56 bd 76 c5 c8 bd
       -0.096096516 -0.105613776 -0.052478466 -0.09803288
000110 3a 8c c2 3d fa b6 92 bd 0d f7 ea 3d d7 c4 c3 3d
       0.09499402 -0.07163806 0.114729024 0.095590286
000120 73 8a eb 3d c8 e8 4a bd 2e 3d 85 bd be 7f 99 3d
       0.115010165 -0.049538404 -0.0650581 0.07495068
000130 fc a8 ba 3b 5e f3 ca bd 69 20 27 3d 42 a3 ac 3d
       0.005696414 -0.099097 0.040802393 0.084295765
000140 fe de f8 bb e6 73 5a 3d ad 6d cb bd 8b 1b 74 3c
       -0.007594942 0.053333186 -0.09933028 0.014899145
000150 64 41 bc bc 81 d0 b5 3d f3 75 7f bd b9 60 bb bd
       -0.0229804 0.088776596 -0.062368345 -0.09149308
000160 dc f2 0f be 2c e4 07 be e1 08 cf bd 25 fa 04 be
       -0.14057487 -0.13270634 -0.101091154 -0.12986048
000170 c1 41 08 be 1f e6 2f bd b1 7b 15 3d 6d 0d 7d 3d
       -0.13306333 -0.04294407 0.036494914 0.061780382
000180 c9 91 02 3e 2a 54 a0 3d 95 5f 45 bd 74 66 91 bd
       0.12750925 0.07828553 -0.048186857 -0.070996195
000190 e4 25 85 3c f4 05 8f 3d 83 c0 3b bd 6d 78 9a bc
       0.01625342 0.06983557 -0.04583789 -0.018856252
0001a0 35 9f d4 bd f4 7d 80 bd 73 92 ea 3d 95 61 9e bd
       -0.10381929 -0.06274024 0.11453714 -0.07733456
0001b0 bb 50 99 3d ab 0e 0c be 10 a4 35 bd 5b f2 2f bd
       0.07486101 -0.1367747 -0.044345915 -0.042955738
0001c0 bd 3b d1 3d 6f e2 ac 3c 7d 4c 9b 3d c3 6d 0e be
       0.10216472 0.021104066 0.07582948 -0.13909058
0001d0 46 e7 ed bd 1c 86 c4 bc 6f 0c f8 3b 70 4d e2 bd
       -0.116163775 -0.02398973 0.0075698416 -0.11049926
0001e0 0a c5 11 3e e9 af fe bd 78 3b 8d bd 10 e5 c5 3d
       0.1423532 -0.12435896 -0.068961084 0.09662831
0001f0 da a3 02 be 41 4b 08 3e fa f7 ca 3c 16 20 c9 bd
       -0.12757817 0.13309957 0.024776448 -0.09820573
000200 ba da aa 3d b5 22 78 bd fb 78 30 bd f9 7b 13 bd
       0.083425 -0.060579974 -0.043084126 -0.0360069
000210 cd 6f 3c 3d c5 15 a8 3d 20 e2 d9 3c 0d 32 d4 bd
       0.04600506 0.08207277 0.026597083 -0.10361109
000220 98 8e da bd 82 dd e6 3b 1d 2e 9c bd 42 55 96 3d
       -0.10671729 0.0070454488 -0.07625983 0.073404804
000230 c7 c5 70 3d ef 67 96 3d 7c 42 dc bc 96 0c c3 3d
       0.058782365 0.073440425 -0.026887171 0.09523885
000240 b1 03 94 3d 37 e9 5f bc 4f c1 d2 3c ad 8c d2 bd
       0.072272666 -0.013666443 0.025726942 -0.10280738
000250 8a 68 bf bd 65 16 42 bb d3 42 e2 3d be be c6 3c
       -0.09346111 -0.00296154 0.11047902 0.024260875
000260 69 f0 8a bd d3 b9 7c 3d 1e ff 85 3d 1c 8a b2 3a
       -0.06784136 0.061700653 0.065428 0.0013621482
000270 71 a2 ec 3d 05 c2 20 bd 3e 67 9b 3d 21 2c 28 bd
       0.11554421 -0.03924753 0.07588051 -0.04105771
000280 4d e8 af bd 7c e2 46 bd 43 69 8d bb 5c 8c 11 be
       -0.0858923 -0.048555836 -0.0043155267 -0.14213699
000290 4a 65 54 3b 59 87 b8 3d a0 20 85 3a ca 47 0c 3e
       0.0032409006 0.090101905 0.0010156818 0.1369926
0002a0 45 32 a7 bd cb 50 c6 3d a6 bb 91 bd 94 0d 66 bd
       -0.08163885 0.09683379 -0.07115869 -0.056165293
0002b0 f8 43 73 bd f7 5d cf 3d e9 ce 7e bd 13 e1 d3 3d
       -0.059390992 0.10125344 -0.062209044 0.10345664
0002c0 7a a2 11 3e 0c ec b6 3d dc 93 8d 3d 71 42 f6 3c
       0.14222136 0.08931741 0.069129676 0.030060979
0002d0 44 ac c4 3d 15 52 2f bc 32 35 ab bc 9f dd 9f 3d
       0.096031696 -0.010700722 -0.020899389 0.07805943
0002e0 98 75 3e bd cb 94 53 bd 95 b1 0f bd 8d 1c fd bd
       -0.046498865 -0.051655572 -0.035081465 -0.12358961
0002f0 be d5 65 bc a3 c2 d1 3d fc b2 dd bc ca d3 f0 3d
       -0.014028011 0.10242202 -0.027062885 0.117591456
000300 d1 64 a7 bd 11 be 61 3d 27 1f 9e bd 51 fc dc bd
       -0.08173526 0.055112902 -0.077207856 -0.10790313
000310 80 83 e0 3d 69 22 df bc 42 11 7b 3d 12 0e 85 3d
       0.10962582 -0.027238088 0.061295755 0.06496824
000320 34 66 4e 3d d6 c1 31 bd 9d 1f ec 3d c3 dd 8a bd
       0.050390437 -0.043397747 0.11529467 -0.06780579
000330 4b 51 52 bd d6 79 6f bc 53 51 95 3c c7 f8 d9 3d
       -0.05134706 -0.01461645 0.018227255 0.10643154
000340 02 9f 0b 3e 10 3e 37 3d 75 1a 88 3d 81 1c d6 3c
       0.13634875 0.04473692 0.06645671 0.026136639
000350 b5 9e 43 bd 08 f7 02 3d 36 6e 70 bb bf 04 61 3d
       -0.047758777 0.03197387 -0.0036686785 0.054936167
000360 9f 5a 4e 3d 96 b9 22 bd 8b d1 d8 bd 94 ab b3 bd
       0.05037939 -0.03972777 -0.10586842 -0.0877296
000370 e4 8e 96 bc 39 df 69 bd de e3 dd bd a9 11 04 3e
       -0.018378682 -0.057097647 -0.10834478 0.12897362
000380 3d 66 86 bd b9 0c da bd 3d a2 cb bd 20 61 a5 bd
       -0.06562469 -0.10646958 -0.09943054 -0.08075166
000390 44 98 8f bd 44 61 f9 3c ec a3 f7 3d 0c 54 86 bc
       -0.07011464 0.030441888 0.120918125 -0.016397499
0003a0 44 33 0a be b5 30 2b 3d e1 c6 01 3e 3a 63 b3 bd
       -0.13496119 0.041794498 0.12673523 -0.0875916
0003b0 e8 06 99 3d 63 b1 87 bd 08 b4 19 3d 9c 12 e7 bd
       0.074720204 -0.06625631 0.037525207 -0.11282846
0003c0 75 2d 8f bd 3d cf db bc 7c 5f 52 bd ce d5 82 3b
       -0.06991092 -0.026832217 -0.051360592 0.0039927727
0003d0 84 bb 7a 3d ce 8c ce bd 4a 3c a3 3d 6f c9 fd 3d
       0.061213985 -0.1008545 0.079704836 0.12391936
0003e0 51 d3 b2 3d 43 84 92 3d ff 96 03 be fa d6 95 3d
       0.08731712 0.07154133 -0.12850569 0.07316394
0003f0 05 93 66 bd 0a 9b b2 3d 37 cf ff 3d 80 b1 87 3d
       -0.056292553 0.087209776 0.12490695 0.06625652

model.0.bias f4 [64]
000000 59 3d 7a 3d 4d 64 83 bd ef 1c c3 bc bf a0 cc bd
       0.061093662 -0.06415615 -0.023817508 -0.099915974
000010 b0 ed b9 bd e5 da a5 3c a4 de 43 bd 19 fb 97 bd
       -0.090785384 0.020245979 -0.04781975 -0.0742094
000020 d7 07 bb bd db 3a 4a bb cc 19 07 bd 99 95 fd 3d
       -0.09132355 -0.0030857834 -0.032983586 0.12382049
000030 85 be 5e bd 3a ac 0b 3e 1e 23 c1 bc 6e 87 69 bd
       -0.054380912 0.13639918 -0.023576315 -0.05701392
000040 08 f3 02 bd 27 9c 0a be 7b dd 2f bd 69 48 59 bd
       -0.031970054 -0.1353613 -0.04293583 -0.05304757
000050 be 78 04 bb 13 6c 6b 3d 14 be c9 3d 78 7e a3 3c
       -0.002021357 0.057476114 0.09850708 0.019957766
000060 e5 b9 32 bd 96 2d b6 bd 67 2b 0a 3e ea ab 9d 3b
       -0.043634314 -0.088954136 0.13493119 0.0048117535
000070 f0 9c 1f bc 93 08 df 3d 25 94 0f 3d e9 2e 98 3d
       -0.009742007 0.10890307 0.03505339 0.074308224
000080 a5 84 0c bd 99 9d ab 3d b8 d3 49 3d 01 95 99 bd
       -0.034306187 0.08379669 0.049274176 -0.07499123
000090 98 d9 a5 bd cf fd f4 bd aa 40 7c 3c 38 e1 f4 3d
       -0.08098143 -0.11962473 0.0153962765 0.119570196
0000a0 44 9c e3 3d c6 48 91 3d 25 7f 08 be 77 d4 a5 bd
       0.1111379 0.070939586 -0.13329752 -0.08097165
0000b0 98 91 a8 bc fe eb 13 bd c2 00 33 bd 94 71 9c ba
       -0.020577237 -0.03611373 -0.043701895 -0.0011935704
0000c0 60 5a 4a 3d 5d 78 48 bd de 55 a3 bd b9 e2 71 3d
       0.049402595 -0.048942912 -0.07975362 0.05905411
0000d0 21 f8 12 3d 05 28 5f bc 6c 0d b7 3c 3b 40 ac 3c
       0.035881165 -0.013620381 0.022345267 0.021026721
0000e0 a8 e2 f4 bd 4f a1 b1 3b 33 b7 09 3e 03 41 5a 3d
       -0.11957294 0.005420841 0.13448791 0.053284656
0000f0 aa 8c c0 3d d9 41 b9 3d a6 1a 8d 3b 1d d9 29 3c
       0.094018295 0.090457626 0.0043061553 0.010366705

model.2.weight f4 [32, 64]
000000 fb 76 af bc 97 69 c4 3d 66 8b 9c 3d 83 48 e9 3d
       -0.021419039 0.09590452 0.07643776 0.11390784
000010 e6 5f fc bd 0d 03 64 bd 6f d7 cc 3d 4b b1 05 3d
       -0.12322979 -0.055666972 0.10002028 0.032639783
000020 26 de f5 bc 37 f5 ac 3d 90 fa 05 3c cd e0 52 3d
       -0.030013155 0.084452085 0.008177415 0.051483918
000030 a5 c4 2e bd 1b 64 85 bd a8 9d 74 3c 20 a8 b3 3d
       -0.042668004 -0.06513234 0.014930166 0.08772302
000040 a0 73 c3 3b 56 e1 22 bd d5 64 60 3c c8 7a ac 3a
       0.0059647113 -0.03976568 0.013695915 0.001315915
000050 8a 68 bb 3d 68 11 e6 bd 0d 9a 8e 3d 93 c5 9c bc
       0.091507986 -0.11233789 0.069629766 -0.01913718
000060 31 37 b0 3d 5a cb 10 bd ee da 90 3d b7 ac db 3d
       0.08604277 -0.03535018 0.070730075 0.10726302
000070 ee 22 4a bc db a8 b4 3c 3e 89 7c bd d7 b7 92 bd
       -0.012337429 0.022053173 -0.06165432 -0.07163971
000080 70 c4 01 3d 4a 10 f3 bd f6 e2 80 bd ab 54 10 bd
       0.031681478 -0.11868341 -0.06293289 -0.035236996
000090 dd 59 8f 3d 26 f6 ec 3d 0b d6 d5 bd 3e 82 60 bd
       0.06999562 0.115703866 -0.10441216 -0.05481171
0000a0 7d 21 a2 3c 16 3f 7d 3d 41 6b 00 3c 58 33 2f 3d
       0.01979136 0.06182774 0.007838071 0.042773575
0000b0 81 88 4f bb 77 df 02 3d 81 50 a8 bd 0a 0c c6 bd
       -0.0031667056 0.031951394 -0.0821848 -0.09670265
0000c0 0b 7b 0d 3c a7 a7 37 3d ce d7 7b 3d a0 0f eb bd
       0.008635293 0.04483762 0.061485104 -0.114775896
0000d0 6c e4 a7 bc 8f 6d 17 bd 46 5f 9a 3c de de db 3d
       -0.020494662 -0.036969718 0.018844258 0.10735868
0000e0 e4 a3 86 3d 4d 2f fe bd a3 26 b9 3d a2 7d 5d 3d
       0.065742284 -0.12411366 0.090405725 0.05407489
0000f0 85 98 24 3d d7 4a d3 bd 16 57 60 3d b9 08 93 3c
       0.040184516 -0.10317009 0.05477055 0.017948495
000100 78 ca 02 3d 88 88 d6 bd c3 18 d7 3d f2 cf a0 3d
       0.03193137 -0.1047526 0.1050277 0.078521624
000110 b8 a4 55 bd 9f 3c 68 3d 83 c0 a5 bd 7a 2f b0 3d
       -0.05215904 0.056698438 -0.08093359 0.086028054
000120 18 5f a2 bd b3 d0 89 bd f6 df 7e 3d a6 de 0e 3d
       -0.07928294 -0.06729259 0.062225305 0.034880303
000130 7e c5 9e bd 8e 8e 5c bd 30 dc a3 bd 8d d6 03 3d
       -0.077525124 -0.05384689 -0.08000982 0.032187033
000140 db 00 4c bb 0b 5a 0d bc 4e 70 52 3c c0 92 80 3c
       -0.003112844 -0.008627425 0.012844158 0.015694976
000150 51 c5 ad 3d 7d a3 69 bd c6 52 0f bd 1e f9 fe bd
       0.08484901 -0.05704068 -0.03499105 -0.12449859
000160 ff 8e cb 3d 19 16 ee 3d 9e 4a eb 3d 6d f3 91 bc
       0.09939384 0.116253085 0.114888415 -0.01781627
000170 90 88 f5 bd 5e 34 78 bd 7a c3 87 3d c8 77 74 3d
       -0.11988938 -0.060596816 0.06629081 0.059684545
000180 95 8b 55 bd b4 81 42 3d 5d 4c f6 3d 25 b9 4f bd
       -0.05213507 0.047486976 0.12026284 -0.050713677
000190 55 5c 07 bd a7 d3 17 3c 6f 3e 71 3c ae 25 a7 bd
       -0.03304704 0.00926677 0.014724358 -0.08161484
0001a0 f6 c3 cd 3d c6 13 12 bd 69 6e b6 3d 5f 6f d2 bd
       0.10047142 -0.03566339 0.08907778 -0.102751486
0001b0 48 96 f6 3d 1f 0e c5 bd 88 9b d7 3d a9 dc 95 bd
       0.120403826 -0.09621834 0.10527712 -0.07317478
0001c0 76 2b 67 3d 1c 05 54 3d ac b9 ee 3d c9 fa 8f bd
       0.056437932 0.051762685 0.11656508 -0.07030255
0001d0 bf 9e b6 bd ac a2 99 3d 56 80 3c 3d 99 c3 43 bd
       -0.08916997 0.0750173 0.04602083 -0.04779396
0001e0 cb 0a 78 bd 4c 8f 28 3d 09 3d 14 3d bf c6 ff 3b
       -0.060557168 0.041152284 0.03619102 0.007805675
0001f0 61 ac ec bd 74 9f 7c bc 78 ac e3 3c 04 20 a0 3d
       -0.11556316 -0.015418876 0.0277922 0.078186065
000200 5b 55 16 3d 28 1e f1 ba b3 ce 9a 3d dc bd bc bd
       0.036702495 -0.0018395828 0.07558956 -0.092159
000210 6f e5 d3 3d 21 01 6a 3d e4 cf 8e bc c5 0d 41 3d
       0.10346495 0.057129983 -0.017433114 0.047132272
000220 e5 12 8a 3d dc 81 f7 3d 2e 64 48 3d f0 1e 9c 3d
       0.06741885 0.120853156 0.048923664 0.07623088
000230 40 da af bd bf 9b d1 bd 45 c4 bf bc bd 9c b0 bd
       -0.0858655 -0.10234784 -0.023409018 -0.086236455
000240 2f 5c 73 3b a6 dd 5e 3d 5c 87 f7 3c 6d d5 df bc
       0.0037133803 0.0544106 0.030215912 -0.027323449
000250 3e 4c c5 3d 7e 42 47 3d 3c 89 58 3d 3e c8 d7 bd
       0.09633683 0.048647396 0.052865252 -0.1053624
000260 53 a4 eb bd 7b a5 54 3b 31 35 c0 39 b3 84 a0 bd
       -0.11505952 0.0032447267 0.00036660724 -0.0783781
000270 6a 59 6a bd 01 fa 91 3d f6 61 e9 bd f2 ed ed 39
       -0.05721418 0.071277626 -0.11395638 0.00045381446
000280 7b ef 87 3c 8a e6 bb bc 8f 99 05 bd 7c 06 ae bd
       0.016593685 -0.022937078 -0.032617148 -0.084973305
000290 d8 6f c2 bd 28 66 d6 bd 84 d6 e8 3a b7 d5 a9 bd
       -0.09493989 -0.104687035 0.0017764126 -0.08292716
0002a0 85 c2 19 bd df c3 ee 3d ba d4 52 3c ce 1b 4e 3d
       -0.037539024 0.11658453 0.012868101 0.050319485
0002b0 91 21 dd 3b 0b 79 ec 3d 08 95 ab 3c 35 88 a9 3d
       0.006748386 0.115465246 0.020945087 0.082779326
0002c0 fa 3d cf 3d 30 3f b5 3d bd 9d f1 bd ae 0b 04 3e
       0.10119243 0.08849943 -0.11797664 0.1289508
0002d0 88 36 3f bd 51 0d 9c bd 98 84 ce 3c 2d 6d 5e 3c
       -0.046682864 -0.076197274 0.02520971 0.013575834
0002e0 df 61 e9 3d 2b 24 1e 3c f7 1e 08 3c e1 09 bc 3d
       0.113956206 0.009652178 0.008308164 0.09181572
0002f0 77 ef 5e 3d 9a e3 31 3d 08 9d 8f bd 73 8b db bd
       0.05442759 0.04342995 -0.07012373 -0.10719957
000300 88 03 c6 bd 59 a6 cd 3d 89 57 be bd a5 c9 37 bd
       -0.09668642 0.10041494 -0.0929404 -0.044870038
000310 9f 20 e8 bc e1 78 83 bd 47 c5 a9 3d d4 8a f4 bd
       -0.028335867 -0.0641954 0.08289581 -0.11940542
000320 3a c7 7e 3d ab 26 b1 3d 27 2c 3b bd 2d 63 a2 bd
       0.062201716 0.086499535 -0.045696404 -0.079290725
000330 a3 88 aa 3b c8 98 8c bd 90 a8 ae bd 70 43 8e 3d
       0.0052042766 -0.06865078 -0.085282445 0.069464564
000340 6b 18 dd 3d 8e 04 e2 3d 41 8b 5a 3d f1 ce 4f bd
       0.10795673 0.11036025 0.05335546 -0.050734464
000350 17 4d 91 bb 44 fe e7 bd bf 42 ac 3d 57 9c f2 3d
       -0.0044342387 -0.11327794 0.08411168 0.11846226
000360 54 8b a3 bd 2b 56 7d 3d 66 ca 4b bd 81 8a d6 3c
       -0.07985559 0.061849754 -0.04975357 0.02618909
000370 2a 3e b6 3d 02 8b e3 3d 31 fb f9 3d 3b 15 ff 3d
       0.088985756 0.11110498 0.12206114 0.12455221
000380 b9 54 7d 3d de c4 a4 3c 02 c7 16 bd 19 d3 30 3c
       0.061848376 0.020113405 -0.036810882 0.010792517
000390 18 17 d2 3d d5 ea 04 be ef 08 b5 3d 07 f6 bf 3d
       0.10258311 -0.12980206 0.088395946 0.09373098
0003a0 c3 6c 2a 3d 25 73 be bc e4 ff fb bd d8 0d a8 bd
       0.04160763 -0.023248265 -0.12304667 -0.082057655
0003b0 e0 c9 ff 3c 97 73 3c 3d 35 47 ba 3d c7 24 ba 3c
       0.031224191 0.046008673 0.09095613 0.022722615
0003c0 73 2b c7 3d 80 1f ed 3d 62 0c 2a 3d 19 0d b0 3d
       0.09725084 0.11578274 0.041515715 0.08596248
0003d0 5e 57 78 3d e7 78 c2 bd a4 50 9b bd c8 1a 24 bd
       0.060630195 -0.094957165 -0.0758374 -0.040064603
0003e0 ac 10 92 bd 7a d6 8d 3d f2 a4 3f bd 40 77 cf bd
       -0.07132086 0.06925674 -0.046788163 -0.10130167
0003f0 8c 3a 3f bd 0e 2f c9 3d 1c e1 f1 3d e3 5e af bd
       -0.046686694 0.09823428 0.11810514 -0.0856302

model.2.bias f4 [32]
000000 96 fd b4 bd 67 17 dc bd c2 de e7 bd b1 91 cd 3b
       -0.0883743 -0.10746651 -0.113217846 0.0062734713
000010 f2 93 76 3d d6 88 8e 3d 05 e4 f6 bd 1f 4f 6c bd
       0.060199685 0.06959693 -0.1205521 -0.057692643
000020 71 7e ee 3c aa cb f8 bd 05 b6 98 bc 17 4e ef bd
       0.029113026 -0.12148221 -0.018641481 -0.11684816
000030 b1 2e e5 3d 6a fc 00 3d d4 fd e0 bd 88 85 f8 bd
       0.11190546 0.03149072 -0.10985914 -0.12134844
000040 c8 1b a5 bc 29 cd 96 3d c0 fd c2 bd a1 85 07 3c
       -0.020154849 0.0736335 -0.09521055 0.008271606
000050 ab 71 88 3d cb b6 1a bd 23 38 49 bd 0f 9f e4 3d
       0.066623054 -0.03777198 -0.0491258 0.111631505
000060 28 97 b4 bd 92 a3 8f bd 0d d2 af 3d f7 65 ba 3b
       -0.08817893 -0.070136204 0.08584986 0.0056884247
000070 90 09 a4 3b e3 97 b2 3d 6d e0 54 3d 12 8a a4 bc
       0.0050060228 0.08720376 0.05197184 -0.020085368

model.4.weight f4 [3, 32]
000000 9d 11 52 3d ef 5b 5f 3d 15 6c f1 3d 09 40 37 3e
       0.05128633 0.054531034 0.11788193 0.17895521
000010 ec 77 d6 3d ea f6 08 be 6c 42 02 be 9b 3a 8a 3c
       0.10472092 -0.1337544 -0.1272065 0.016873648
000020 aa 98 1d be 4c de 8a bd 19 4a a8 3d a6 73 98 3d
       -0.15390268 -0.06780681 0.08217258 0.07443933
000030 1a 40 fa 3c fc 80 24 3e ed 69 34 be 7a 42 ff bd
       0.030548144 0.16064829 -0.17618532 -0.12463851
000040 10 05 0a be 60 e8 17 be 0d 3d 0e be 27 38 1a 3e
       -0.13478494 -0.14834738 -0.13890477 0.15060483
000050 a9 e0 ac bb d3 9d 9f bb da 91 12 3e 84 bb 13 be
       -0.005275805 -0.004871109 0.1431345 -0.14427
000060 92 31 f7 3d d7 c7 35 3e 76 71 0a be ba 32 48 3c
       0.12070002 0.17752014 -0.13519844 0.012219125
000070 c6 71 2f 3e 07 45 b0 bd 4c 44 81 3b d8 3c 29 be
       0.17133245 -0.08606916 0.003944909 -0.16527116
000080 6b af 04 3e 84 3b 03 3e d4 ae c8 3d 89 54 e6 3d
       0.12957542 0.12815672 0.09798971 0.112465926
000090 9b 7e f7 3d b1 22 53 bd 01 cf bc 3c 0d 7e f4 3b
       0.12084695 -0.051546756 0.023047926 0.0074613155
0000a0 d4 19 af bd 29 4f fd 3d 35 da 80 3d 44 c9 16 be
       -0.08549848 0.12368614 0.0629162 -0.14725214
0000b0 a0 84 c0 3d 74 d5 f1 bc 29 da d7 3d 4a 0d c4 3d
       0.09400296 -0.029520728 0.105396576 0.09572847
0000c0 02 bc 89 bd b7 bb 26 3d 9f 4d e2 bd 93 db cb 3d
       -0.06725313 0.040706363 -0.11049961 0.0995399
0000d0 dc 3f a8 3b 41 de 80 bd 80 cd d9 3d 80 bb f6 3d
       0.0051345658 -0.062923916 0.10634899 0.120474815
0000e0 f3 19 11 bd 55 88 a4 bd 80 33 94 bd b7 72 5a 3d
       -0.035425138 -0.08033816 -0.07236385 0.053332057
0000f0 08 43 84 bd c8 27 97 bc fd be 11 be e3 1a dc bd
       -0.06458098 -0.018451586 -0.14233012 -0.10747316
000100 35 7c 1f be 06 1a 97 3d 8d a1 06 3d 1b 7c 79 3d
       -0.15574725 0.073780105 0.03286891 0.06090937
000110 01 81 1d 3e a2 46 ca 3d aa f4 fe ba 66 3a 43 3c
       0.15381242 0.098767534 -0.0019451578 0.011915779
000120 7e d9 15 3d 8a 79 6e 3d dd aa 0a bd 9b 69 b8 bd
       0.03658437 0.058221377 -0.033854354 -0.09004518
000130 09 27 bf bc 19 8b c0 3b c4 06 8a 3d 95 8a 35 bd
       -0.023334043 0.0058759567 0.06739572 -0.044321615
000140 46 3b a9 bc af e0 f8 3d c2 e0 84 bd df 70 27 3e
       -0.020658147 0.1215223 -0.06488182 0.1635165
000150 eb f2 9e 3d 4c 23 09 be c2 59 10 3e 47 2c b4 bb
       0.07761177 -0.13392371 0.1409674 -0.0054984423
000160 4a b5 dc bd 12 ea d6 3d fe 07 ed 3d e5 71 f8 bd
       -0.10776766 0.10493864 0.1157379 -0.12131099
000170 8a 9e 08 be e4 bf 97 3d 37 9f 2f be 7f b8 ce bd
       -0.13341728 0.07409647 -0.1715058 -0.100937836

model.4.bias f4 [3]
000000 42 5a 27 3e ce c4 d8 bd 9c a8 b2 3d
       0.16343024 -0.105844125 0.08723566
