code/params/btc_cost/policy_A2C_parmeters.pt (torch, 23959 bytes, 6 tensors)

model.0.weight f4 [64, 51]
-0.010596499 -0.08718661 -0.086121075 -0.06605271 0.08077591 0.10296256 -0.059828084 -0.0031021312
-0.063723855 0.042841326 -0.044801585 -0.11765247 -0.13276385 -0.019643843 0.10700315 0.038639344
-0.0012951322 0.029042952 -0.10772851 0.13890694 0.1433168 -0.106944084 0.063163266 0.046699964
0.0055502597 -0.089184806 -0.01414731 0.05655721 0.010646206 -0.087977424 0.13684486 -0.031554244
0.025522951 0.073301114 -0.111861035 -0.030897347 -0.036121227 0.084005006 -0.010727313 -0.056313105
-0.13802834 -0.065117635 0.12179747 -0.11879048 -0.030996082 0.06294099 -0.07791117 0.1078335
-0.11565693 0.0037802218 -0.070452824 -0.1156382 -0.05174339 -0.061099805 0.09727093 0.11441989
-0.07205758 0.025044588 0.018175106 -0.06629702 0.0008185071 -0.048453778 -0.022319822 0.13122493
0.021269051 0.03373643 0.08761198 0.06806104 -0.027645648 -0.09197114 -0.004174771 -0.08202706
0.13269015 -0.09568838 -0.021919288 0.050473575 0.11914773 0.10947325 -0.023687186 -0.0317436
0.10188747 -0.07746304 -0.091517106 -0.0037300428 0.13476582 0.022144293 -0.120057784 0.1250954
0.06990275 -0.14730468 -0.038132504 0.005820434 0.12647581 -0.010724001 0.08252733 -0.022595275
0.14723 0.074404255 0.0054884823 1.3729699e-05 0.11978983 0.063354306 0.029798275 -0.07598906
-0.024109818 -0.05407322 -0.0074206092 -0.020403787 -0.0400769 -0.03343821 -0.08277075 -0.080393344
0.097617224 -0.11804499 0.07847738 -0.089860044 0.12471706 -0.06691341 0.065966256 0.09114692
0.110809244 0.06991142 -0.058023192 -0.050405085 0.046816953 0.08592478 0.112001024 -0.029067237
0.08841372 -0.046362814 -0.110207334 -0.07670038 -0.11235116 -0.09488163 -0.07559614 -0.08216606
-0.08731279 0.14379334 -0.09604921 -0.0941608 -0.09200141 0.025427217 0.072980285 0.07650739
-0.13322581 -0.031673577 0.09575079 0.11817211 -0.08565033 -0.050304875 0.120643415 -0.10810849
0.05046603 0.038877208 0.12711212 0.028212894 0.11327281 -0.07678585 -0.08483518 0.10795469
-0.024780674 -0.07457174 0.03713625 0.15074112 -0.06353406 -0.08071545 0.09028494 -0.050319538
0.10841986 -0.11296653 -0.13743894 0.041737363 0.027958507 -0.0447246 -0.014310061 -0.0895969
-0.08254626 0.0049098446 -0.11775197 0.10576325 0.1218318 0.06405788 -0.07538861 0.13068241
-0.009378429 0.0727914 -0.053756267 0.11001164 -0.12799573 -0.020634707 0.09761368 -0.039951723
0.06780121 0.11129902 0.0930768 -0.071149655 -0.057007868 -0.044444125 0.087764636 -0.11541921
-0.04480611 0.058679253 -0.10830609 0.01632735 0.10754871 0.06823401 -0.046931434 -0.0049815695
-0.08246472 -0.07705163 -0.042200696 0.086138226 -0.0027199348 -0.06402818 0.045327254 -0.0921846
-0.04836725 -0.053163134 -0.12415909 -0.016124746 0.108959705 -0.047643937 0.0840529 0.1002807
0.04160025 -0.09911501 0.0382219 0.06922997 -0.102098376 -0.12096061 -0.08395303 -0.04571653
0.1133247 -0.004128602 0.12098895 0.013995341 0.11706232 -0.052797455 0.023979222 -0.14596315
0.09523729 -0.012817219 -0.11662651 -0.035942245 -0.023924915 0.03199386 0.053629685 -0.013169045
-0.036006726 0.09397081 -0.06390832 0.06843999 -0.08976432 0.06002792 0.08643851 0.009787898
00000000: f09c 2dbc e58e b2bd 3f60 b0bd a546 87bd
00000010: d76d a53d 09de d23d 4b0e 75bd 204d 4bbb
00000020: a781 82bd 637a 2f3d de81 37bd c7f3 f0bd
00000030: 3ff3 07be 20ec a0bc 7824 db3d 4a44 1e3d
00000040: 6dc1 a9ba 7ceb ed3c c4a0 dcbd 9f3d 0e3e
00000050: a4c1 123e 8005 dbbd be5b 813d 7648 3f3d
00000060: f4de b53b 86a6 b6bd 1eca 67bc 88a8 673d
00000070: 6d6d 2e3c 822d b4bd 0f21 0c3e 063f 01bd
00000080: 8215 d13c e51e 963d 6617 e5bd 6f1c fdbc
00000090: daf3 13bd d10a ac3d 9dc1 2fbc 92a8 66bd
000000a0: 4d57 0dbe 655c 85bd f470 f93d 6c48 f3bd
000000b0: 7feb fdbc 35e7 803d e48f 9fbd cfd7 dc3d
000000c0: 8add ecbd 99bd 773b 9249 90bd b8d3 ecbd
000000d0: e0f0 53bd ca43 7abd fb35 c73d fa54 ea3d
000000e0: ed92 93bd 4f2a cd3c f6e3 943c bbc6 87bd
000000f0: 1591 563a 7877 46bd 0fd8 b6bc d45f 063e
00000100: 6f3c ae3c 362f 0a3d e96d b33d 9663 8b3d
00000110: 2079 e2bc 5d5b bcbd 84cc 88bb cefd a7bd
00000120: eddf 073e 45f8 c3bd 1490 b3bc 61bd 4e3d
00000130: ba03 f43d 8333 e03d a10b c2bc 9405 02bd
00000140: 61aa d03d f1a4 9ebd 526d bbbd bc73 74bb
00000150: 0d00 0a3e f367 b53c dbe0 f5bd 0219 003e
00000160: 2c29 8f3d 0ad7 16be d430 1cbd 57b9 be3b
00000170: e082 013e b8b3 2fbc 1704 a93d ba19 b9bc
00000180: 76c3 163e 4261 983d bad8 b33b 9c58 6637
00000190: 5f54 f53d e7bf 813d 831b f43c 27a0 9bbd
000001a0: f481 c5bc e17b 5dbd 9528 f3bb d825 a7bc
000001b0: ad27 24bd 81f6 08bd b683 a9bd 44a5 a4bd
000001c0: 8aeb c73d 92c1 f1bd c0b8 a03d 8b08 b8bd
000001d0: a86b ff3d e609 89bd 5119 873d 3dab ba3d
000001e0: f5ef e23d b82d 8f3d baa9 6dbd 9075 4ebd
000001f0: 22c3 3f3d 55f9 af3d cb60 e53d 6a1e eebc
00000200: 4112 b53d efe6 3dbd 62b4 e1bd 1715 9dbd
00000210: 5d18 e6bd 4d51 c2bd 26d2 9abd ae46 a8bd
00000220: 0cd1 b2bd 903e 133e 73b5 c4bd 61d7 c0bd
00000230: 3c6b bcbd bd4c d03c b076 953d e8af 9c3d
00000240: 596c 08be 27bc 01bd fd18 c43d 3804 f23d
00000250: 7169 afbd 7c0c 4ebd e513 f73d fc67 ddbd
00000260: 78b5 4e3d b53d 1f3d ae29 023e ba1e e73c
00000270: 93fb e73d e641 9dbd 11be adbd 5917 dd3d
00000280: d700 cbbc 12b9 98bd 2e1c 183d e15b 1a3e
00000290: 251e 82bd 244e a5bd 50e7 b83d dc1b 4ebd
000002a0: 3b0b de3d ff5a e7bd cbbc 0cbe ccf4 2a3d
000002b0: 3d09 e53c 2431 37bd bf74 6abc 947e b7bd
000002c0: 030e a9bd c3e2 a03b f227 f1bd 679a d83d
000002d0: f382 f93d c730 833d 5865 9abd 9cd1 053e
000002e0: fba7 19bc a813 953d 882f 5cbd c84d e13d
000002f0: 5011 03be 1e0a a9bc aee9 c73d 6ba4 23bd
00000300: 5cdb 8a3d bef0 e33d 0d9f be3d e9b6 91bd
00000310: 1581 69bd 0b0b 36bd f2bd b33d e860 ecbd
00000320: 9d86 37bd a859 703d 95cf ddbd efc0 853c
00000330: 8042 dc3d 46be 8b3d 2d3b 40bd 6f3c a3bb
00000340: 43e3 a8bd 3fcd 9dbd a3da 2cbd 3d69 b03d
00000350: ef40 32bb 3521 83bd 12a9 393d 48cb bcbd
00000360: bd1c 46bd 96c1 59bd 1f47 febd 0b18 84bc
00000370: 4426 df3d 4a26 43bd ed23 ac3d f85f cd3d
00000380: 0665 2a3d cffc cabd 918e 1c3d 71c8 8d3d
00000390: f418 d1bd 32ba f7bd 91ef abbd 4241 3bbd
000003a0: c816 e83d 3949 87bb 0ec9 f73d b74c 653c
000003b0: 5fbe ef3d 2542 58bd 1370 c43c 5d77 15be
000003c0: c50b c33d 50ff 51bc e1d9 eebd 2d38 13bd
000003d0: 2ffe c3bc fe0b 033d cdaa 5b3d fac2 57bc
000003e0: ca7b 13bd c573 c03d 5ee2 82bd 442a 8c3d
000003f0: 5bd6 b7bd d6df 753d ac06 b13d 6b5d 203c

model.0.bias f4 [64]
-0.12868722 -0.010748696 0.14023824 -0.06451673 -0.11032594 -0.015761336 -0.0900617 -0.08729643
0.104037024 -0.10299121 0.09079666 0.107664466 0.11488606 -0.08403768 0.1431023 -0.03126427
-0.115420505 0.029747447 -0.020236343 -0.020561377 0.08116585 0.015477727 -0.12801419 0.08399276
0.039068773 -0.101533525 0.10601468 0.0044933567 -0.082744256 0.07316078 -0.05189445 0.027747275
-0.07591146 -0.11921816 0.07532291 0.11765072 0.12598072 0.040958937 -0.13765669 0.016986676
0.051513724 0.013117953 0.036102712 0.07407892 0.07252982 0.058705643 -0.022718249 0.028162986
-0.13769445 -0.062079474 0.029788882 -0.14741017 -0.13506427 0.12824914 -0.032944996 -0.08161237
-0.025811613 -0.08203848 0.02925824 0.13607174 0.04759318 -0.04120683 0.071701035 0.13793515
00000000: 95c6 03be 4c1b 30bc 9d9a 0f3e 5921 84bd
00000010: 91f2 e1bd eb1d 81bc 4572 b8bd 78c8 b2bd
00000020: 5d11 d53d 0eed d2bd 99f3 b93d 307f dc3d
00000030: 6249 eb3d f21b acbd 6989 123e f70e 00bd
00000040: 9661 ecbd ebb0 f33c b0c6 a5bc 5570 a8bc
00000050: 483a a63d 4b96 7d3c 2716 03be 6504 ac3d
00000060: 9406 203d cff0 cfbd 391e d93d 023d 933b
00000070: d275 a9bd 52d5 953d 468f 54bd 414e e33c
00000080: 7877 9bbd a728 f4bd e642 9a3d dcf2 f03d
00000090: 1701 013e 8fc4 273d e0f5 0cbe a427 8b3c
000000a0: 0e00 533d afec 563c 70e0 133d b0b6 973d
000000b0: 848a 943d 5475 703d 9f1b babc 10b6 e63c
000000c0: c6ff 0cbe 0c47 7ebd d007 f43c b1f2 16be
000000d0: 4a4e 0abe be53 033e 55f1 06bd 6324 a7bd
000000e0: e072 d3bc ca03 a8bd faae ef3c 6456 0b3e
000000f0: 11f1 423d 7ec8 28bd fed7 923d df3e 0d3e

model.2.weight f4 [32, 64]
-0.015154586 -0.054051436 0.013579182 0.116863616 -0.12305019 -0.014479432 0.01592415 -0.10615591
0.023428956 -0.11865691 -0.061381597 0.105734736 -0.02613755 0.039885253 -0.046290252 -0.02383756
-0.08925685 -0.10042187 -0.1250143 0.07295541 -0.007541261 0.027587365 -0.08496579 0.02025129
0.034342736 0.041785315 0.1121802 -0.052598793 -0.006240345 -0.027642876 0.0435045 0.016906578
-0.1077199 0.11251932 0.078289926 -0.10101715 -0.090841085 -0.10662185 0.08566914 -0.096721396
0.08182218 0.021968873 0.09461427 -0.012909766 0.099517435 0.037185233 -0.060441326 -0.10273208
-0.054028366 0.10610787 0.1014806 -0.069389075 -0.027071971 0.082838126 -0.01682871 -0.105430774
-0.065677844 -0.08032364 -0.11373168 -0.051677506 0.005548551 0.024642745 0.05621259 0.027322967
-0.014149466 0.11786178 0.084689386 0.009679201 0.09484012 0.018659009 -0.09016559 0.025208876
-0.055835642 -0.067280434 0.042023707 -0.07060506 0.049658578 0.111002885 -0.08586554 -0.059558168
-0.09922574 -0.09250061 0.08197949 -0.035641108 -0.06393361 -0.10319535 0.045642518 0.011328407
0.010471521 -0.04393077 0.015566856 0.048154 -0.039690427 0.009618884 0.11611815 -0.077040926
-0.101843685 -0.08607787 -0.046401568 -0.02772481 0.1003332 -0.090296954 0.119082615 -0.032761417
0.0034350096 0.051791344 -0.11554575 0.022533525 0.03185291 -0.051501784 0.06429261 -0.06452554
0.113095656 -0.03173451 -0.10898202 0.05343716 0.07661699 -0.075292245 0.08345501 -0.028712748
0.1154776 -0.10435495 -0.039209418 0.005147766 0.008169473 0.055834062 -0.11685077 -0.07820294
0.027222501 0.034937616 -0.016660899 0.06462607 0.04964754 0.010804475 0.030437749 -0.12613854
0.027674802 -0.08769975 -0.122627296 -0.08401768 -0.09555984 -0.113811955 -0.0029982193 0.11086726
-0.13394593 -0.097035445 -0.008054169 0.019022489 -0.023815442 0.1291429 -0.0830199 -0.108605094
0.07101238 0.06427296 0.0912963 0.002552113 0.0436368 -0.06464067 0.06373229 0.010119077
0.03540045 -0.11060033 0.052592445 -0.08682399 -0.123587236 0.032197166 -0.041443776 0.09577553
0.06925569 -0.018006599 0.022983983 0.11359801 0.098922946 0.08140994 0.052325793 -0.021455726
-0.04490203 -0.0754045 0.02252752 -0.12029691 0.12924294 -0.095079646 0.031748317 0.102608405
0.10070927 -0.103996426 0.047872048 0.13022882 -0.05338078 0.0409211 0.109829836 -0.028907554
0.08030939 0.08621654 0.036809742 -0.034958847 -0.026236089 -0.0005534516 -0.08468043 0.118534274
0.038532436 0.001988094 0.044435542 0.08910101 0.041329395 0.07506075 -0.047575947 0.04764604
0.08095873 0.108273596 -0.09657651 -0.07917706 -0.044047 0.027829628 0.10337636 0.087297045
0.019125452 -0.09951516 0.037488595 -0.060479913 0.090372406 -0.018803105 -0.018973297 -0.0431073
0.008646885 -0.025441067 -0.092666626 -0.05146548 0.049715154 -0.039426118 0.09370386 -0.12151273
0.10141602 0.07911627 -0.095879145 -0.06959778 0.03222244 0.061588675 0.04860547 -0.10807812
0.08613391 0.08516342 -0.025446104 0.04271808 -0.11389923 0.078976616 -0.045136448 0.09372881
-0.10362323 -0.054753605 -0.12014857 -0.108560555 0.11507251 -0.045180377 0.05521616 -0.06983925
00000000: f14a 78bc 0a65 5dbd 387b 5e3c 3156 ef3d
00000010: bd01 fcbd 243b 6dbc 5d73 823c 4568 d9bd
00000020: 15ee bf3c 6502 f3bd 456b 7bbd 748b d83d
00000030: 6a1e d6bc b85e 233d d99a 3dbd fd46 c3bc
00000040: 4ccc b6bd fba9 cdbd c003 00be a569 953d
00000050: af1c f7bb e6fe e13c 8b02 aebd 09e6 a53c
00000060: f8aa 0c3d 1427 2b3d bcbe e53d d571 57bd
00000070: cf7b ccbb 5073 e2bc c631 323d aa7f 8a3c
00000080: 409c dcbd 8770 e63d 7856 a03d 14e2 cebd
00000090: e40a babd 8e5c dabd 4d73 af3d de15 c6bd
000000a0: 6392 a73d 11f8 b33c 20c5 c13d 7c83 53bc
000000b0: cccf cb3d 8b4f 183d 5391 77bd 3265 d2bd
000000c0: d94c 5dbd 154f d93d 10d5 cf3d dc1b 8ebd
000000d0: 0ac6 ddbc 09a7 a93d 5ddc 89bc 17ec d7bd
000000e0: 1b82 86bd b880 a4bd 28ec e8bd cbab 53bd
000000f0: 9fd0 b53b 95df c93c 2c3f 663d 6ad4 df3c
00000100: 29d3 67bc 8461 f13d a171 ad3d 8395 1e3c
00000110: 893b c23d c7da 983c bda8 b8bd d882 ce3c
00000120: eab3 64bd 53ca 89bd 0d21 2c3d 6399 90bd
00000130: cb66 4b3d 7b55 e33d 46da afbd 44f3 73bd
00000140: dd36 cbbd f670 bdbd dde4 a73d 69fc 11bd
00000150: a0ef 82bd 1558 d3bd a6f3 3a3d c89a 393c
00000160: be90 2b3c c0f0 33bd 200c 7f3c 213d 453d
00000170: 6e92 22bd 8698 1d3c 5acf ed3d a2c7 9dbd
00000180: 6c93 d0bd 9849 b0bd 920f 3ebd 241f e3bc
00000190: 7e7b cd3d 9ced b8bd 96e1 f33d d630 06bd
000001a0: e61d 613b 2923 543d 40a3 ecbd 3a98 b83c
000001b0: 3278 023d 89f3 52bd d8ab 833d f725 84bd
000001c0: b29e e73d 0cfc 01bd f731 dfbd ece0 5a3d
000001d0: 5ee9 9c3d d232 9abd 76ea aa3d ff36 ebbc
000001e0: 857f ec3d 0cb8 d5bd 0e9a 20bd 97ae a83b
000001f0: 41d9 053c 42b2 643d 754f efbd dd28 a0bd
00000200: b901 df3c bf1a 0f3d 707c 88bc ac5a 843d
00000210: 385b 4b3d 4105 313c 9658 f93c 762a 01be
00000220: 44b6 e23c ed9b b3bd 0524 fbbd 7611 acbd
00000230: e1b4 c3bd 3e16 e9bd c67d 44bb 600e e33d
00000240: 1f29 09be 85ba c6bd a2f5 03bc 0dd5 9b3c
00000250: 9a18 c3bc 093e 043e 5606 aabd 596c debd
00000260: f06e 913d 8ba1 833d 8ef9 ba3d 5a41 273b
00000270: 80bc 323d 5462 84bd 1386 823d 7cca 253c
00000280: 1000 113d 6d82 e2bd 2d6b 573d c7d0 b1bd
00000290: 4e1b fdbd 2de1 033d f3c0 29bd f625 c43d
000002a0: edd5 8d3d 9382 93bc e848 bc3c 13a6 e83d
000002b0: 1d98 ca3d 41ba a63d 9253 563d ebc3 afbc
000002c0: 31eb 37bd ad6d 9abd a28b b83c 3a5e f6bd
000002d0: 4358 043e 1eb9 c2bd 860a 023d 5b24 d23d
000002e0: a940 ce3d 14fc d4bd 7b15 443d b45a 053e
000002f0: cea5 5abd e29c 273d 77ee e03d 89cf ecbc
00000300: 4079 a43d 4c92 b03d d0c5 163d 0231 0fbd
00000310: 11ed d6bc 8215 11ba ef6c adbd 19c2 f23d
00000320: 30d4 1d3d af4a 023b 0b02 363d 977a b63d
00000330: 0349 293d 73b9 993d ffde 42bd 7e28 433d
00000340: b1cd a53d 8cbe dd3d e8c9 c5bd 9527 a2bd
00000350: a16a 34bd f6fa e33c fcb6 d33d cbc8 b23d
00000360: fbac 9c3c 9bce cbbd a48d 193d c9b9 77bd
00000370: 2b15 b93d f808 9abc e36d 9bbc 4891 30bd
00000380: aaab 0d3c c969 d0bc 00c8 bdbd 78cd 52bd
00000390: 1ea2 4b3d 487d 21bd cfe7 bf3d abdb f8bd
000003a0: 34b3 cf3d b607 a23d 495c c4bd 4889 8ebd
000003b0: adfb 033d 6844 7c3d 8816 473d 1058 ddbd
000003c0: fa66 b03d 296a ae3d 5974 d0bc 27f9 2e3d
000003d0: 0044 e9bd 7ebe a13d ffe0 38bd e4f4 bf3d
000003e0: 6a38 d4bd 5145 60bd 7410 f6bd ff54 debd
000003f0: 23ab eb3d 0f0f 39bd 572a 623d e107 8fbd

model.2.bias f4 [32]
0.10195776 -0.10323883 0.08311502 -0.09651054 0.048610825 -0.11704433 0.09655048 -0.03307201
0.04010267 -0.06346386 0.07641611 0.06513531 -0.07172303 0.06393877 0.12147269 0.049575437
-0.07780455 -0.025343116 -0.10000871 -0.013094753 -0.059197184 -0.061599694 0.030065473 0.0426591
0.116749585 -0.10664802 -0.06402425 -0.08257421 -0.09887269 0.12161712 -0.061249163 -0.04834345
00000000: 3bcf d03d e16e d3bd 3538 aa3d 51a7 c5bd
00000010: 251c 473d f0b4 efbd 42bc c53d 8476 07bd
00000020: b342 243d 57f9 81bd 0d80 9c3d a965 853d
00000030: 86e3 92bd 54f2 823d acc6 f83d 9d0f 4b3d
00000040: fe57 9fbd 5e9c cfbc 5ed1 ccbd 608b 56bc
00000050: bf78 72bd f64f 7cbd de4b f63c 4fbb 2e3d
00000060: 681a ef3d 476a dabd 251f 83bd ab1c a9bd
00000070: c47d cabd 6612 f93d 67e0 7abd c803 46bd

model.4.weight f4 [3, 32]
-0.062073547 0.1509411 -0.036908273 -0.043816473 0.16380243 0.13189909 0.042676717 -0.0018039453
-0.004583715 0.117762566 -0.11861512 0.07496147 0.09896089 0.1212804 0.0863672 -0.047986366
-0.017725093 -0.01871036 0.058186635 -0.066682205 0.16797669 -0.0207731 0.16711007 -0.08063574
0.08400678 -0.14804022 0.13090557 0.12051574 -0.04193167 0.08134969 -0.15653096 -0.037620157
0.040446486 -0.14886244 0.16760734 0.03296913 -0.1307785 0.12709807 0.051223647 -0.16020708
0.12674968 0.14595594 -0.12519611 -0.017680947 -0.13835862 -0.17992455 0.15914269 0.11946196
-0.17128958 0.057628505 -0.14165327 0.11772908 0.124018684 -0.11979164 -0.010037398 0.017548747
0.12501936 0.010209919 -0.032392506 0.15033263 0.030857863 0.12804745 -0.16102156 0.037652962
-0.0058665937 0.15007655 -0.09849946 0.061358448 -0.014613113 -0.103230834 0.03517071 -0.081255
-0.15603209 0.07176381 -0.07878196 0.06304887 -0.13483097 -0.08858827 0.05888985 0.030936264
0.03570772 0.061603565 0.06266905 0.17590122 0.17194657 -0.09026435 -0.14938419 -0.02589314
0.05566638 0.007822302 -0.116634935 0.060120348 0.12776752 -0.109352015 0.010888296 0.0141021395
00000000: d540 7ebd 4e90 1a3e 212d 17bd e778 33bd
00000010: d3bb 273e 8e10 073e c8cd 2e3d 5c72 ecba
00000020: fd32 96bb 802d f13d 7cec f2bd 6685 993d
00000030: 02ac ca3d dc61 f83d 49e1 b03d 5a8d 44bd
00000040: 3734 91bc 7846 99bc 1c55 6e3d ae90 88bd
00000050: 1502 2c3e 592c aabc e71e 2b3e 5a24 a5bd
00000060: bf0b ac3d db97 17be 1c0c 063e f5d0 f63d
00000070: 8bc0 2bbd ab9a a63d a749 20be 9817 1abd
00000080: 37ab 253d 656f 18be 42a1 2b3e a30a 073d
00000090: cdea 05be ff25 023e e3cf 513d 530d 24be
000000a0: abca 013e 7975 153e 6933 00be a2d7 90bc
000000b0: e2ad 0dbe 243e 38be 4df6 223e 79a8 f43d
000000c0: 8966 2fbe de0b 6c3d 8e0d 11be f21b f13d
000000d0: 82fd fd3d 5255 f5bd e673 24bc 64c2 8f3c
000000e0: 1305 003e 8147 273c 01ae 04bd ccf0 193e
000000f0: a1c9 fc3c df1e 033e d6e2 24be fe39 1a3d
00000100: 8e3c c0bb abad 193e 16ba c9bd ff52 7b3d
00000110: d76b 6fbc b06a d3bd 2a0f 103d 0569 a6bd
00000120: e0c6 1fbe e8f8 923d 7058 a1bd c41f 813d
00000130: 2111 0abe c46d b5bd 7c36 713d 0c6e fd3c
00000140: 4242 123d 0554 7c3d a258 803d 731f 343e
00000150: c312 303e 84dc b8bd 2bf8 18be da1d d4bc
00000160: 6e02 643d 1d29 003c 4cde eebd c140 763d
00000170: 7dd5 023e f3f3 dfbd d364 323c a90c 673c

model.4.bias f4 [3]
0.12475201 0.18466747 -0.02539962
00000000: fb7d ff3d 7819 3d3e dd12 d0bc
