code/results/RRL_model_returns_f__pot.npy (npy, 22648 bytes, 1 tensors)

array f8 [2815]
00000000: 0000 0000 0000 0000 a75d 6a21 7272 b5c0
00000010: 6c3e 12a5 90a2 b1c0 f084 9e7c 7b71 90c0
00000020: 1a32 f957 2519 9140 0ad1 e7a7 ffdf 8a40
00000030: 24f5 a643 9e00 65c0 a43c f51b bf0b a740
00000040: 1b26 204a 16ca a140 3225 20b5 21c6 7e40
00000050: c8bc 877f d263 9740 5c3a b93a d4ca 9540
00000060: 4f5a 6199 2604 8b40 94b0 dcb0 7753 9bc0
00000070: 9ffe cd54 fdb5 a740 082d 9da3 b437 97c0
00000080: 2e9d 0334 2fe3 8940 1f48 e39d 3c69 89c0
00000090: b9f7 59e0 e23c 82c0 a024 e002 3455 97c0
000000a0: 9937 a770 acff aac0 b0f4 8657 1002 c340
000000b0: 484e 525e ea36 97c0 58f8 a5af e17a 38c0
000000c0: f851 d82e b908 b240 a64a 24b3 bf4d b0c0
000000d0: 0ec9 8aba 540c 7840 6684 9c0e 1e44 a640
000000e0: f2a1 8191 6378 b640 b61a a2ad fa0a 89c0
000000f0: a40e a70c 45d9 6240 41e9 d07c a578 80c0
00000100: 526f c0fd c1ed afc0 73c7 474a c2b8 b740
00000110: 7d0f 0016 6eda b9c0 c93a 70c8 ea81 7740
00000120: 16f2 b15a 3f71 b1c0 0924 0c30 6014 a040
00000130: 15de 7a36 13e3 9440 869c cafb 7c78 99c0
00000140: 99de 024d ca55 9740 f6d8 61e2 8645 82c0
00000150: 15f1 b3cf dfb3 a940 2f6a e492 54c8 8240
00000160: b3c9 69b0 122c a6c0 626f 326d 27bc d1c0
00000170: 938d 4895 4f80 b2c0 0da9 fce9 53ab 9b40
00000180: d13b 7b84 9c34 8840 8232 bb0b 44ed aec0
00000190: cfa4 7d6b 315a a5c0 5572 67bd 4bd1 a040
000001a0: 89e0 7e3d e244 6940 b81f b8aa 7fab 80c0
000001b0: 35bd b57d 7ad3 7040 cb28 b975 6499 be40
000001c0: 2c1b 3111 5389 ab40 bf81 cc71 32bf b3c0
000001d0: b620 36b9 28ba c340 04bc 2b0b 16ed a640
000001e0: 4d3f 805a 10d1 8bc0 198a b264 8580 8540
000001f0: 1138 f113 6484 a6c0 8ca3 fab4 5ccb 9540
00000200: ea9e 5d90 3aca b0c0 f342 9afb 30a0 af40
00000210: 11c1 1e4b 1558 9040 e32b c66b c325 a5c0
00000220: c899 764c 0aa1 a6c0 649e 22f9 405a c240
00000230: 2b57 ab2a bf80 b840 9123 14e6 d628 9640
00000240: cfac f88a 3413 97c0 d701 0995 246a c2c0
00000250: d3c6 ca4c 6e41 b340 8728 6cd6 d680 c240
00000260: 4e14 95ea 20cc 0ec0 ebcd 22b2 32df 61c0
00000270: 1518 cc5e e42e 61c0 4199 3e1a 1155 51c0
00000280: fc39 a399 2b9a 52c0 86e1 97da 7ea4 c4bf
00000290: fff6 c3b0 779e 6bc0 67e1 c6f5 e173 00c0
000002a0: b56e 3be5 efe1 67c0 ff2b ae2f bfaa 7340
000002b0: a903 c415 466e 92c0 c5df 1ebb 000e cbc0
000002c0: ecf0 f330 f80d 32c0 b2cb d454 2db6 32c0
000002d0: 31fa ce25 7559 34c0 e7ea 3db7 d7a6 1ac0
000002e0: 041b 4baf e8ce ae40 b709 c39c 9314 c6c0
000002f0: 5292 6169 c65b af40 2915 01ac d00c 9b40
00000300: 8220 af96 0313 d2c0 be60 3f21 a12f 8440
00000310: e090 4794 e478 73c0 604f 6f3e de38 9c40
00000320: 7869 d215 0b4d cd40 2e09 5937 11e2 c240
00000330: 30ce 6d8a a58d e1c0 1b48 e8a4 3d84 d0c0
00000340: 459b 6610 3508 a4c0 71b5 c449 2f1d 9140
00000350: a918 6da5 c565 c3c0 fc3d 417a 3c96 94c0
00000360: b279 9e75 2b88 75c0 c702 ffc1 46f4 a5c0
00000370: 62f0 4cc4 b71e 67c0 d5fa b616 ef89 8dc0
00000380: 2b2e 4685 1824 b5bf 33fb 1222 bfc0 8340
00000390: 7ad7 b338 3125 98c0 f872 146b 77f3 60c0
000003a0: 5af0 4370 0e4f c1c0 b93e 3920 4535 c9bf
000003b0: 230d 57a2 bdad ab40 2034 2540 a497 79c0
000003c0: f586 a4ff 8b34 9e40 2a1a a934 df7b a1c0
000003d0: 69d1 8fc9 9db4 c7bf c64c 3897 99a2 54c0
000003e0: f4a9 e186 a783 5140 d5f3 732a 6dec 5240
000003f0: ce46 c8a7 228c 7940 cb4f bf96 b1b0 8640
00000400: e18b 09f6 283a 89c0 c6d2 9ec5 f5a0 6ec0
00000410: defd 2586 1e0f 9e40 3add 37c3 be4f a0c0
00000420: f3f2 11af 6beb 8640 a014 38af 2f53 64c0
00000430: 1080 3e81 bc79 bbbf 5d39 8f62 ac1f a040
00000440: 229f d251 b856 6340 25cd eef5 281c 7dc0
00000450: 4b6e 97f5 281c 7d40 30b4 2fcb 2796 41c0
00000460: f85c e4a4 a995 41c0 9dd9 dccb de89 6fbf
00000470: 23ff c7f5 1c4e 75bf 291a 5034 1e57 92c0
00000480: 2bd7 0039 6edf 56bf c8a9 fccc c600 89c0
00000490: e952 b778 9458 9640 50ba 84cd cc64 6dc0
000004a0: 2f2c 7d75 c064 6d40 8716 5d28 7ad6 93c0
000004b0: 0198 b835 ff02 8940 38dc 9274 3080 9340
000004c0: ec45 0a12 1c75 8540 1c80 a4ec 36de 5240
000004d0: 38a0 374a 2303 83c0 2eba fb41 3bab 8040
000004e0: aa66 158f 32ce 8240 d5d0 ea7a b063 8dc0
000004f0: 5af5 df84 ad22 3dc0 6a54 8069 fe37 82c0
00000500: 0c0c 5ec3 078c b1c0 6d6d 425d 1cfd a6c0
00000510: cedf d766 7a60 6fc0 6b0f b1cf 6b33 78c0
00000520: 96f3 9140 ce86 9ac0 010f 101c b014 a140
00000530: 13c8 415d b7b2 86c0 fbad ce0c 35c0 9d40
00000540: e96e 7464 92ee 9940 10a2 4ef8 bfaa abc0
00000550: 0400 bf8e ba9e 52c0 29b0 95d8 aeb8 7dc0
00000560: 3542 343f 034b 8940 0ddb dd39 1927 88c0
00000570: 9c26 1cab d688 9540 25d8 df6a d260 91c0
00000580: ca5b 4f7f ccba 8940 1491 96ca 9440 9740
00000590: 9274 478c 730f a2c0 a9d6 c73d 19e1 a240
000005a0: ec4b 6b4d f3ef ad40 addc c0e5 647d 6c40
000005b0: 17f8 0074 ba92 9840 4e30 940b b8b2 a2c0
000005c0: 1756 03f7 f9b6 a640 5d1e 8d65 4017 b5c0
000005d0: 4a73 c768 4da9 a340 5b8d b487 1c5b b740
000005e0: 4668 e4a8 7c45 b1c0 abc8 acb9 3fd6 a940
000005f0: ce49 3b81 083f b2c0 6872 7d9c 7827 a740
00000600: f114 0cc7 c5cb 9040 d378 6588 2866 97c0
00000610: a79d 74da 7591 7d40 8c1f 2c30 ab3c 59c0
00000620: 37b6 a8e6 f526 a040 85a5 1737 15a4 84c0
00000630: bf43 d423 f087 9440 3245 3827 6715 b740
00000640: e83a 56e0 f52e bd40 4fe2 b825 ba45 bb40
00000650: ca5f dac3 468e c7c0 28e9 db96 6214 9ac0
00000660: 1f17 70c4 8d19 83c0 c039 818f fc71 9dc0
00000670: aabe 6de3 da66 61c0 d8eb c028 5f8e a940
00000680: 14f2 13e1 a3ef 36c0 a49a 68d1 b507 9ac0
00000690: 1ed7 7b4d b454 71c0 2f26 e208 4709 a0c0
000006a0: 25cf fe78 59e6 0ac0 403e 334a afc3 ba40
000006b0: 400a 440a c087 89c0 ac67 43d8 2526 8340
000006c0: 5ca7 ca78 4290 89c0 fe9e 97d3 e386 9540
000006d0: 6d9f fc59 0787 79c0 a06e fb58 6139 8f40
000006e0: 959f 3fcc a4d9 69c0 1867 d537 1b8c cdbf
000006f0: bfaf cd88 5757 abc0 01a2 241f b468 8940
00000700: 046f b1e8 3b79 ac40 2681 bf1f 8942 99c0
00000710: 54c8 d35f 4e56 b040 5391 749a d306 b2c0
00000720: 5768 d865 07bb c440 0365 d144 b310 7740
00000730: 4776 62cc 2825 8140 e4ff d881 5615 8dc0
00000740: aa8c e217 7991 af40 d3d0 8ae9 8297 76c0
00000750: f107 f1d6 b8e5 8040 7146 9f62 7415 a4c0
00000760: 7129 e20f 194d b6c0 854d b698 cf2e be40
00000770: f748 9894 56e0 9ec0 4c58 2ead ccf7 8c40
00000780: 7631 6198 bcd6 a640 65f7 da9b 5c1a 6640
00000790: 9442 2bba 7e35 b6c0 60b8 dc6f 78f4 bb40
000007a0: f9ce 9c49 2f43 a9c0 5454 4fba ecaf 9fc0
000007b0: 5eea 0ba1 4f45 a840 6d5f 7060 8af7 98c0
000007c0: 5ee1 117e 01b4 abc0 ec49 daa8 d572 b840
000007d0: d108 31bd 17e8 6540 c721 d79e 2589 b1c0
000007e0: 7e08 8c5f 5e00 aac0 4da3 6654 79bc b040
000007f0: ba2c f235 0667 adc0 9b7d d744 6408 ca40
0.0 -5490.4458223799365 -4514.565018787613 -1052.3705925720824 1094.2864684044675 859.9998319731396 -168.01931936844733 2949.873260177281
2277.0435342833057 492.3832293754268 1496.955564614198 1394.7072552625532 864.5188472371755 -1748.8668856127524 3034.9947876332585 -1485.9264053877578
828.3980484278052 -813.1545980221161 -583.6107794789051 -1493.3007922193865 -3455.8367969756478 9732.127671117283 -1485.7288754329948 -24.48000619699482
4616.723371047985 -4173.74882723639 384.77068571293864 2850.058705226099 5752.388939001119 -801.3724014915849 150.78967888477666 -527.0808044739898
-4086.8788890968217 6072.758945928758 -6618.4300231969655 376.11982005920123 -4465.247477647403 2058.1878665727604 1336.7687625120209 -1630.122054258159
1493.4475593994487 -584.6908614773117 3289.9371315223493 601.0412957997231 -2838.0365021761622 -18160.616039856694 -4736.310871634068 1770.8319472768956
774.5764245631818 -3958.632902002254 -2733.0965232146914 2152.6479294135156 202.15261721401865 -533.4373373398475 269.2174050425704 7833.392421314677
3524.662240538184 -5055.1970489327205 10100.318152204487 2934.5430539767276 -890.1329851168936 688.0651334713358 -2882.195464647383 1394.8405341303178
-4298.228765345857 4048.095669575379 1046.0207943730677 -2706.8816816261838 -2896.520114618561 9396.507603003825 6272.74674483183 1418.2098620554646
-1476.8013113837694 -9428.285798192881 4929.430859254399 9473.678418655194 -3.849672157930889 -142.97493845746735 -137.4653772340977 -69.32916885483884
-74.40891114177788 -0.16127000497341387 -220.95211065554028 -2.0565833283728128 -191.0605341110983 314.6716763309086 -1179.5684424044832 -13852.005710467589
-18.054568347507413 -18.71162920184333 -20.34944378188283 -6.662932265428686 3943.454462382362 -11305.153221492523 4013.887522744285 1731.2037811440625
-18508.056072026964 645.953676695957 -311.55580547290265 1806.2170350448796 15002.086603452204 9668.134501580698 -35949.17314806243 -16912.96319014589
-2564.103640753225 1095.2961798415893 -9931.544110905686 -1317.5590601152498 -344.5106102171368 -2810.13819882306 -184.95993247058055 -945.2417425437258
-0.08258202794802887 632.0933267100248 -1545.2980678653971 -135.60832742685284 -8862.112801067695 -0.19693817208689327 3542.8703791812454 -409.4776002362505
1933.1367173869487 -2237.935948643154 -0.18519947378048165 -82.54062443254506 70.05710002934921 75.69416295360072 408.75846079094924 726.0867133089281
-807.2700005288899 -245.03000145931418 1923.7798086105536 -2087.8725831468155 733.4275800134914 -162.59957085564838 -0.10732629924177695 2063.836689449074
154.70999995362314 -465.76000016481186 465.75999983933133 -35.17308940724649 -35.169239627366494 -0.003849921368693289 -0.0052014476063957675 -1173.7794964328734
-0.0013960434334995924 -800.0970706691087 1430.1449917454104 -235.1500003425922 235.14849352309963 -1269.6192946000099 800.3746141835583 1248.0473196932708
686.6387062838162 75.47210231842513 -608.3922314019937 533.4039344469254 601.7746869728046 -940.4611719460469 -29.135460190465302 -582.9992246652375
-4492.030324819509 -2942.5553990133835 -251.01494161761224 -387.21382111705924 -1697.701418190472 2186.3439641016307 -726.3395333422835 1904.0518066686334
1659.642961329717 -3541.3749413082915 -74.4801365723834 -475.54268702003407 809.3765853960709 -772.8873174030756 1378.2096371077123 -1112.2054858184504
823.3498521995436 1488.1453040624665 -2311.72567961977 2416.5492994737183 3831.975200036066 227.91856658619272 1572.6820831443235 -2393.359463339707
2907.4882126848784 -5399.25154954902 2516.651190026115 5979.111445698271 -4421.4869520907 3307.1244634623486 -4671.033221917647 2963.735568924156
1074.9431421172887 -1497.5395828108783 473.0912727885538 -100.9479484969035 2067.480275413745 -660.5103589866054 1313.9845116773938 5909.402942196744
7470.960454358465 6981.7271380951415 -12060.552851959965 -1669.0962786065156 -611.19422233172 -1884.4966411773203 -139.2142197745755 3271.185857800283
-22.936094348306213 -1665.9275566429505 -277.29401920676344 -2052.6387396499263 -3.3624753430139145 6851.684725954721 -816.9687695804241 612.7684788957608
-818.032456954224 1377.722486847953 -408.43929480248227 999.172533001245 -206.80136692453803 -0.23083820558786594 -3499.670965602592 813.0879500257435
3644.6170096824662 -1616.6339101717545 4182.3061497081835 -4614.82657555149 10614.057795573184 369.0437668017841 548.6449210827203 -930.6672398522464
4040.7365103527745 -361.4694610044946 540.7152537184285 -2570.727314927434 -5709.0978986121345 7726.810923952032 -1976.084551219419 926.97493969161
2923.368350064552 176.8238047863662 -5685.495028213267 7156.470456881536 -3233.592358494058 -2027.9811794657917 3106.655525562629 -1597.885133510422
-3546.0029149615866 6258.834607737586 175.25289783074416 -4489.146954961535 -3328.184322715794 4284.473944105976 -3763.512130325279 13328.7833508838
