code/results/RRL_model_returns_f__btc.npy (npy, 22544 bytes, 1 tensors)

array f8 [2802]
00000000: 0000 0000 0000 0000 d405 66a5 9721 3640
00000010: aca0 e348 8dd7 1dc0 e571 e57d 3a78 fbbf
00000020: 62f9 c433 7648 25c0 7afe bcd5 68e4 fbbf
00000030: 96a0 c778 f69f 31c0 e2d2 c58d c8d6 4140
00000040: 0e7b db6a 6a35 1640 2b95 8cae e972 53c0
00000050: 0caf bda2 5da7 08c0 8222 ce27 b64d 3e40
00000060: 8a81 ab15 e67b 1440 c2db 12cb 7240 0840
00000070: 23b0 78e8 8bdf 3240 1983 26cf 9732 26c0
00000080: 6c5e 77ea 9cb8 41c0 6f50 e8db 8b12 2e40
00000090: de15 ed34 7611 2ec0 fdff bda5 f0a7 1f40
000000a0: d6b6 a442 c299 3240 bc88 ee09 1c05 4240
000000b0: e454 f373 290c fe3f 12e0 3933 fab7 5340
000000c0: b452 2e54 0a9f 3cc0 8ebb 21be 9519 0b40
000000d0: fe04 2302 e2f5 41c0 b464 0b9e 6031 02c0
000000e0: 84fe cdf8 7444 4d40 d796 27da eccf 4640
000000f0: 65dc d647 2763 1440 07f6 8241 f8ff 2740
00000100: fa38 2c4d fc7f 4840 b052 181a e6bf 5dc0
00000110: 2f06 d1f0 91ac 1240 7e4c b097 9144 4ec0
00000120: 050f 0994 3230 3140 93e5 0328 d245 4540
00000130: f463 bd4f 9742 35c0 03e0 802d 1a59 5340
00000140: 9509 241f f7a8 35c0 c8c1 e0e7 9d9f 3040
00000150: d02d 1bae ed7c 27c0 a39e 891f 40a0 42c0
00000160: f5ec 5bf7 2504 3c40 6780 49fa 7219 46c0
00000170: 2329 425c fddf 60c0 276a 6738 44fa ff3f
00000180: c341 125c 6e6d 3fc0 ac9e 15bd 9b64 3a40
00000190: 87cd be98 0900 08c0 d4cb 49ee c6ff 32c0
000001a0: 29ba 066b f7ff 2f40 7b6c 4e37 b97e 4440
000001b0: f931 ea16 de75 48c0 d19a 9a00 d99e 40c0
000001c0: ee54 a2fb de0e 3e40 ba35 b8fb c87f 17c0
000001d0: 0855 9389 17b1 44c0 1c7f 07a0 2f3a 33c0
000001e0: 28ce bb30 5496 1240 3f78 c581 1f74 34c0
000001f0: 0354 56bf 178a 58c0 684a 1976 c4d2 3bc0
00000200: 4a20 c5ea d046 1040 3597 11cf db53 50c0
00000210: fb42 771b 1b32 1ec0 aa4c 1d08 7894 4640
00000220: 38b2 8bcc 313c 1fc0 c344 f99f 1431 0340
00000230: 31f6 e7d2 ef42 3540 a2bc dcb5 49c8 5040
00000240: 7b55 df90 b7b1 00c0 3682 968c b9b3 43c0
00000250: c2bb 1682 a040 4ec0 a424 6cbb 49ef 33c0
00000260: 0ff9 f2e9 a015 22c0 9bc8 0a40 c625 45c0
00000270: 99a2 1352 e2c6 6540 9917 756a 1636 2cc0
00000280: 6098 19c3 451c 5ac0 a76b 285b 36ff 3ac0
00000290: 9cd5 3a35 c13c c43f 2c52 4c21 cd2b 00c0
000002a0: f12b 26c2 12c8 5c40 561f c435 0632 4e40
000002b0: 82c3 4568 1cbc 1240 aa82 ec46 11e2 44c0
000002c0: 5165 0544 d5aa 16c0 1118 9489 57c9 4a40
000002d0: 8480 737b dd8e ebbe 2bf4 4f6e 9e35 2ec0
000002e0: 9d9f c984 4e96 1440 b801 bc03 cd05 4fc0
000002f0: 661d 5899 fd9a 3d40 4971 68d4 429c 3140
00000300: 9829 2b45 5615 2dc0 c811 fd13 22f1 35c0
00000310: ae23 8e11 d03c 1940 77b9 80ea ef62 3040
00000320: 76a7 ac42 d246 55c0 9bc4 e4d2 1e5c 3040
00000330: 9b74 d69d 55c7 47c0 40c9 8ddc 2ccb d1bf
00000340: a878 aeeb 3892 64c0 945c 6cdc 562a 5340
00000350: b059 1c34 f20e 3dc0 4d82 9569 3af6 2b40
00000360: 8c0b ff18 d4a6 3340 73cc fa7c a87d 0fc0
00000370: 0260 7673 0785 5bc0 1833 6a30 a1e8 4040
00000380: 204f fdb4 00ae 2840 03f6 1974 8e3c 51c0
00000390: 599e 343b 11b9 56c0 ddd0 879a 7aeb 3640
000003a0: 6d43 4520 fe3f 4f40 c6d2 ba11 018e 5b40
000003b0: 18c3 6dce 473c 0640 578c b7ff ff7f 40c0
000003c0: ad56 c4a9 b070 41c0 5527 c625 6631 5140
000003d0: e6dd b1a5 757f 3dc0 4655 f99d 555e 5840
000003e0: 5101 2e51 4f9a 4240 1a49 0f90 7794 45c0
000003f0: f84f 5b76 cccc 3140 d6c4 99e5 337e 4440
00000400: 04bd dc17 a0b3 46c0 509a 14bb 4e28 bc3f
00000410: 62f8 1384 ab67 49c0 700c 694c b81e 3ac0
00000420: 74f4 c22c ae07 4bc0 58c4 81be 2aea 4140
00000430: bc2f 2e95 c93e 0140 5345 15df eb3b 5a40
00000440: c305 842f caa3 31c0 7307 e0ff ffff 4440
00000450: 08fa 53ae 4761 40c0 3d86 253e eee0 5dc0
00000460: f0ce ae48 5458 2140 9806 2151 8f0f 4dc0
00000470: f36c 3ead c749 37c0 a77a 8f9a 2a69 2b40
00000480: e4a6 36e0 4621 6140 b496 3993 0d32 07c0
00000490: aca9 288a cff2 3fc0 aed7 e431 ff80 24c0
000004a0: d43b 9eea b66d 55c0 7a00 2299 87e3 6340
000004b0: b1b3 2858 8aa2 debf 3256 8b61 9989 5440
000004c0: 8fc5 c39c 558f 3b40 5c0e ac54 315b 44c0
000004d0: 2c09 29c6 64b6 4040 00de 6de6 80e7 38c0
000004e0: 1c71 6f30 c0d9 4540 5ffc caac 8590 50c0
000004f0: d43e 9398 e93c 3a40 7248 0742 8b02 50c0
00000500: 9335 1b3f 1261 5d40 96ef d6f7 fd55 4540
00000510: c96b f9d8 f166 3fc0 94f3 91c5 c41b 30c0
00000520: 61d8 a647 5ade 26c0 6379 00be 6571 3c40
00000530: 67e5 9d87 faff 25c0 9786 e772 0600 2ec0
00000540: 7dd0 a07b fbff 1fc0 c6f0 8849 a3fb 3b40
00000550: 7469 9fc4 53ec 3dc0 6094 6d6f 17de 973f
00000560: a866 30a4 f518 3ec0 d64f 02ac 0739 3f40
00000570: 30ef 71df 03e1 22c0 698a 7726 83ff 34c0
00000580: 2f62 18a1 9bfe 59c0 9901 b6cb 4bfd 4640
00000590: a85d 5660 a0ee fdbf 4855 337f a5ba 15c0
000005a0: a6f2 85d3 2fa8 1640 f001 151b 992e f2bf
000005b0: 7c65 ea42 b636 59c0 d105 92ae 4a58 39c0
000005c0: c125 460d 94eb 2d40 9411 aad3 fe2c 39c0
000005d0: f9b5 a2bc 50ba 49c0 4066 c2b7 7846 61c0
000005e0: 357b c1e5 36f5 3940 36e2 0fc7 77e9 15c0
000005f0: 8c7e 2029 fafd 28c0 f891 9ccb 9f9c 0940
00000600: 38ed 54d3 750e e0bf cc0d 1e2f a30e 22c0
00000610: e36a 5cd3 04e9 22c0 2c17 cfa5 9fe0 4640
00000620: 3a1b ac5d 5630 3040 ff9c 94b4 82fd 1fc0
00000630: f67c 6dce c61f 3140 cf20 4547 f290 12c0
00000640: 6dc0 c941 277f 3fc0 db6b 7426 b843 39c0
00000650: 78bf 0d1d 7f91 30c0 7a7e d836 29bc 1ac0
00000660: 5c4e 7174 a708 3840 d870 c895 b77f 4b40
00000670: abde 7d35 ec3f 2140 9721 3f49 4a58 2ac0
00000680: 22b2 4174 d4b1 fbbf e684 25b7 0e05 3f40
00000690: 2b65 a102 a2bb 51c0 0687 c088 ee48 28c0
000006a0: fb46 64b4 4d9e 5140 8f23 c227 96cd 37c0
000006b0: 5929 e13d 8fb8 0c40 b375 431b 4aab 38c0
000006c0: 200a 3ffc 3fbd 5340 9872 2dc7 70d2 2940
000006d0: 1edf 9079 5c42 4b40 c3bf 462f adc7 42c0
000006e0: 442f 975e 4673 44c0 0ca2 9fd3 19d6 1040
000006f0: 4128 771f ccc9 3a40 5ee1 496e 1f37 43c0
00000700: ee44 c3d2 6e31 5640 becd 34b9 f2a5 35c0
00000710: 1cf2 1b20 3eff 2ec0 6d7b cac1 ace4 5640
00000720: aef9 336c 30f6 27c0 f626 f66f 092e 5d40
00000730: ee65 d8d5 b7de 31c0 2213 4142 e5dd 3740
00000740: 978b e5c9 a0f0 20c0 8f26 5c8c 223c 4740
00000750: e540 49d6 cadf 6140 8f92 a6ab 523e 4140
00000760: b8a7 8165 9340 5ec0 7f89 cfee e8d1 30c0
00000770: c90a 5017 8e80 20c0 e285 6ad8 a34a 43c0
00000780: a2df aa7d f1c5 2fc0 a8e2 1220 64ff 42c0
00000790: 5ff1 972a d334 46c0 e754 40b5 b2af 64c0
000007a0: 1a11 91db fd2d 38c0 c494 a449 6589 1f40
000007b0: 98d8 dcbb 638d 14c0 b00b 0168 1f7e 34c0
000007c0: 030d 144b c8b6 3ec0 c1cd c6ed 5e19 56c0
000007d0: 93a0 accb 461c 4040 87dc 3022 024b 1040
000007e0: e807 afe2 683c bebf 7a85 adc1 f143 4940
000007f0: 41ea 467c d5ba 39c0 9936 a6ba d6e4 20c0
0.0 22.13122018566885 -7.460499895947731 -1.7168526571105016 -10.641526811403939 -1.7432640408659652 -17.624854611146098 35.677995416253694
5.5521637627087 -77.79551280716684 -3.0817215646874327 30.30356072218502 5.120994890778443 3.0314689507608543 18.873228578057148 -11.098814462138352
-35.4422886927467 15.036223289593378 -15.034104970875827 7.9140039345948 18.600620427335194 36.03991817614721 1.8779692200962979 78.87464600231058
-28.621251355466214 3.3874926427883514 -35.920959727382055 -2.274110064242075 58.534819698889834 45.62441565449779 5.0968295311823555 11.999940917240577
48.99988712939553 -118.99841930747311 4.668525469549009 -60.53569313152637 17.188271763049688 42.54547596159241 -21.260121330011273 77.3922227629228
-21.660020777033044 16.623503200886063 -11.744000855272049 -37.25195688457213 28.01620431894567 -44.198821340455474 -134.99967778131494 1.9986002162246537
-31.427465204674956 26.393001382616305 -3.0000183041790396 -18.99912919332185 15.999934525080862 40.990027344982956 -48.92084013400376 -33.24099738644657
30.05808994973352 -5.87479012786701 -41.383530804576424 -19.22728920157452 4.646805535757757 -20.453605757437114 -98.15769942694173 -27.82331026189277
4.06915633037722 -65.3102910682472 -7.548931531099465 45.159913076692945 -7.808783718134286 2.3989651201196422 21.26147192156913 67.12949892574628
-2.086775905433283 -39.40410001133971 -60.50489832029372 -19.93471881284917 -9.042243300351883 -42.29511261488479 174.21512702784528 -14.105639769357184
-104.44175794124158 -26.996923158043185 0.1581040868674507 -2.0213873483101192 115.12614492156696 60.39081451488771 4.683702115304984 -41.766152253612134
-5.666829169110614 53.57298392993119 -1.3140710378001465e-05 -15.104724356899245 5.146783900076028 -62.04531904869094 29.605432113659297 17.610394740580237
-14.541673814314706 -21.9419262402387 6.309387468624591 16.386473328043817 -85.10658327923542 16.359845333911476 -47.557300309862704 -0.27802583254301183
-164.56944831921032 76.66155157644454 -29.05838323299548 13.9809144015318 19.65167385317504 -3.9363565219915073 -110.07857977447568 33.81741910157706
12.339849143907088 -68.94619467292073 -90.89167671335726 22.919839533003017 62.49994281179429 110.21881526226488 2.7794338347670298 -32.999999966262
-34.88039133154721 68.77185959196989 -29.49788890449954 97.47397565220771 37.20554556604714 -43.15989876505246 17.799994847577153 40.9859587670159
-45.40332315710296 0.10999004428286097 -50.809921750784966 -26.119999671599032 -54.06000289458544 35.82942944847372 2.1556579260559072 104.93627144887186
-17.639803857547815 41.99999998511239 -32.76000002956795 -119.5145411840867 8.672518035258207 -58.121561185003145 -23.288203075161572 13.705403165831127
137.03990183519556 -2.8994399549436256 -31.948479304244458 -10.251946982560039 -85.71428933575163 159.1103025116061 -0.4786706791808753 82.14998663527584
27.55990009097655 -40.71244295502831 33.42495038036063 -24.904310609648746 43.701177648940046 -66.25815887282214 26.237939392040815 -64.03974962912778
117.5167386785236 42.671812992047464 -31.402127800840194 -16.108471248753247 -11.434282530896043 28.44295871268822 -10.99995826532786 -15.000049200785083
-7.999982768717129 27.982960315640206 -29.923153199118545 0.023308149505642084 -30.097498189751292 31.22277331406061 -9.439482672365187 -20.99809494417642
-103.97824885731892 45.978875602598414 -1.870758415525282 -5.432271945484281 5.664244942713287 -1.1363764818089486 -100.8548743523624 -25.34488955559738
14.960113920987057 -25.17576334859912 -51.45558889336457 -138.20223606079708 25.9578689191214 -5.477995977730236 -12.496049199310868 3.2014766604572706
-0.5017651679585589 -9.02858874551648 -9.455114941626965 45.75487206088869 16.188817839162972 -7.997568914003977 17.12412729428339 -4.641549218744514
-31.496692764049318 -25.26452865927045 -16.568345847946574 -6.683750969852207 24.03380515829336 54.99779007231854 8.624849006285634 -13.172441758114287
-1.730915502669753 31.019755789432473 -70.93176332246064 -12.142444871427426 70.47349271576597 -23.803072438142006 3.590116961892971 -24.669099525422734
78.95703035503584 12.911016678140456 54.51844710897261 -37.55997267679734 -40.9005850065428 4.209082895868516 26.788270918456195 -38.43064669234694
88.77238911694778 -21.648234916106723 -15.498520854388566 91.57304425023695 -11.98083818563904 116.71932601011562 -17.869992604571898 23.86677946175326
-8.469976720114387 46.46980432986776 142.99351038272212 34.486897903761125 -121.00899636899601 -16.81996052328895 -8.251084068794983 -38.583125164044546
-15.88660805426463 -37.995243081303954 -44.41269428652844 -165.49056494297767 -24.179654810826015 7.884175444288477 -5.138075766901373 -20.492666721587455
-30.713993732829305 -88.39641899504115 32.22091051034035 4.073250326378122 -0.11810927900572177 50.5308153245232 -25.729820029557462 -8.446950753011423
