code/results/RRL_model_returns_f__xmr.npy (npy, 22600 bytes, 1 tensors)

array f8 [2809]
00000000: 0000 0000 0000 0000 8562 1224 ebf4 90bf
00000010: b373 2d4d 8c77 c13f ca27 047a ae6f cdbf
00000020: 6a1c c322 67ee e83f 9fff 1142 9bdc f8bf
00000030: 893b c3ff 042f f2bf acdd dcdc 77a6 d33f
00000040: 0aff 6432 022a eabf 8a11 e770 3332 f53f
00000050: 4610 a025 4d46 01c0 965f 3e83 ed22 e13f
00000060: 1bc3 6fa1 a12b f93f 86d2 3a89 c86a e7bf
00000070: 13c0 d629 854a eabf 3913 aadb e1b2 edbf
00000080: 2141 ee6f a52d fa3f b3d4 7892 181d cdbf
00000090: 5699 81f2 1296 c4bf 0dc7 9551 dd96 f4bf
000000a0: 0bdd cfd3 8c27 fc3f c4e3 88b8 2245 f5bf
000000b0: 0ee8 4b61 51d1 f2bf 2f60 5a21 e806 e2bf
000000c0: 4db6 e20e 9883 d63f 2652 aa6a dc8c f5bf
000000d0: 36a0 30f0 56dd f93f ce8a 76b1 19b9 f5bf
000000e0: 1c77 ed45 8e41 cc3f 607d 13cf 42e6 983f
000000f0: a02c 21cf 3210 c23f 3fd6 1da3 3466 c3bf
00000100: f8fa a227 19da e6bf c6af a364 9945 e03f
00000110: 3704 9f2a 8f3d ed3f 84bb 3135 81a6 debf
00000120: fae1 9f4c 6680 e0bf 49f3 549d 0950 01c0
00000130: 1969 f043 a0cf ca3f e183 09d5 46fa f2bf
00000140: b315 692a ee52 c83f 706d 77a1 f1cc d93f
00000150: 44a5 9f3d 4fc2 c4bf be2d c0df b48c d13f
00000160: b30e 2294 5a80 e4bf 142c 439d 1b4b ccbf
00000170: 0d96 4557 63e1 f03f d069 fb15 6829 bcbf
00000180: dc2a 1243 4652 c53f a867 9ab3 5510 bc3f
00000190: a8d0 16d4 78f5 c1bf 9ee1 da2d 8b09 eebf
000001a0: b853 80f3 9492 c2bf b651 0926 dff4 d83f
000001b0: e136 fd41 fca5 d0bf 7a0b 82fa 0357 ed3f
000001c0: ac63 49b5 3ec4 d4bf 04cf 0088 c58a d6bf
000001d0: 97b8 4b77 337c d83f 17fe 4576 9575 bcbf
000001e0: 78f4 f4c1 357e debf 8cd3 ae72 b42f b93f
000001f0: f1ed 8cff c1ef e93f f8c4 1c17 8446 cc3f
00000200: aad0 e59a 5af4 e0bf 181e 7edc e40e d53f
00000210: 11ce d690 9dfc ddbf b669 9b38 5fd6 f8bf
00000220: 2742 7f1a 6855 f7bf ebbb cf70 0ef6 f03f
00000230: 53e0 a9e3 65ec f1bf e710 603e 50f6 0040
00000240: f3c0 0449 5096 d93f f40b 7cc6 961d 0240
00000250: 1e2d e553 faab 04c0 fed5 bdde 662f e73f
00000260: 6b84 f4b4 73da fd3f dcf9 4983 662a f7bf
00000270: 2ac6 9a89 5320 f8bf 20e1 8755 a1a6 d33f
00000280: de9a 6f51 55fe cc3f c20e 447a 0f92 833f
00000290: 4eb8 6688 f39c 9e3f 0e22 893c e415 e53f
000002a0: b5ae 4641 b8ab fbbf 570c 92ff 7ed3 0040
000002b0: 2274 75e3 4ffe f1bf 1aab 5a98 d3d3 16c0
000002c0: c878 60b7 2fe1 1040 02ba 1381 3dc1 0ac0
000002d0: 0049 801a 01b2 d43f 551b 548e 1263 09c0
000002e0: 92e0 44b4 d9ab e3bf 7a3a 728d 1fb5 ff3f
000002f0: db7a babe 862b e5bf 26b6 1910 862a c7bf
00000300: fa05 3ddd 083b f9bf 2518 41d1 ccfa f4bf
00000310: 081a 3536 6f66 ea3f 7c31 09e2 d18d f03f
00000320: 343c 1337 f280 f3bf 86ff 38a5 e4a0 cdbf
00000330: f8ff 009e cae0 f13f ef6a 3374 4d9e e2bf
00000340: 8d9a 07bf 5120 dabf 0b5d d735 1435 1a40
00000350: c471 5347 a010 06c0 2c86 21d8 bdce c93f
00000360: 9c75 d3b6 74c4 e33f 7330 d0a5 67e7 9ebf
00000370: 8851 d453 6d3b f63f bbc1 21a4 762a 0840
00000380: 362c 246f 8e83 01c0 b509 ff5e 658e f93f
00000390: fa89 8f3e c1d2 f3bf ab54 9931 83bb febf
000003a0: dd51 abf3 9653 eabf e240 096e ea62 fe3f
000003b0: d36b 8663 3fb0 01c0 7dd8 fa43 60ec f93f
000003c0: e552 07a2 e493 0040 7d36 13b9 12d8 0740
000003d0: b187 c4de c643 d63f 7b05 c4ea 2437 14c0
000003e0: 297a 2a69 1c7e 00c0 421f 4962 3460 efbf
000003f0: 00d0 d09c bf33 0940 59d5 4f92 1566 e2bf
00000400: cf8f adb8 0bde 04c0 6e99 bf99 f5cc d6bf
00000410: fcc0 73f9 d16c e7bf 5c4e f7ff a9bf f13f
00000420: c369 4042 75d8 ebbf 5cf8 293a a067 95bf
00000430: 7d62 c6ce a168 de3f bb3c 65d5 53e0 fcbf
00000440: fc05 c143 3e77 e5bf f228 2238 8dcd e03f
00000450: dc5d 4367 a705 c5bf 74aa 1edc f337 b03f
00000460: e498 5a35 4e52 ccbf ba33 5a93 f752 02c0
00000470: 191d e5c1 b50f e5bf b77d 7892 31ad bb3f
00000480: 825c bad4 561d b2bf f6b8 6c3f dfa9 0bc0
00000490: 7ebc 6e0b 8f45 f33f 64ae 4411 353f f33f
000004a0: e20d 6867 50cc 0140 8eb0 ce4d 24f5 ecbf
000004b0: f5c4 88d2 5147 e1bf 0a06 2744 e401 0ec0
000004c0: 2c58 7013 f3b0 dc3f 856a 3c40 4e65 e4bf
000004d0: 68e7 dae3 aaef 0640 78dc 8084 0ac5 cdbf
000004e0: dd1d 6411 f6b7 02c0 a29b 553d 1e89 f2bf
000004f0: eeb0 12ed a779 f9bf b472 e0b6 3248 b63f
00000500: d144 16b3 f865 f13f 19eb 8e30 6989 fcbf
00000510: 2f6e 23b8 d23f ff3f 7a13 9f65 ccac ef3f
00000520: 7927 14d3 7e66 bfbf e449 3531 b300 e0bf
00000530: 5da1 677f 7c4c e93f 7aa7 9c57 92df e43f
00000540: a3fe 8076 cab1 a8bf d412 4721 878b e8bf
00000550: 1435 5e13 5951 e03f d3fd fbb2 8396 d23f
00000560: 90c2 a429 14fa 4ebf f6d7 77ce 6cf5 eabf
00000570: a1a4 46a1 64db ea3f 5d0d 9ad5 81ae f3bf
00000580: 860f 20f6 bccf f43f 813a 22ef 2730 e7bf
00000590: 65b5 94ee ee8e f1bf bc3e b659 f691 fb3f
000005a0: 7ee2 cbef d8b5 02c0 ecdf 0ff1 d1ae a1bf
000005b0: 88ac 2dd4 dd5b a63f 3504 c0b1 94e4 dabf
000005c0: b11c ffb1 729c f1bf 5354 e29c fa52 e03f
000005d0: 8d33 0335 74b2 be3f 821c dcf4 ef65 a3bf
000005e0: 18df 088f 2d12 0bc0 2a16 95ab 770b f23f
000005f0: 719c 9e26 1486 9c3f d987 fe0d 517f c4bf
00000600: ebd4 8117 7510 ffbf c634 b1ca d360 ed3f
00000610: 5c2e 156c 9ac2 f73f 6d02 2707 1dd3 e03f
00000620: fb69 71c7 ff81 e13f 6b2e 2cd6 9e79 edbf
00000630: 4088 e787 b77a c83f eaab 6ee7 7e08 f5bf
00000640: 130b dbc8 5d26 f73f a4b2 263e 2a49 f33f
00000650: f808 f847 1be3 e0bf 218c f521 c9d5 bb3f
00000660: 38f1 cb28 5e72 bcbf 0cca 4260 d115 d93f
00000670: 5a82 4f3a 92fb d4bf 2651 3817 5abf e0bf
00000680: 01b0 c3dd 77e0 ec3f 5bea b20a 8e4b 03c0
00000690: 8dd1 951d 074c ebbf 6e6b 6609 dd9f 0cc0
000006a0: fad6 c062 d527 0440 4cda 3f36 e7dd d3bf
000006b0: 60d2 9ce4 9b76 ee3f 24be 0cb6 4b9b b6bf
000006c0: a88d 8b6f 2f76 7f3f f9e6 0847 0f2c f9bf
000006d0: 9e12 2c46 0a87 e23f 6299 8cfa 1cdc f13f
000006e0: ee26 d211 fd96 e6bf ac62 0a8b 7f2c d9bf
000006f0: bd3d a5b3 2532 d4bf 4f9a 9b0e a30a e73f
00000700: df62 1c39 c87a ec3f 097e 0e2a 0ad1 ee3f
00000710: b466 9951 07c1 f8bf 81fa 4bf7 9cb3 d43f
00000720: 9f7a 5d31 b9dc f3bf 52f2 5c7c ff90 dd3f
00000730: d378 cb9d 7b4c f5bf 2a90 3198 8202 f03f
00000740: aa8d 3ec4 e788 c93f a53f f4f1 4a27 d5bf
00000750: beeb d198 d48c e83f fc24 31b1 5d17 e1bf
00000760: ad1f 67c1 a9b5 1040 0287 fa6b 1748 d9bf
00000770: 3cc6 587a c13f e03f 02cd 4669 7401 dd3f
00000780: a595 d050 1097 1bc0 f277 b541 c99f 2040
00000790: 5537 0e44 81b7 ddbf 0d67 e9c5 3bdf 03c0
000007a0: 31ab 833f 175c d83f 52d8 2656 ac70 f7bf
000007b0: d3cb 043d 6fd4 5dbf fd18 af1d 1d1f 0740
000007c0: f55a f559 f215 e4bf e13e c3e3 7d1d e5bf
000007d0: cb17 30aa bb85 1ac0 a1c5 38ae a3dd e2bf
000007e0: 7948 4fd7 c985 f33f a4bf 1dde 5658 e6bf
000007f0: 3fb1 5f55 bfc9 c2bf d0d2 32eb ed98 d8bf
0.0 -0.016559290005349076 0.13646081703600785 -0.22997075040649256 0.7791019133518493 -1.5538590031501156 -1.1364793768622994 0.307035413442885
-0.8176280006664183 1.3247560892351395 -2.1593268336746716 0.5355136454918348 1.5731521898380325 -0.731785076167015 -0.8215967003980061 -0.9280862131423425
1.6361441013614881 -0.2274504389949122 -0.1608298954117326 -1.28683215970199 1.7596557878403611 -1.3293788154971802 -1.1761030007023723 -0.5633431102205629
0.35178185895606334 -1.3468898932088762 1.6165379888934814 -1.3576905185843091 0.22075060285981685 0.024315875901149808 0.14111933816670774 -0.15155656780886947
-0.714123322882954 0.5084959951031969 0.9137645561642164 -0.4789126414752263 -0.515673780114468 -2.164080838351229 0.2094612437948136 -1.1861027070774457
0.19003083296608522 0.40313378112997267 -0.16217985638585664 0.2742130456033144 -0.6406681912635207 -0.22104211024120046 1.0550263794951917 -0.11000681435272175
0.16657331728887115 0.10962424883692157 -0.14030371051706436 -0.9386649985890931 -0.14509832277022183 0.3899457808923005 -0.26013094372033946 0.9168720143064626
-0.3244778414132792 -0.352219946685395 0.38258062982539215 -0.11116918695005783 -0.4764532465085902 0.09838416862369409 0.810517310258943 0.22090197685751156
-0.5298283601137161 0.32903405697331456 -0.46854342598382553 -1.5523369036878711 -1.4583512339633076 1.0600723654458715 -1.1202143567188798 2.1202702401225113
0.39979941492766996 2.264447737370114 -2.583973555976299 0.7245363569660979 1.8658330029068348 -1.4478516701197952 -1.5078921675852919 0.30704530098548055
0.2265116355549343 0.009555931967504153 0.0298955966952053 0.6589223081910534 -1.7294237661216532 2.1032695738263487 -1.1245879063710693 -5.706861858877142
4.219908585799381 -3.344355591215618 0.3233645209121647 -3.1733752364556644 -0.6147278328781047 1.981719543956983 -0.6615632748760975 -0.18098521982339938
-1.5769127504466938 -1.3112304853434662 0.8250042017687642 1.0346239881065165 -1.2189809943554453 -0.231472569155809 1.1173807308223314 -0.581824042277132
-0.40822261481518113 6.551834908742658 -2.758118207201024 0.20162175229329315 0.6177314349003384 -0.030179614539563148 1.3895085596642236 3.020734102516341
-2.1892365153230697 1.5972646437445353 -1.2389538234498318 -1.9207794129809297 -0.8227038153805172 1.8991493509566273 -2.2110584044835178 1.6202089934791097
2.072213426445489 2.9805044611919684 0.3478867698159958 -5.0538517648832295 -2.0615776268089303 -0.9804937286034845 3.150267815706684 -0.5749614579823784
-2.6084207942931026 -0.3562597276162681 -0.7320337173569267 1.109292983882276 -0.8701731008507568 -0.020903113889737632 0.47513623421540513 -1.8047674499282909
-0.6708060572929635 0.5250917526584813 -0.16423504392763177 0.06335376857774994 -0.2212617645756786 -2.290511275472878 -0.6581677233706699 0.10811147523826646
-0.0707601804118543 -3.457945342545936 1.2044821211418646 1.2029314684431478 2.224762733328803 -0.9049245376277371 -0.5399560081479239 -3.750923664513498
0.4483001413185572 -0.6373664145097143 2.8670251656703165 -0.2325757166852076 -2.33982480608732 -1.15847610434296 -1.5922011624016323 0.08703915562405024
1.087395381506486 -1.7835475823218927 1.9530818169504405 0.9898435578148643 -0.12265770581521264 -0.5000854455086565 0.790586708867561 0.652291461102535
-0.04823143669682153 -0.7670322084382755 0.5099301698952865 0.2904366729635203 -0.0009453390551126973 -0.8424591095524636 0.8392813825531854 -1.2301042884654045
1.3007173170344415 -0.7246284170704059 -1.0973958320203903 1.723135328709687 -2.338792680177277 -0.034536896397128064 0.043669635916409766 -0.42020146711735445
-1.1006953194608224 0.5101292671339571 0.11991049093485469 -0.03788709510814049 -3.3838759588796954 1.1277996733127886 0.02785521970477273 -0.1601353948909139
-1.9415179174659964 0.9180697401840454 1.4850105497343042 0.5257706775374352 0.5471190352794219 -0.9210962470110194 0.19124502311666625 -1.314574150116409
1.4468667837069844 1.205362551477415 -0.5277229695932695 0.10873086051064763 -0.11112011428844404 0.39195665741422725 -0.3278546876372609 -0.5233583882823367
0.9024009066902182 -2.4118920169687903 -0.8530307367168902 -3.578058312833881 2.519449969778063 -0.31041889474673634 0.9519786324586441 -0.08830712503981225
0.007681069656175245 -1.5732567572399019 0.5789843912649137 1.116238573749421 -0.7059312198700505 -0.39334095552616577 -0.31556074660781147 0.7200484547909783
0.889988051933951 0.9630175420206238 -1.54712612032601 0.32346271658017406 -1.241387551148058 0.4619749750598078 -1.3311725772724017 1.0006128258764968
0.19949051935428247 -0.33052323940591527 0.7671912178769771 -0.5341022930889774 4.177405378264592 -0.3950251154402481 0.5077826871476598 0.45321378975786797
-6.897523176890364 8.312082341577455 -0.4643252529721072 -2.4840007268766215 0.38062077715464954 -1.4650081029226567 -0.0018206678688101787 2.8901922530232
-0.6276790387153982 -0.6598500679483231 -6.6305986968854524 -0.5895555880326137 1.2201631937537327 -0.6982836092192781 -0.14678184193270202 -0.38433406799894687
