code/results/RRL_model_returns_f__ltc.npy (npy, 22600 bytes, 1 tensors)

array f8 [2809]
000000 00 00 00 00 00 00 00 00 52 d2 b7 87 7a d7 c4 bf
       0.0 -0.16282588602884346
000010 9f 5b 69 16 5c bf d0 bf 18 a2 ea 8e 8a ae d0 3f
       -0.2616796702254138 0.26065315205281214
000020 6e 7f 88 66 3a 19 d6 bf f1 0c 00 16 dc d5 f0 bf
       -0.3452898026753165 -1.0522118434317316
000030 16 47 37 7e 2b 19 e4 bf ba a0 45 ee c7 6a b2 3f
       -0.6280724969057896 0.07194184844195464
000040 00 36 07 c3 af b7 e0 bf c2 4a 88 af bd 7f ce 3f
       -0.5224226769584561 0.23827334471623912
000050 be 8c 5a 58 2d c9 ec bf f8 fc 05 84 de d5 da 3f
       -0.8995577550562286 0.4193035401621752
000060 b0 ca 9e c0 0c d8 e9 3f 50 03 78 51 5b aa e8 bf
       0.8076232683291291 -0.7707954970538626
000070 7d 7b b2 51 96 f2 e8 bf a5 cd 56 e4 cf ee f5 bf
       -0.7796126933716178 -1.3708037299628384
000080 a1 ee 19 04 5c 66 fe 3f b2 8d c9 ec f8 65 a9 3f
       1.899990097065633 0.04960611238928027
000090 ac 92 eb eb 1f 04 c2 bf 78 fe d5 04 1a 0c c3 bf
       -0.14075087565938327 -0.14880681263092632
0000a0 6c af 46 03 3a 14 da 3f de 7c 65 1a 16 85 c8 bf
       0.407484534453707 -0.19156147278679375
0000b0 e3 91 d6 d2 5d a9 b1 bf 97 af 6c 55 7f 26 d5 bf
       -0.06899057767311194 -0.33047469465486173
0000c0 5e fe 1b d7 30 57 b6 3f 74 2c f2 f0 08 f4 b9 3f
       0.08726792575543516 0.10137992746801833
0000d0 8f 7f 0e fc 4e 1b e5 bf b5 37 4e fe 25 2f 01 c0
       -0.6595835612279063 -2.1480216853733176
0000e0 ec 4a 4e 05 31 e5 fc 3f 65 c4 09 69 df 2e bd 3f
       1.8059549529322636 0.11399647058876068
0000f0 72 4e 82 cf 78 73 c2 3f 7c 01 40 d0 05 92 9b bf
       0.14414892322803358 -0.026924219928333923
000100 88 55 85 d1 bc 44 df bf 7c b7 20 e3 34 71 d0 bf
       -0.48857040844935584 -0.2569095819516105
000110 fe 8d 41 e2 b8 1c d3 3f 55 3d d3 32 49 7f b4 bf
       0.298628064110943 -0.08006722918365956
000120 38 bb 09 08 64 c4 c0 bf 00 6d 1b f7 64 bf 82 3f
       -0.13099336998444655 0.009154118338690953
000130 18 d6 c6 7f 29 37 e3 bf 65 98 54 b4 ce cc 94 bf
       -0.6004836555136448 -0.02031252837800714
000140 80 20 8c 6a fe 99 d9 3f e5 f2 2c 46 5c 55 c7 bf
       0.4000240364553136 -0.1822924940733152
000150 6b 47 f5 bc 83 d6 e4 3f 50 da 89 d9 73 f7 b1 bf
       0.6511858645046521 -0.07018207608221272
000160 bf 80 73 20 a0 fa b1 bf 80 08 f2 30 f9 1d c7 bf
       -0.07023049156441895 -0.18060221567072077
000170 4f e4 92 6d 57 12 e0 bf ad 46 98 ca 27 a3 c0 3f
       -0.5022389545548637 0.1299791087372361
000180 c2 23 6a 74 db 67 d6 bf 86 37 2d be 0b 79 cd bf
       -0.3500889431821258 -0.2302565268132037
000190 39 0e c4 47 7a 32 bc 3f 4d f2 5d 62 62 18 c7 bf
       0.11014522792907479 -0.1804316501910698
0001a0 8b 45 5e 79 ad de c5 bf 70 09 63 32 ea 12 de 3f
       -0.17085808206733719 0.4699044696864325
0001b0 f8 63 4a 8c bb 9d d9 3f 41 44 e6 c6 82 6c ce 3f
       0.4002522344613335 0.23768648826492902
0001c0 b5 6c d8 40 43 e7 61 bf fa b0 6c f8 1e be a9 bf
       -0.002185469965082366 -0.05027863295103603
0001d0 9c 53 08 b8 02 35 cc 3f e4 8e 10 c2 b9 af d7 bf
       0.22036775575602696 -0.3701004405177015
0001e0 59 83 1d 5d b3 b9 de bf 7c f3 77 49 8a 01 d4 3f
       -0.48008426755227657 0.31259400534309356
0001f0 91 8e f0 bb 65 ab b6 3f a0 14 fe 16 1f 22 b9 3f
       0.0885528167569254 0.09817690192547213
000200 ab 98 e1 3e 65 9b ea bf 86 d4 1f d7 22 f9 ea 3f
       -0.8314691761159073 0.842912120976181
000210 f5 90 d5 2f bd ca c5 3f 04 e7 9a 6a 3a 8a d8 bf
       0.17024960361153033 -0.38343677912381247
000220 61 3c bd 25 4b aa ea bf 4a a6 c6 3e e9 b5 f0 3f
       -0.8332877862066078 1.0444118930994528
000230 3a 38 b2 22 c4 5e db 3f 4c 36 d6 63 75 30 bc bf
       0.4276590670423307 -0.11011441886349721
000240 ee 51 80 db e7 43 b6 3f cc 70 55 d0 60 67 d2 3f
       0.08697365864674797 0.2875597033032704
000250 1f 52 da 01 cd 2d e8 bf 94 9b d1 72 8a 13 d0 3f
       -0.7555909191310696 0.251192676665988
000260 3a 43 d9 f4 e2 12 bd 3f 0d c3 97 44 c1 fa 97 bf
       0.11356943586112048 -0.02341749173314427
000270 4f fc 9b 8d 08 60 ea bf 5f 85 10 33 be 9f d7 bf
       -0.8242228284651761 -0.3691249369313336
000280 b0 1c 57 f2 5d ca 9a bf 5c 54 69 97 e6 99 e3 3f
       -0.02616259376170821 0.6125367123846774
000290 7e 43 10 fd 03 09 b1 bf ea 6c f1 43 fb d5 ab bf
       -0.06654381683644137 -0.054366924327689706
0002a0 d5 27 aa ca f7 1f f9 bf b6 9b 30 de a9 a1 14 40
       -1.5703046719158824 5.157874557225048
0002b0 c4 51 e8 f1 5e 0b f1 bf a5 7e aa 68 62 e5 0f c0
       -1.0652760934363963 -3.9870041062384467
0002c0 f0 75 4c ee 8f f8 ad 3f 2b eb b3 b7 a4 0c e2 bf
       0.05853700431746833 -0.5640433872170879
0002d0 23 8b 77 8d 7e 88 c0 3f ec 57 2e fb d4 7c f1 bf
       0.12916547687117327 -1.092976552177329
0002e0 65 bd d1 31 7e 61 f0 bf 5f 5e c0 9b e7 57 e8 3f
       -1.023801989180208 0.7607305566807091
0002f0 86 9e ca 61 10 06 d0 bf 7c 5b 74 0c dd 1c cf 3f
       -0.25037011671017984 0.24306834324007898
000300 d0 be 18 26 4c 88 e6 bf b0 92 7f c1 b2 23 f1 bf
       -0.7041378730845853 -1.0712153967407794
000310 d0 0d 2c 44 c2 9e e4 bf c1 51 0b c0 f1 f0 ea 3f
       -0.6443797427640963 0.8419121504653547
000320 e0 c5 d4 dc 06 9c e3 bf 06 2c b2 9f 55 cb f5 3f
       -0.612796241103009 1.3621422041057953
000330 a9 63 2e d8 10 c4 d3 3f e7 6e c1 6d fa ba b2 bf
       0.308841906656705 -0.07316556148128549
000340 98 61 60 9d ee 01 ce 3f dc f8 b7 7c 3a 6d d7 bf
       0.23443396267317662 -0.36604177646212377
000350 2f a7 7b c0 c4 57 c3 bf c6 72 ed 36 94 f9 e2 3f
       -0.15111598394951772 0.5929661820224161
000360 8a 53 c2 0a e1 a3 f0 3f 84 4e 7c 22 1c 41 ea bf
       1.0400095386769146 -0.820447985987315
000370 fc bf fe 90 e7 a1 ec 3f da 46 90 71 33 4f 17 40
       0.8947637397704962 5.827344679289775
000380 5c 39 c1 eb 43 b6 f7 bf 7e 9a 9b 11 84 f5 e1 3f
       -1.4819983681841995 0.5612202018645147
000390 e0 f8 fe 6c b1 f6 c3 bf c5 63 8f aa ee c1 fc bf
       -0.1559659750182112 -1.7973467504982505
0003a0 7d de 91 78 8c a7 f1 3f c2 a4 f2 32 d1 de f9 3f
       1.1034054479368074 1.6168987264775727
0003b0 1b eb aa be 36 18 eb bf 5c b0 90 6a 8c 00 ac 3f
       -0.8467057918527162 0.05469168473095529
0003c0 13 17 1a 69 3c 24 da 3f 7f e1 49 e9 5c 03 01 40
       0.4084616686235318 2.1266420579597134
0003d0 ec 99 9d 6a ab f5 94 bf 98 6a aa 2e 7e f1 e9 bf
       -0.020468405134488707 -0.8107291137160528
0003e0 cc eb 17 2b 26 b3 fc bf 6f 74 67 4f 54 92 f0 3f
       -1.7937375720346038 1.0357249356959775
0003f0 af 20 4b f1 60 03 f1 3f e7 2d a6 10 3f 61 c5 bf
       1.0633248734975884 -0.1670302230162257
000400 7b 92 14 64 6d ab f4 bf 78 d9 f6 f7 e9 85 f3 bf
       -1.2918523702038829 -1.2201938329795592
000410 ac 11 2b d8 a4 66 e8 bf d8 1d 00 41 05 1e bc 3f
       -0.762529775813666 0.10983307682919674
000420 63 45 47 55 34 82 e0 bf af 6a 21 33 0b dc e1 bf
       -0.5158940950006293 -0.5581108091967816
000430 d1 9d 7d ef 5c 65 e7 bf 45 03 26 5b 7b de b7 3f
       -0.7311234166672255 0.09323855376534336
000440 67 68 2f 75 82 9a e5 bf 23 5b 35 b3 40 e3 e9 3f
       -0.6751110352299862 0.8089908123173227
000450 1a 09 7d db 8d 81 c4 bf 13 c8 24 43 53 a2 d9 3f
       -0.16020367829521193 0.4005325465869884
000460 b1 54 53 34 97 63 ef bf 3c a8 49 29 a8 b9 e4 bf
       -0.980907060812248 -0.6476631933594557
000470 87 7d 61 b2 db 61 e6 bf ad 9f b0 89 da 95 f0 3f
       -0.6994455799103186 1.036585367060961
000480 a1 c1 77 a6 04 72 fc bf 0b e5 ad f4 a8 ad c4 bf
       -1.7778364660881396 -0.16154968211393625
000490 63 7c d2 1d 77 8a d5 3f 48 ba 0a bc ef 85 f2 3f
       0.33657625114751094 1.1576993317973052
0004a0 03 99 45 4a 7d 03 c5 3f 10 ef 55 7a 74 8b c4 3f
       0.1641689884811016 0.16050582860395268
0004b0 39 a1 42 de fb ed bf bf f3 61 18 bc 4b c5 01 c0
       -0.12472509552265344 -2.2213358588162406
0004c0 6d cb 23 79 f8 d0 ea bf 52 11 d3 99 11 aa c2 3f
       -0.8380091062557377 0.14581508646927915
0004d0 0f ce ea 1e e0 b1 f0 3f 90 12 f8 c8 c7 14 c6 bf
       1.0434266288474452 -0.17250916779461933
0004e0 77 a1 83 60 9a a1 0d c0 2a ef 06 21 51 ec cb 3f
       -3.7039077320261486 0.2181493197693894
0004f0 5f 32 74 f4 cc 5c e0 bf 3b 25 1c ae 26 f7 e2 bf
       -0.5113281988611326 -0.5926698113045527
000500 4c 77 34 98 98 97 be 3f 4f 7f 2f 44 40 27 d3 bf
       0.11950067249241875 -0.29927069338554174
000510 33 58 99 7d 25 2a f1 3f 55 af 8f d4 db d0 e0 bf
       1.072789660092451 -0.5254954482638633
000520 7d ba b9 31 19 db b1 3f ed f9 b5 0a 2f 4d d1 3f
       0.06974942649842748 0.27033592267971934
000530 51 57 ff 71 4f 8e d2 3f bf 31 f7 ed ef 7d d4 3f
       0.2899359334236254 0.32018659819439316
000540 68 8b 95 af 6e c8 ae bf c8 5b bc 98 05 7c ed bf
       -0.06012292760239896 -0.9213893874283423
000550 11 ce f4 a7 0d bd c0 bf 30 79 8f b7 b6 6e d8 3f
       -0.13076945019712174 0.3817574303228808
000560 6b 79 ca 93 98 14 f6 bf 15 d0 21 38 78 eb b1 3f
       -1.3800283215601563 0.06999923105632917
000570 97 d2 6c 4b 70 3d ea 3f a3 ef da d3 a0 99 a9 bf
       0.8199998353143937 -0.05000021539805679
000580 39 44 66 0e b7 4a d1 bf d5 47 82 2d 52 af 94 bf
       -0.27018524557303497 -0.02020004656566939
000590 0e 65 ea 95 7d 72 e4 3f fd 47 98 4b be b0 d6 bf
       0.6389758995093489 -0.3545375574332182
0005a0 8f ae 1e 12 cc 70 fd bf 55 cf e7 ee f4 fc cf 3f
       -1.8400383670622522 0.2499071280031965
0005b0 da bc bc 87 ff 03 e0 bf b6 b7 fc 73 81 00 e8 3f
       -0.5004880572431845 0.7500617280363631
0005c0 c9 7f 87 bb a8 99 e9 bf 07 81 ab d4 4c a4 c0 bf
       -0.8000072157556072 -0.13001404175066275
0005d0 cd 3f 99 39 53 b8 9e 3f ec 8e 0a b7 a8 a5 c0 bf
       0.0300000194459356 -0.13005551278649052
0005e0 49 a0 4c 36 a7 4a e9 bf 5b 7b 3e 83 be d8 d3 3f
       -0.7903629360707863 0.31010401551059424
0005f0 10 79 16 92 3f 52 c8 3f b5 05 9f 77 46 29 cc bf
       0.1900100196189176 -0.2200096210563466
000600 e7 71 f6 ea 68 84 db 3f 8e ca 0a 23 2e 55 e0 bf
       0.42995665498327046 -0.5103979763428741
000610 e8 09 41 cc 1d f0 01 40 54 a1 4a ac a2 91 d2 3f
       2.2422443349216685 0.29013888192505033
000620 e9 50 07 5e 20 3c c3 bf e0 83 01 32 8a e3 c1 3f
       -0.15027241317023446 0.1397564644021534
000630 f0 6e 21 73 37 b0 d0 3f 47 c3 ee c2 93 26 d4 bf
       0.2607554077455765 -0.3148545650138214
000640 de 75 89 46 07 72 cb bf 5a 63 47 cd fd ba ae bf
       -0.214417371217606 -0.06002038126798111
000650 80 95 2a 19 ab 5e d8 bf 67 f6 fe c5 c6 2c d9 bf
       -0.38077809770251037 -0.3933579381517575
000660 02 0c ea 84 c1 46 9e 3f 77 56 20 55 93 a6 c0 3f
       0.02956678746933151 0.13008348137434542
000670 a8 5a c6 d3 e7 7c 9e 3f 7d 28 fd 3d b3 37 f1 bf
       0.029773351956090238 -1.076098673004281
000680 60 97 2f 5a 3e 89 74 bf c8 24 52 10 c0 03 d8 bf
       -0.005013698161723784 -0.37522889703593565
000690 34 22 63 06 2b 01 d9 bf b2 ba f9 fb a0 00 f4 3f
       -0.3906962931037328 1.2501535265725292
0006a0 07 f8 d3 73 18 27 e6 3f 2e 44 d2 2a 41 91 f6 bf
       0.6922724020257655 -1.4104625389775367
0006b0 74 3b 74 1a 89 a1 e1 3f d2 78 79 4d 8a 07 cc 3f
       0.5509686962776486 0.21898011000570833
0006c0 2b 13 b1 7a ed 7a e9 3f 89 96 72 d6 22 64 f0 bf
       0.7962558170625916 -1.024447286306357
0006d0 9c 9c 43 3c 1d 88 e7 bf 50 67 c1 6e 80 52 ce 3f
       -0.7353655030282371 0.23689275176985314
0006e0 40 bc 84 35 82 e1 be bf 28 d3 56 18 da c3 e5 bf
       -0.12062848860362951 -0.6801577067732056
0006f0 44 5b d7 79 c6 56 da bf 2d c8 64 ba b3 b2 fd 3f
       -0.41154634378965604 1.8561284333232024
000700 75 b5 50 4a f2 27 e3 3f e6 cf 99 34 db f5 d0 3f
       0.5986262752027601 0.2650058759384123
000710 05 c3 49 57 4a 66 0a c0 2f a8 b3 74 e2 91 01 c0
       -3.299946481646091 -2.196232711537071
000720 4a ec 88 0d c5 37 d5 bf f6 b1 42 df 05 6f d3 3f
       -0.33152891465914947 0.3036513023642152
000730 3c 05 7b b3 8d 63 db bf 1b 3a 5e 3c 67 f4 f0 3f
       -0.42795126464268995 1.0596687658431907
000740 16 9b 82 d5 fb 7a f2 bf 0c 20 9a fe 7e c7 c9 bf
       -1.1550253238908161 -0.20140063697567745
000750 1c d2 b8 fc 72 50 03 40 64 f8 43 f5 01 f5 c3 bf
       2.4142818206694425 -0.15591454006056715
000760 ac fe 4d 22 3a 8a 05 40 3f f3 0b 00 71 8a f1 bf
       2.692493694310391 -1.096299171621652
000770 c8 f3 a8 92 bc fe 07 40 51 f7 d8 20 e7 ba 07 c0
       2.999383111744894 -2.966261154767303
000780 d1 97 e8 27 f1 7a 11 40 d9 a2 06 fa 81 0a 17 40
       4.370060561724999 5.760261446623837
000790 3b a4 02 8c ff 8a d4 3f a0 ab 4d 2e 4b af 0d c0
       0.32098377869494116 -3.710592614884675
0007a0 ff 5d af 45 c2 cc f0 bf a4 e0 81 fa ce 20 d5 bf
       -1.0499899599143416 -0.3301274725304302
0007b0 ba d5 83 35 04 a4 c2 3f d3 0c c8 ef 45 cb c4 bf
       0.14563038456951266 -0.16245340545729067
0007c0 6f 46 b0 90 5c 2e f7 3f 55 9e 00 3b 6c 4d 01 c0
       1.4488187457940531 -2.1628040895045992
0007d0 6a 2d 01 3e d0 46 18 c0 df 07 51 07 8f bb fa bf
       -6.069153755971778 -1.6707906995584307
0007e0 18 7e ed 13 04 42 00 40 b8 4d 48 3d 47 63 d1 3f
       2.0322343403675056 0.2716844652615822
0007f0 08 4b 8e 76 44 47 e9 bf 0f cf 6e cf 4f 23 09 c0
       -0.7899496379417039 -3.142242069787137
