code/results/RRL_model_returns_f__xem.npy (npy, 22648 bytes, 1 tensors)

array f8 [2815]
0	0x0000000000000000	0.0
1	0x407a75ae1dfcb8e4	423.35500906676884
2	0xc05d0d4b9bf9c8ab	-116.20773982422786
3	0xc061b882a583b10f	-141.7659480640509
4	0x4072c5731b5698eb	300.34060224368176
5	0xc06952c8643b6c85	-202.58696185690147
6	0xc05afcf9c4bf3320	-107.95274466201636
7	0xc06c5b1ecbb83fbc	-226.84750925050855
8	0xc07a1232de6188be	-417.13741911029126
9	0x4082a5563dd7b04e	596.6671101427726
10	0x4072a70d3bf2c6e5	298.4407309993242
11	0xc092bbe6bd01be51	-1198.9753303787622
12	0x4082af6f5e35b963	597.9293789097977
13	0xc07a1104ff79d404	-417.06372020329604
14	0xbfe373f3c93bf557	-0.6079043321948728
15	0x4072b7e6c3393131	299.4938385232991
16	0x4056ce688f722300	91.22513185640491
17	0xc082bedfb1475f75	-599.8592248512274
18	0x406dcec220cd2d6e	238.46119728158686
19	0x4061e94d258f0126	143.29066732340397
20	0xc07de68985851e1a	-478.4085746002107
21	0x409ee7f1a83a4ae5	1977.9859933002674
22	0xc07a0363809d0a2a	-416.211792577206
23	0xc072b18eca4abcca	-299.09736088938064
24	0xc05b5465a92da138	-109.31870488601714
25	0x401cd2063c9b3050	7.205101916286438
26	0xc082ba314ac32c29	-599.2740683791973
27	0x40807913c0107268	527.1346436772264
28	0xc07248c7067301b6	-292.5485901348542
29	0xc08289a9560c1605	-593.2076836532802
30	0x407e1ce379884d62	481.80553582423283
31	0xbff02a6f32cc6222	-1.010359953337805
32	0x4059519ceb80a369	101.27520263254486
33	0xc08079cc6969db50	-527.2248104353002
34	0x4068d4620f7bf1b0	198.63697027404623
35	0xc0370259dbe0a014	-23.009183637943423
36	0xc07c0a28604cfd12	-448.6348574645391
37	0x4068130020ee24e8	192.59376570236714
38	0xc05deae250c6750c	-119.67006320362651
39	0x4079b347ce3e253e	411.2050306727941
40	0xc072d786eb51c7e8	-301.4704392618719
41	0xc07962c702e6ed3c	-406.1735867519926
42	0x40583c24f5cded1d	96.93975586996062
43	0xc06c01312f0d5e74	-224.03725388156056
44	0x4068ea315fdbcdf6	199.31852715426038
45	0xbfe1c4772df7b4e5	-0.5552326104931607
46	0x407e83da16491693	488.24074390935965
47	0xc02ef7644b96ef39	-15.483187067198388
48	0xc00d412e1b908840	-3.656826224659227
49	0xc00d44e8a1e942aa	-3.65864683621506
50	0xc0690085917b23d0	-200.01630472231636
51	0xc05900647ded7330	-100.00613353908989
52	0x405900463cc1d1a5	100.00428694656019
53	0xbfa1f3620b5ca933	-0.0350599898213936
54	0xc06966d6bc1456fb	-203.2137127301465
55	0x40738b2c898d4c40	312.69837336725686
56	0x4058f914cc8e0ec0	99.8918944728166
57	0xc072cb2c07f08202	-300.69824975918175
58	0x407f4001c4e98ea8	500.0004319308596
59	0x4085cfa5c1e285ff	697.9559362122671
60	0x4069d64b082ed833	206.6966591753895
61	0xc077fb0f8504b5a0	-383.69128896560323
62	0xc01b2d0850e99d3f	-6.793977035769159
63	0x4074d25ef3aa9a1a	333.1481815971507
64	0xc08d8f89d298d174	-945.942296213047
65	0xc07909089599780c	-400.5645957941895
66	0x405cbe3b5a2e88e4	114.97237257522971
67	0x407a1c7f873901ec	417.78113481777723
68	0x4072d1c03461f7cc	301.10942495602353
69	0x4067e938a4f3eae2	191.2881645931257
70	0xc08299228bbf6f14	-595.1418681102537
71	0x408173d8e60390f0	558.4809074667555
72	0xc044caa1a156d10a	-41.58305756320085
73	0xc07da7b4f56bfa86	-474.4816793649592
74	0x40879621c465773a	754.7664878775606
75	0x406c7d821946304c	227.92213119229052
76	0x405cc856c4132081	115.13029577129238
77	0xc02988190d59713a	-12.765816132705925
78	0xc02974f763305375	-12.728449916505022
79	0xc0718768247af984	-280.46292541539174
80	0xc08556d3d4c4ec0a	-682.8534331688436
81	0x40811c3393aab804	547.5251839959533
82	0xc032c2b1a907961d	-18.76052338061537
83	0xc06c71f2d29f106d	-227.56089144770831
84	0x40811d242b1662cc	547.6426603077794
85	0xc017cc217cf3cddf	-5.949346496945025
86	0xc08296eeeacf11f4	-594.8666587998728
87	0x40846981bc327dd1	653.1883472389837
88	0x4081877e1f67e479	560.9365833393668
89	0x4082be0bb35ffd1a	599.7557132243267
90	0xc082ba91dbfa5a7c	-599.3212203558792
91	0x4092bff53ceccf2c	1199.989490223069
92	0xc082c02d021aab69	-600.021976669651
93	0x4082bf2974129a14	599.8952409222861
94	0x4072be18b770d015	299.8810343176604
95	0xc0976c693a9e3d9b	-1499.1027626729108
96	0xc05116bd7c617b3a	-68.35531529922164
97	0xc087268c73708aa6	-740.818579558593
98	0xc0721d6b89a27d15	-289.83875430557356
99	0xbff06ddaec71ecf8	-1.0268201099523235
100	0x4082981f39487fbe	595.0152459777817
101	0x4072be8e0a96d0a8	299.90967806732306
102	0x409c1ffe554d210f	1799.9983722735813
103	0xc08c1ff60a1b2055	-899.995136463093
104	0xc0977020a800cbec	-1500.0318908810104
105	0xc0730759c12ccd92	-304.4594127416723
106	0xc012220b55002b1c	-4.533246353278425
107	0x408c1cec5d238775	899.6154120231355
108	0xc08c195604889590	-899.1670008345263
109	0xbfcf099052a7f7a0	-0.24247936283057658
110	0x408c138b520155d1	898.4430275062861
111	0xc0a5eae3f4344a89	-2805.4452225056634
112	0xbfe066f1ced02db3	-0.5125664748497257
113	0x4075852959e82ffc	344.3225955076048
114	0xc07adedb9aac0ca2	-429.9286143036535
115	0x4085cbb0b10ad5b2	697.4612751814332
116	0xc09420c542bd4d22	-1288.1926374033287
117	0xc0b8a441f3906523	-6308.257622742359
118	0x408452e311cb6320	650.3608737840295
119	0x40691511b27c547f	200.65841030390945
120	0xc08000e058ef577a	-512.1095446299144
121	0x405b3f92b3cded90	108.99332900152353
122	0xc072feaff7011417	-303.9179601709488
123	0x408ebeb1563b04b2	983.8365902529533
124	0xc07b77782bf5a5db	-439.46683879810524
125	0xc072c010820c78d6	-300.004030274123
126	0x4078568661c4ead4	389.4078080837328
127	0x4082178bda4b3ec7	578.9432874563726
128	0xbeffcdad8cd33333	-3.033011380608741e-05
129	0xc079002efe7ff676	-400.0114731787247
130	0x406900e07152f5ee	200.02739778712515
131	0xc05900017af8dcc7	-100.00009035399408
132	0x4058ffffe0424286	99.99999243231477
133	0xc05902ec7bde5e77	-100.0456838294575
134	0x4072c038b729963b	300.01384655232295
135	0xc06931f74f8b0a1f	-201.56143929630431
136	0xc069821c6e6b36c3	-204.06597062053888
137	0xbf2e4c61021ee666	-0.00023115810568956617
138	0x407f400770d0998d	500.0018165729933
139	0xc059000f741e0f25	-100.0009432118937
140	0x4078fecdf0120464	399.92527777708005
141	0xc07f4caec7abe0f7	-500.7926708902373
142	0x40890000254795d7	800.0000711052515
143	0xc072c0074f5dcf14	-300.0017846741114
144	0xc05900a81924aac8	-100.01025990086339
145	0xbf84eb9b86ba6800	-0.010215010689808679
146	0x40590000fecf8248	100.00006075157683
147	0x4058ff00bd50b5f1	99.98442013627916
148	0x4069014a5f2a8a93	200.04032858189439
149	0x4072c0105859d368	300.00399050796705
150	0x4068ffff8cde4eaa	199.99994510096923
151	0xc05900025357d72e	-100.00014194086245
152	0xc0590c6dfc85aa8b	-100.19421303799952
153	0xc08c3bcd5775d92e	-903.4752644736197
154	0x4079360eae9e3591	403.3785844974564
155	0xc0691cde3c531ecc	-200.90212837442812
156	0x406900aea3b9676b	200.0213183041736
157	0xc079242e036b9ad9	-402.26123373063234
158	0x4069b77f67eb6d66	205.73430248243238
159	0x40790399520763de	400.22493174444924
160	0x4082c024518ad2a9	600.0177336545504
161	0x4072c0014afd6268	300.00031565645486
162	0xc082c03a068f6be5	-600.028332825165
163	0xc009cdd472d9bae2	-3.2255028698631216
164	0xc00a06d5885cf73a	-3.253336968743409
165	0xc069149e30e23c26	-200.64431041895403
166	0xc0695edf13061814	-202.96473075094457
167	0xc07f47105735fa3d	-500.44148942074736
168	0xc07f83ac65d34489	-504.2295892956395
169	0xc08430077681d086	-646.0036440030824
170	0x407373fbbd2818ee	311.2489596906952
171	0x4055810c1b750082	86.01636396814322
172	0x4072528c0a505641	293.15918952352155
173	0xc09fd4a62ef5b7f7	-2037.1622885125669
174	0xc08c30ede60ebde0	-902.1161614562698
175	0x40911e7ae969911f	1095.620031022532
176	0xc06644cd00523792	-178.15002456720373
177	0xc0463e0cdd4a83aa	-44.48476759088892
178	0xc06b536bfa854317	-218.606930980947
179	0x407828d604fe1792	386.552250855014
180	0x40762a270e0fda92	354.6345348948754
181	0xc063f6dc1f98b306	-159.71437053512653
182	0xc07ceadce66d8350	-462.67893069056026
183	0xc06927d9ba9f7865	-201.2453282465605
184	0x407f54846a3a7554	501.2823278697517
185	0xc0790cab2a687385	-400.7917884903075
186	0x407f8e24f3a86718	504.88402143270787
187	0x4072be4083b51645	299.89075060593706
188	0x40790dc923acab1b	400.8616062874659
189	0x40803bef258bddac	519.4917708327316
190	0x406dfb0f076752a4	239.84558458500135
191	0xc04140731f747bb5	-34.50351327121408
192	0x407f8bc8f3dc3d00	504.7365606883104
193	0x404ec7bc27e19ad2	61.5604295589052
194	0xc080e83af5221a85	-541.0287878670066
195	0x4086277b4d05721c	708.9352055001686
196	0xc0172e55db93e854	-5.795249396231231
197	0x40694e4bfb9a5878	202.44677524705526
198	0xc05900791a8fc2a2	-100.0073915866765
199	0x408ecba5f6941304	985.456036717253
200	0x408db34703ce54e4	950.4096752280861
201	0xc02c8bf0bc9c13ed	-14.27332105069396
202	0xc07d73c3f457e7ab	-471.2353404458797
203	0x40709606539114f4	265.37654453919026
204	0xc092c2c259a42498	-1200.689795078977
205	0x408acd90e1f8a0cd	857.6957435058663
206	0xc07471c49ee772ea	-327.11050310525627
207	0x40867ca93126d946	719.5826132807786
208	0xc0766e06fcc4a6fd	-358.87670590226463
209	0x4052bbfe73238883	74.93740538091701
210	0x4082b7b931656bf4	598.9654262469835
211	0xbf882ae5f630a8cd	-0.011800571990609044
212	0x406deaddd60a9905	239.33957960195417
213	0xc094801f9a3fc5a5	-1312.0308618511565
214	0xc072531cfc7a4eac	-293.194576719058
215	0xc03663ad7d7a1752	-22.389365999514958
216	0xc02397a4fcc1dda3	-9.796180628457313
217	0x406a3f00782b6aca	209.96880730132972
218	0x406041e628a85cd7	130.0593455589612
219	0xc04c6c6775a03705	-56.84690733263964
220	0x4072bfc850024c59	299.9864044275069
221	0xbf125fc42d666667	-7.009158011896944e-05
222	0x4082bffd78def47b	599.9987656992301
223	0xc082c05fbcae079f	-600.0467465969158
224	0xbfa8530395c9599a	-0.04750834659050725
225	0x4072be8d6c6bff46	299.90952722727195
226	0xc072be9beb8fbe34	-299.9130664458237
227	0x409c199c601a1f80	1798.4027103502012
228	0x4072756029356259	295.3359767995185
229	0xbf39999764bae667	-0.0003906244862537989
230	0xc092bffd22d5ccba	-1199.997203198071
231	0xc072bffffd32fe6b	-299.99999732894383
232	0x408c1ffffa4fc548	899.9999891502457
233	0xbf57a012984ef667	-0.0014419728843074965
234	0xc072bffa1e9cf2e9	-299.9985643511596
235	0xbf323142afb0cccd	-0.0002775943573311679
236	0xc08c21f8fab1246d	-900.2465719069711
237	0x408c12b04619d427	898.3360712068433
238	0xc072be9043ae5794	-299.91022079565414
239	0xc082bf690ba6d10f	-599.9262917549657
240	0x408c1ffb229b7094	899.99762460172
241	0xbf5ab44b6a65b333	-0.0016298996430023748
242	0xc072c005e39fa153	-300.00143778186356
243	0x4082bd27d82b9a94	599.6444552809285
244	0xc072ba5d2f193271	-299.64774999468415
245	0x4082a5ca72ff480d	596.7238521522391
246	0x4096e0c0e3b1d850	1464.1883685863759
247	0xc091fd438f0da572	-1151.3159753925543
248	0xc08c1be177c4fc36	-899.4850917233914
249	0x407281dff846394b	296.1171801322095
250	0xc08c0579ea6816ce	-896.6845291263542
251	0xc082c1c40d1013b3	-600.2207280403148
252	0xc05369677dfcc49f	-77.64694165882473
253	0xc0652cbb8e7f27a5	-169.39789509615835
254	0x40582298580427d7	96.54054832845519
255	0x405acfc2883eec66	107.24624830384127
