code/results/RRL_model_returns_f__xrp.npy (npy, 22648 bytes, 1 tensors)

array f8 [2815]
0.0 -108.44951379587184 -182.67565954632443 -45.8732439073344 293.55867392866963 -12.1095607206518 159.70515292822603 158.57541233019217
-365.3650416204729 318.9323697393062 51.50153475075477 -178.1832620132324 -147.48226310458614 -109.70224380242702 46.67514565617462 -306.75876181626364
257.65551988316474 -6.256500635591237 5.795634255801197 -519.5220482578341 -375.5547490162473 61.09373201895625 729.3584290474657 148.71980393585756
-148.80105654863905 117.94452112999228 -75.52852412593495 291.0991118211082 121.95650543167939 -547.2246234411398 69.79509585514384 336.46357835262154
-28.087741692846457 -166.78862877875366 -312.8360840319942 -69.41338601166495 -312.9367552541015 214.47596741699087 -243.72767277574053 380.1234939228788
-230.53160869731158 -103.75736115211345 -122.1135700132124 86.49340451496656 -77.7476541638006 -78.18146280748505 310.2799764896129 42.397560009128874
228.28926686948165 -185.62159140669308 -161.94740360296797 204.0405654855806 -465.59323469611616 -69.95876241855815 78.48195294518379 285.6868450620382
190.17453080189426 -361.15929827327625 548.2466501936085 567.42658939069 -31.9919768335825 -128.79258913956946 -33.56748245993388 39.62368364211471
-8.021875358442117 -0.0024970468092194776 52.11332592082983 47.30917533283629 -160.31713946453223 -80.97430943813308 67.20870114564754 400.66281752271806
-423.56852570411877 553.060296865029 -492.63021317073554 292.2977277384526 165.1167996063826 108.07119973739668 245.37361801127523 -246.82405086911692
-91.82829671071545 -32.93487337679106 -245.5079859170495 -1.7363884094664341 -138.72623656053878 370.3378026839906 91.64523590706423 482.73759002846333
3.8833515750828482 -264.3664339518574 87.04646829332937 131.53879219072405 -307.77313682790464 -199.9633540228409 565.9117530428175 857.4750095375445
-360.9551947644616 -335.51433869539824 -153.54059384749937 863.9235186753915 -424.7332573206518 -2230.2915391751367 3404.22662300625 833.7727726312936
-1319.2891645596387 -342.78607604368244 -2301.672341984647 -387.4510091541291 879.4245107534132 -830.2604390637837 -1427.310865853386 -857.0985707713294
335.80894611524997 152.27057799198278 -516.5698424244198 205.14665632132483 144.3930742975149 -8291.225072468626 433.0048864200127 253.89538406191036
-408.96479155915665 -213.37741351657283 -32.4520459191712 330.8401170646905 -249.61018122456704 19.309997602309174 433.860293789531 -25.081183770569076
-0.020661561442623395 135.3118075349978 -203.98860790699902 93.52000030563299 240.49790842064107 -101.29381489313717 110.4588625324687 344.04923834167255
-292.80703070888825 190.5516968496362 134.9335663378696 -80.70306885827794 44.88925332238018 98.28003746771056 71.07000612206251 237.11173519196487
113.21126934897192 103.48286050187241 -321.60477121210226 103.90831934495331 -288.2873588323488 159.16000191840442 -70.53000046271693 140.72000006958615
608.6900129572746 -351.25916711108357 223.6927884122421 -352.74485131100573 266.8460826556144 -240.80592923112357 146.54702122180828 523.8938215794551
-150.15552120664066 266.44666132205435 -552.6306981528268 -8.623286496804822 512.4540637544402 -503.33941659119637 619.7276432662984 -1362.133995709173
-489.58101035616255 -267.83467354483804 67.65039404495329 -46.48454266301359 909.2184291955915 -3324.4699201914163 597.2800346850746 666.3135107451478
82.78876985794932 -1185.1027666315758 1469.1032445873202 -537.1367950473608 1075.9720004159617 -142.48143083301161 -6.970248442683264 422.8339447300399
71.61653803559715 175.8416442541868 -317.37990081248716 1075.508196479037 71.85585577151804 884.814027021582 -471.5326937234934 -240.21522129814065
807.3170540517593 -413.03545196036566 -881.2268983818695 969.7476877887107 403.38483804105203 -365.4600804328487 899.042655647296 -137.97525187001807
4117.171814055789 206.6310257813177 144.0970860527441 -326.42094983522037 -130.3274065573517 -16.17642314356418 382.4632078900294 441.4766729690587
181.88669269678903 439.07841021991135 -842.5553196912425 -1362.018900936444 1352.7603015671236 -1784.25104000241 536.7543109077985 -192.3059642505315
361.17645981584616 -85.10607417166676 1658.061554918179 -511.3816497489597 478.65790324878685 1799.2121011884385 2558.9503545727425 -7633.6909187999845
-977.4896277273921 1655.5556403040484 -155.1226561208458 -422.368576979951 621.9036331754867 1301.5180226874113 571.9203621399477 954.3419426678059
-725.4576478179767 -1862.7043269695846 174.906847374624 2801.0746637372354 139.88623991915694 1023.5298387629347 -302.83964227466396 -109.47299678869615
1126.3581955913446 -3144.1764850307995 2015.0533139584393 -2290.1772241924664 3357.6794701695553 1041.5647053614603 1052.0346621007238 795.8942154942197
944.588163998048 165.91512463053212 -520.8832801210417 370.42836162391103 -34.8070818663518 -1796.7836833498995 1022.6750937548011 -79.49343024850025
00000000: 0000 0000 0000 0000 b417 83d5 c41c 5bc0
00000010: 32d6 c400 9fd5 66c0 5cb7 d374 c6ef 46c0
00000020: 39cc 1254 f058 7240 5840 c057 1838 28c0
00000030: 1aad df9c 90f6 6340 7f7c 1ec7 69d2 6340
00000040: c2d9 e135 d7d5 76c0 9a21 88fc eaee 7340
00000050: 4e26 6c4a 32c0 4940 d52d 4c48 dd45 66c0
00000060: 7ac8 08b3 6e6f 62c0 894f fd8f f16c 5bc0
00000070: 3aa7 402c 6b56 4740 e524 6ee3 232c 73c0
00000080: 20c1 6a02 7d1a 7040 0012 451a a806 19c0
00000090: 48f9 10bf ba2e 1740 a612 a327 2d3c 80c0
000000a0: 5324 8140 e078 77c0 a900 2a69 ff8b 4e40
000000b0: 6a66 0c10 deca 8640 4a81 43a2 0897 6240
000000c0: d8d4 5741 a299 62c0 a9ec c008 737c 5d40
000000d0: 6802 db56 d3e1 52c0 e8e4 46f6 9531 7240
000000e0: 99e0 8e62 377d 5e40 e2ec 5f07 cc19 81c0
000000f0: cac1 b9d9 e272 5140 4a7a 22d1 6a07 7540
00000100: 6e45 553d 7616 3cc0 cead 6b72 3cd9 64c0
00000110: f761 a699 608d 73c0 642e 9aea 745a 51c0
00000120: 8ecb 13f3 fc8e 73c0 ff3d 0520 3bcf 6a40
00000130: d8bf 6a18 4977 6ec0 4f80 c3d4 f9c1 7740
00000140: 1e27 3ef0 02d1 6cc0 a4e5 e89a 78f0 59c0
00000150: 6d23 29bb 4487 5ec0 bade 87f0 939f 5540
00000160: 7a8f d990 d96f 53c0 ace5 2d16 9d8b 53c0
00000170: 95a8 a0c8 7a64 7340 f7b3 123f e332 4540
00000180: ae07 98ac 4189 6c40 1667 a913 e433 67c0
00000190: 855b 5c21 513e 64c0 483d fd4f 4c81 6940
000001a0: be2a aae3 7d19 7dc0 d515 0c5d 5c7d 51c0
000001b0: 9e71 2a51 d89e 5340 f86d 3f51 fdda 7140
000001c0: fac8 9ec1 95c5 6740 7ea0 587c 8c92 76c0
000001d0: ce98 bc23 f921 8140 acce b2a7 69bb 8140
000001e0: 60a0 9a31 f2fd 3fc0 b333 e6e3 5c19 60c0
000001f0: 1d3c e743 a3c8 40c0 68f7 96dd d4cf 4340
00000200: c031 3a3f 330b 20c0 0dcf 3acc af74 64bf
00000210: 69e0 b976 810e 4a40 82a1 ab0e 93a7 4740
00000220: fb8d a901 260a 64c0 ce3d f915 5b3e 54c0
00000230: 69cc 0c5c 5bcd 5040 a3f4 8be6 9a0a 7940
00000240: 02a2 68ae 1879 7ac0 cf3a ec7c 7b48 8140
00000250: 15dd 675a 15ca 7ec0 413c 297e c344 7240
00000260: 2b33 87d2 bca3 6440 90e6 5789 8e04 5b40
00000270: f573 c2ad f4ab 6e40 1fa3 ed9f 5eda 6ec0
00000280: 10fa 34d0 02f5 56c0 fe9b 49ee a977 40c0
00000290: cc91 ae6b 41b0 6ec0 19fd 7c36 3fc8 fbbf
000002a0: 8e95 7454 3d57 61c0 da83 c9a3 6725 7740
000002b0: eec2 8b8b 4be9 5640 b1a1 332b cd2b 7e40
000002c0: b0ce 6ea1 1a11 0f40 f2f5 d8e9 dc85 70c0
000002d0: a309 2656 f9c2 5540 00d0 1ec9 3d71 6040
000002e0: f0f2 b8c4 5e3c 73c0 4bd2 d0cb d3fe 68c0
000002f0: 70e7 2d45 4baf 8140 55e8 ccd1 cccb 8a40
00000300: c52a 4e7a 488f 76c0 d83c 36bb 3af8 74c0
00000310: b7ed 778b 4c31 63c0 6a60 c25d 63ff 8a40
00000320: 083c 076c bb8b 7ac0 6e6d 9f44 956c a1c0
00000330: bb40 ee07 7498 aa40 33d5 6aa3 2e0e 8a40
00000340: 3e1b c11a 289d 94c0 903c 79c4 936c 75c0
00000350: 9367 353d 58fb a1c0 e6f2 5f55 3737 78c0
00000360: aed5 e465 657b 8b40 6a6c 1361 15f2 89c0
00000370: f246 9e53 3e4d 96c0 9cf9 78df c9c8 8ac0
00000380: 9953 7b71 f1fc 7440 ab52 2d93 a808 6340
00000390: 0d86 8b09 8f24 80c0 f0fa 9868 b1a4 6940
000003a0: 3097 8c10 940c 6240 fdb5 2ccf 9c31 c0c0
000003b0: 6362 c803 1410 7b40 78e8 79fc a6bc 6f40
000003c0: 8e20 46c9 6f8f 79c0 f5d7 82c5 13ac 6ac0
000003d0: b690 03a4 dc39 40c0 845a 971e 71ad 7440
000003e0: c284 c69a 8633 6fc0 9ec1 bb00 5c4f 3340
000003f0: cdaf 6bc3 c31d 7b40 668f a775 c814 39c0
00000400: d5b0 b8ea 4d28 95bf c8ae cb53 fae9 6040
00000410: 17a4 0cad a27f 69c0 a3a6 5caf 4761 5740
00000420: cee1 a3dd ee0f 6e40 8546 fbdc cd52 59c0
00000430: 0594 f400 5e9d 5b40 16b3 24ae c980 7540
00000440: af58 0899 e94c 72c0 cccf 2680 a7d1 6740
00000450: 7c39 83c6 dfdd 6040 f348 8614 ff2c 54c0
00000460: b9bd 880d d371 4640 2d5e 4522 ec91 5840
00000470: cf31 f5fa 7ac4 5140 a569 ae55 93a3 6d40
00000480: d31e e06f 854d 5c40 9e04 bc2f e7de 5940
00000490: aa18 9424 ad19 74c0 8339 76e7 21fa 5940
000004a0: 7a32 9305 9904 72c0 04db 57bc 1ee5 6340
000004b0: fb8e 0f87 eba1 51c0 b0ff 953d 0a97 6140
000004c0: 7c6a 8325 8505 8340 d8a4 698c 25f4 75c0
000004d0: 15b4 9a52 2bf6 6b40 7052 35e9 ea0b 76c0
000004e0: 3a79 f78d 89ad 7040 1e52 192c ca19 6ec0
000004f0: 4e3c a632 8151 6240 c0a1 ed8b 265f 8040
00000500: 650b 9c07 fac4 62c0 c9a9 5786 25a7 7040
00000510: 4f20 79ab 0b45 81c0 57a1 5f68 1f3f 21c0
00000520: f57c 2dec a103 8040 886e 1740 6e75 7fc0
00000530: 40ff a136 d25d 8340 cfd2 2b36 8948 95c0
00000540: b0e5 83d1 4b99 7ec0 a79e a5d2 5abd 70c0
00000550: 9a25 580e a0e9 5040 7f94 757e 053e 47c0
00000560: 755c ce57 bf69 8c40 ba1b 6199 f0f8 a9c0
00000570: 2131 d382 3daa 8240 d6ea eb11 82d2 8440
00000580: a0fd 9134 7bb2 5440 f4e6 a73b 6984 92c0
00000590: 1ef8 f2b8 69f4 9640 5b75 0028 18c9 80c0
000005a0: 04b9 1354 e3cf 9040 4562 a2e1 67cf 61c0
000005b0: 3847 c9ce 88e1 1bc0 16e3 6dd6 576d 7a40
000005c0: 4fe8 f25b 75e7 5140 2853 eebf eefa 6540
000005d0: b3d5 df12 14d6 73c0 a065 a864 08ce 9040
000005e0: d230 4957 c6f6 5140 0a5e 9920 83a6 8b40
000005f0: 0593 dae9 8578 7dc0 569d c617 e306 6ec0
00000600: f77a a253 893a 8940 9825 1336 91d0 79c0
00000610: 294d 19b0 d089 8bc0 0c41 bc43 fb4d 8e40
00000620: 3409 ef4b 2836 7940 d6c9 4c7d 5cd7 76c0
00000630: 0211 d85b 5718 8c40 e5e2 6843 353f 61c0
00000640: 9b86 01fc 2b15 b040 28b6 fa5c 31d4 6940
00000650: e0ad 3554 1b03 6240 73f8 e435 bc66 74c0
00000660: 4a0a 511d 7a4a 60c0 9cdd 2f11 2a2d 30c0
00000670: cf2e ad4c 69e7 7740 e9cf d573 a097 7b40
00000680: f3c9 5cc9 5fbc 6640 1023 132b 4171 7b40
00000690: b145 734b 7154 8ac0 905f c45a 1348 95c0
000006a0: 9377 7e8c 0a23 9540 5b61 a110 01e1 9bc0
000006b0: 1640 28d4 08c6 8040 e538 8a75 ca09 68c0
000006c0: e121 87c7 d292 7640 9490 52eb c946 55c0
000006d0: f2a1 4008 3fe8 9940 f064 c43c 1bf6 7fc0
000006e0: 8c97 8ec5 86ea 7d40 25cf 0d31 d91c 9c40
000006f0: 11e3 df94 e6fd a340 20f2 0de0 b0d1 bdc0
00000700: e922 f1c1 ea8b 8ec0 e998 c5f9 38de 9940
00000710: fb75 87cc ec63 63c0 2baf f9b0 e565 7ac0
00000720: 5ec2 07a4 3a6f 8340 1214 8a74 1256 9440
00000730: 6a5c d3e6 5cdf 8140 abfa 6f4c bcd2 8d40
00000740: 5e5a 4243 a9ab 86c0 3ad0 163b d11a 9dc0
00000750: 270f c9e4 04dd 6540 3f4b 533a 26e2 a540
00000760: 0aa6 d113 5c7c 6140 a9f7 1a1c 3dfc 8f40
00000770: 55e0 bc2c 6fed 72c0 08a4 5294 455e 5bc0
00000780: 9639 d3ca 6e99 9140 09f7 3e5c 5a90 a8c0
00000790: ab2f ef97 367c 9f40 681d 21bd 5ae4 a1c0
000007a0: b299 83e3 5b3b aa40 644d 1f42 4246 9040
000007b0: 1434 767e 2370 9040 00fa 735a 27df 8840
000007c0: 6882 538f b484 8d40 c9fc 72b3 48bd 6440
000007d0: a608 2bf5 1047 80c0 f3d8 b791 da26 7740
000007e0: 7b96 6675 4e67 41c0 f458 e37d 2213 9cc0
000007f0: d6f4 8d97 66f5 8f40 9b0a 775c 94df 53c0
