code/results/RRL_model_returns_f__nxt.npy (npy, 22648 bytes, 1 tensors)

array f8 [2815]
00000000: 0000 0000 0000 0000 b061 61bc 70af 70c0
00000010: 9f5c af77 a654 7740 01d4 30d9 81c5 67c0
00000020: 4c32 3ae5 9a9b 76c0 a9bc b392 3ab3 56c0
00000030: f83d 3b4f 570e 87c0 de5b 5b43 3ac3 6640
00000040: 52fd 5b74 7ec9 7840 e384 59cc b0f8 68c0
00000050: a724 4361 abe6 66c0 4073 1bf7 fe34 6a40
00000060: 0000 0000 0000 0000 3a41 7776 cfb1 7c40
00000070: a888 77b9 a2c6 81c0 988f 09ad 803f 90c0
00000080: 2e5a 73f9 99f1 8140 8fc3 89c0 2b8c 8bc0
00000090: 1ee3 083b 2ddf 68c0 f817 d1e1 384b 5440
000000a0: 657b de55 2a24 6740 456e 0b98 9379 57c0
000000b0: daa6 a475 5697 6740 7f52 7fff e691 8140
000000c0: a373 0b4b 786c 6040 36a9 9346 2191 7140
000000d0: e455 6cc1 a7c3 5640 add7 a406 8975 87c0
000000e0: fdc2 5315 2398 8640 cbe3 1fa4 aaec 8ec0
000000f0: f0fe 2f88 33c9 8840 6b89 79dd 9920 91c0
00000100: 098f 2b47 e902 8e40 939b d3a5 41b0 6840
00000110: 61fa cb3a d1b8 6940 3a77 d862 4567 8ec0
00000120: a979 4ce9 104d 9840 cd6a fe79 e9bd 94c0
00000130: ecac 23f1 28c5 71c0 93e3 edd7 c095 8b40
00000140: 535e f545 d30d 72c0 d0e0 11d7 318b 77c0
00000150: e01a eb0e 7f0d 5840 2f08 d719 a91f 8740
00000160: e92e 6c23 f445 8bc0 4e13 674e b928 8540
00000170: 76cf bf42 1eb6 8fc0 5be6 f3d7 8518 8e40
00000180: 3460 174f ac36 78c0 fb71 f184 c822 7240
00000190: 289b 4ca3 b22e 68c0 2297 3c02 0d01 85c0
000001a0: 267b 8b6e 72ce 7040 ca19 302f 97ff 72c0
000001b0: 0000 0000 0000 0000 80e7 7cee 57f7 67c0
000001c0: 0436 da91 0e0f 7e40 3828 0c39 ed11 78c0
000001d0: 1a6d 9549 482f aac0 a2e1 ccd2 ae64 8ec0
000001e0: ab7b 2042 219a 8b40 21cf ebe4 b54d 5640
000001f0: 0cab 7d50 f8e0 88c0 ebbc e60b dac4 8840
00000200: 76c5 95d8 eea7 80c0 57f7 c632 8429 9240
00000210: 475d e8d0 929c 82c0 42af 5c92 75ec 91c0
00000220: b856 2839 6780 7940 674c d3b6 3752 9640
00000230: f5df 5096 477a 6140 dd5f 0a5e 53eb 94c0
00000240: eb93 0c83 9b4f 65c0 e8d8 40e5 4d73 6340
00000250: 1208 4b0d b883 74c0 b265 d6bc be57 84c0
00000260: a758 d4de b114 74c0 37dc c1f5 d527 9540
00000270: 6e9d 6adf fa4e 8bc0 0000 0000 0000 0000
00000280: 8397 2b09 853a 67c0 bcec 2f6b b8e5 8c40
00000290: 4be8 7cd1 fbea 72c0 4584 34a7 7af6 8040
000002a0: e1ae 0679 e828 5240 3fe1 57c8 6d16 8dc0
000002b0: 9987 508a 0bd6 6140 ea0f 2f7a 72f9 26c0
000002c0: c4df 6b02 0767 7d40 56e3 8b78 fbc0 5440
000002d0: 68a5 7136 2294 81c0 db17 c92f cf96 a340
000002e0: 714d c3ad 081a 9140 2ad1 f013 54ba 9dc0
000002f0: fa10 8a60 1aee 86c0 efe2 b90b b537 6440
00000300: 75a8 570e d3de 86c0 dc2e d3e9 73e3 83c0
00000310: 163f e8a1 2e62 4040 397e 2cc7 bf73 73c0
00000320: 8faa ca0b b2b7 6340 75f6 0086 9885 96c0
00000330: 52a6 93a7 507e b340 242d 1047 bcc8 b3c0
00000340: 1d76 ddc3 f1ea 8ec0 128c 323e 5a05 6ec0
00000350: b443 6138 36f9 54c0 18f5 60f8 c8e9 7440
00000360: 32be 3204 8fec 8540 26c5 21e2 a346 7fc0
00000370: d644 22c8 55ef 90c0 add3 f7f9 ec64 71c0
00000380: 2fe5 95cb 9203 98c0 0647 316a ac01 7fc0
00000390: 33ac cb0a c627 92c0 903d c20c b541 8240
000003a0: 2922 b3dd 1f30 5540 926e 9c02 fc2b aec0
000003b0: b8a4 c7df 808d 7840 5cc0 102a 6aeb 9c40
000003c0: 9e5d 82e3 ee35 5a40 ae79 5782 eb07 8ac0
000003d0: 44c1 d32c 4504 9c40 8d32 9bf2 7784 91c0
000003e0: ce89 3d1e 00e3 6ac0 5507 4610 9e04 8d40
000003f0: 3474 deb4 65b9 a0c0 eb12 ae2c 5bd8 68c0
00000400: e91c d619 7cdf 5840 ddfd 9829 c7d9 68c0
00000410: 6162 c4c1 e8dc 9c40 a76f a075 f353 a1c0
00000420: abfd 63a8 9cda 8b40 fa34 a263 47fc 8bc0
00000430: 65fb 70a7 e9b0 6840 aafe 1427 959e 7240
00000440: 6542 d911 fdbe 68c0 110c e6e8 6dc0 68c0
00000450: 4530 f15a 9819 9bc0 b009 f925 9307 8840
00000460: 130d 5861 84e2 8240 c99f a489 b093 58c0
00000470: 06b4 ccbe 20da 3c40 5ab3 9907 a245 82c0
00000480: 5d1e f19b 4231 58c0 2252 c5ea 9b70 90c0
00000490: 0c62 298a 0aac 71c0 e80a d62b 3289 81c0
000004a0: 43e9 f607 895d 8740 0000 0000 0000 0000
000004b0: 70b2 e43d f408 9b40 3a32 0287 5c8e 7840
000004c0: c962 afe8 89b7 a5c0 c520 ec10 745e 81c0
000004d0: 77f7 4dcb 17d7 63c0 7a7e 9ca4 9140 7140
000004e0: 2981 8d51 f046 6440 6400 f8ac a7ab 8cc0
000004f0: 614e 92e8 8bfd 70c0 ce97 caca 49c6 aac0
00000500: 01a4 1f78 8e3c 9540 4268 f766 c7f9 8940
00000510: 355c 2acb ca0f 9240 08d0 eda6 7ad4 70c0
00000520: fac6 36d4 b2b2 9640 28cd 61c3 9328 7740
00000530: 8885 82c5 9b94 6640 fd24 9865 e242 9d40
00000540: 9f52 3c3f 9122 72c0 7944 745a 500e 9a40
00000550: 073c 3077 dd6d 8bc0 344e bd94 5368 ec3f
00000560: 6ee4 80a5 d9bc 9440 90e3 260b 4955 aec0
00000570: 0e52 a961 229b 8dc0 478c 0e69 d122 75c0
00000580: 1ee9 1808 aae6 94c0 7175 7160 cf88 4cc0
00000590: ba73 ab6b b77a 42c0 88e7 ae21 b2a3 57c0
000005a0: d1a7 920a ab65 63c0 951e 24ba 7236 74c0
000005b0: 07ac 0976 90c0 8840 79d3 0597 86bc 6e40
000005c0: a8b5 d5ce 2120 78c0 dcf4 9021 dbc5 3340
000005d0: 0fd0 399d 09a8 6d40 0000 0000 0000 0080
000005e0: d13d c554 863e 63c0 bf05 d531 26f1 8bc0
000005f0: dbf1 3ee8 1926 8340 05b2 54ab c1dd 93c0
00000600: 4262 d938 b08f 56c0 bccf c1aa 3664 73c0
00000610: 570e 3efd 80a1 64c0 0000 0000 0000 0000
00000620: b5a6 f521 244f 8cc0 fbad 231b ac08 86c0
00000630: 39d5 07d8 7af5 6840 66b2 f283 4ee3 96c0
00000640: 0e52 690c 37b3 9640 a90d fa15 a0a5 72c0
00000650: 93f3 f2cf 69e6 8240 c7da 748c 75c0 90c0
00000660: 1a5e fcf2 6ce8 53c0 cce2 f959 cdc7 80c0
00000670: 038c daf8 f154 39c0 7380 6bc6 ad33 86c0
00000680: 60d1 9724 f81d 64c0 7f3d f3aa 243c 74c0
00000690: 1cf9 976f e4d8 6ec0 1dfb 6186 786a 8d40
000006a0: 0000 0000 0000 0080 6fa5 7c42 0073 7540
000006b0: 8caf 5884 e776 7cc0 656c 0560 90e7 7240
000006c0: 8b51 bde0 c39f e8bf 8c91 949e f794 85c0
000006d0: 4257 b960 9f2f 9d40 e625 c484 2153 4e40
000006e0: 0633 54e1 9c1e 94c0 bae7 6049 3917 7dc0
000006f0: f310 e6b6 b257 8f40 e47b 099e ca32 83c0
00000700: bc71 f36f 75c9 8fc0 1830 916f 27e4 8540
00000710: 0000 0000 0000 0080 0311 2e0d dc55 8340
00000720: 02fc d4c8 1a9b 8ac0 de86 c8f3 e3ed 9d40
00000730: 9c5f e80a 5727 9fc0 792d 391b a7e7 9640
00000740: 04e6 b5cf 8feb 87c0 7728 140f 82a7 8c40
00000750: 1668 d53e 627e 9140 2138 e7ad 6851 8b40
00000760: 47f4 3b4d 1613 62c0 b14e 80c5 87ff 6a40
00000770: 915f 5045 dc36 8440 0000 0000 0000 0080
00000780: acf7 9cff d76f 7a40 d772 2d22 c592 71c0
00000790: 02fe 2b09 0aaf 61c0 31aa 370b f4c6 8340
000007a0: 5e55 c99e 37e9 8940 6690 2653 2277 93c0
000007b0: 4458 88c7 2b79 8e40 3990 12ef ca6d 7540
000007c0: 94ae 8193 900e 5140 228d 5f7a 07b2 79c0
000007d0: 6f2a ce17 a468 83c0 df86 add3 2d4f 9240
000007e0: f37f 6eb0 d611 92c0 55f6 ddf5 4111 6e40
000007f0: 8aa2 92ed 12c4 39c0 7b13 78e9 a8b6 71c0
0.0 -266.9650234035462 373.29064148426727 -190.17210063492533 -361.7253162644672 -90.80045001556813 -737.7926315906798 182.10086219638373
396.5933726876584 -199.77158181652257 -183.20842040170575 209.65612368928305 0.0 459.11315008720305 -568.8294553125934 -1039.8756600850957
574.2001828205009 -881.5213633311085 -198.9742713140085 81.17534680766391 185.13016789868848 -93.89963341823848 188.72930414351032 562.237792010026
131.38968422161733 281.07062394790717 91.05711398677482 -750.691907203514 723.0171305221444 -989.5833208552734 793.150162100761 -1096.150258921635
960.3639052775408 197.50801364259368 205.7755407318064 -972.9088799392114 1555.2665149640327 -1327.4780044319807 -284.32249559341176 882.7191618523669
-288.86408038947155 -376.6996679972044 96.21088002166243 739.9575688170788 -872.7442081882301 677.090481572415 -1014.7647757516086 963.0653533034014
-387.4170676148526 290.17395490946336 -193.45930638277173 -672.1313519223806 268.9029374550322 -303.9744102362571 0.0 -191.72948383708354
480.9410570644252 -385.1204157328498 -3351.641186399048 -972.5853630071981 883.2662394082776 89.21422694233162 -796.1212472741913 792.6064680124667
-532.9916240406881 1162.3790999496903 -595.571687522265 -1147.114816139409 408.02520099408457 1428.5544083609946 139.82123866840234 -1338.8314134236346
-170.4877333875332 155.60325873055922 -328.2324345522803 -650.9681336164269 -321.29342539737485 1353.9589453020724 -873.8724964455885 0.0
-185.82873972429306 924.7150481933709 -302.68647908012343 542.8098892310014 72.63918901112221 -930.8036047807326 142.68890872696355 -11.48720151733865
470.4392112935859 83.01534856472912 -562.5167054060557 2507.404661449587 1094.508475352861 -1902.5821073177017 -733.762879446643 161.74085031801175
-731.8530546997341 -636.4315983294177 32.76704810943754 -311.2343208063135 157.74048413832904 -1441.3989486837793 4990.315057018381 -5064.735459338208
-989.3680493642493 -240.1672659861802 -83.89393434046252 334.6115649974249 701.569832226209 -500.415010578074 -1083.8337712625994 -278.3078555756318
-1536.8933547421582 -496.1045934605503 -1161.9434005569317 584.2134032416379 84.75194494718075 -3861.9922074208234 392.8439634131023 1850.8536760919005
104.84270560961747 -832.9899947008141 1793.0675538145742 -1121.1171364068607 -215.09376441973876 928.5771794768322 -2140.698645545659 -198.76112970351036
99.49194951924768 -198.80556182748015 1847.2273016629263 -2217.97550679553 891.3264930545605 -895.5348580048005 197.5285222250633 297.911414224635
-197.96839229997127 -198.01341671877938 -1734.3987844167434 768.9468497711259 604.314638793849 -98.30765000416353 28.85206215379369 -584.7041160590991
-96.76969049975146 -1052.1522627669697 -282.75257316746934 -561.1494976732329 747.6919097223221 0.0 1730.2385173543844 392.8975896917142
-2779.769353371438 -555.8066729018689 -158.72165456035484 276.03555737619865 162.21683576238254 -917.4568728804702 -271.84665734434935 -3427.144125300437
1359.1391301101542 831.2223643616383 1155.9480406397608 -269.2799443521076 1452.674637657065 370.5360750027053 180.6440150784731 1872.7210906765533
-290.16046069682665 1667.5784700552742 -877.7331374901122 0.8877351670329916 1327.2125454081938 -3882.64266320732 -947.3917878368536 -338.1761255806236
-1337.6660465137752 -57.06882863559702 -36.95872255202944 -94.55774728851804 -155.1771290649763 -323.40300954922833 792.0705376392006 245.89142943513778
-386.00825389366446 19.772874925508276 237.25117360393094 -0.0 -153.95389784358716 -894.1436497347239 612.7626500051077 -1271.439130137792
-90.24513074139489 -310.26334644038775 -165.04699575538936 0.0 -905.8926428977489 -705.0840361392469 199.6712455895411 -1464.826675216807
1452.8037582832653 -298.351583458682 604.8016661625464 -1072.1147936113864 -79.63164972920677 -536.9752692720735 -25.331817201000387 -710.4598511122298
-160.93654088642052 -323.7589520932742 -246.7778852432465 941.3088500647315 -0.0 343.18756340684826 -455.43152269976486 302.4727478229382
-0.7695025815433366 -690.6209079367559 1867.9056424102314 60.649460407042895 -1287.6532033115523 -465.45148599485003 1002.962262914078 -614.3489342442449
-1017.1823424357494 700.5192557661821 -0.0 618.732447013754 -851.388078369084 1915.472609647018 -1993.8350025471073 1465.9131897863392
-765.4452203951664 916.9385053229188 1119.5959428162364 874.1761129440312 -144.5964723750096 215.9853236680988 646.8575540808835 -0.0
422.99023400607507 -281.17312829736096 -141.46997507660132 632.8691620205701 829.1521583298852 -1245.7835203195223 975.1463766719758 342.86204440356556
68.22757423080685 -411.12682568859793 -621.0801235300731 1171.7947527993745 -1156.459657408294 240.53930180885314 -25.76591381864504 -283.41623827843404
