code/results/RRL_model_returns_f__dash.npy (npy, 22600 bytes, 1 tensors)

array f8 [2809]
00000000: 0000 0000 0000 0000 a087 a8dd 15ec 0540
00000010: 68a7 8958 e4bf d0bf 06ff 38ba 4c11 06c0
00000020: 3a8a 67d0 94ee fd3f a92f 7ead bede 17c0
00000030: 4c1f 9152 9f8f 09c0 6a51 fe40 5e5c 0ec0
00000040: ece1 e686 aa3f ffbf fc91 13f5 625c 16c0
00000050: 2f40 3082 0df2 ba3f 8ad5 507f 5bf1 d6bf
00000060: e27a 692d 0a3f 2040 a08d 2b06 fd2f 11c0
00000070: 6828 44e2 e573 01c0 172e 069e 7de4 f0bf
00000080: 3a2d dccd f938 ecbf 10de 5cd0 8e7f acbf
00000090: fcdc 7e79 4d3c 0040 35b9 f40a 3557 00c0
000000a0: 89e1 d84c 055c 02c0 33f0 d20e 73f0 0340
000000b0: 8ce3 9194 e51c fabf 4080 efee b853 1b40
000000c0: 8404 daf0 f543 02c0 88f8 2c43 a153 1ac0
000000d0: 1301 f957 c3f3 2240 8481 73c9 e096 2dc0
000000e0: 53c6 2fc9 1f72 debf 1b07 a6e1 eeff ff3f
000000f0: f5f8 a982 450f f6bf 0cda 1e92 5db6 e7bf
00000100: 9c0e 543f d976 0ac0 5c11 0115 d334 a9bf
00000110: d08a 9bc5 91b1 f53f e1d5 b05a cc83 f03f
00000120: fa61 68e8 9a0e 01c0 8759 d038 e664 f73f
00000130: e3cb 614d 8bb6 24c0 ea58 0dfb 524e f5bf
00000140: 37de 08bc 7620 0640 5dd6 8bea 0fa8 fcbf
00000150: 8628 d49d a60e f03f 66f0 e435 d8ac ea3f
00000160: 00dd c2f4 c50d dc3f 662d 3770 2ebb 0140
00000170: 58b0 5faf f276 e0bf 0802 7e88 472d 04c0
00000180: 9ddb 7f34 b144 0040 88cd d029 4400 f0bf
00000190: b240 4705 3f4b 07c0 920e baba 4572 e13f
000001a0: e7b1 67d7 1fb1 05c0 7332 3064 1ca4 cebf
000001b0: ddf2 6826 d94b c3bf 6f5c d4f3 6efe 0440
000001c0: 7c31 a6a2 3856 0040 cf72 f65c 5e63 20c0
000001d0: 0436 da31 3fc2 0f40 9234 1367 0adf febf
000001e0: 8f3e 983b 5354 f9bf 9b30 a564 5d5f 05c0
000001f0: 6e51 7fcc 352e f03f f643 875b 535a e43f
00000200: bf56 3e21 b7dd d4bf d05b 7745 e2d2 0140
00000210: 5d66 5926 e069 febf 3010 6a45 c4a5 f5bf
00000220: 58e8 418b 65fa f0bf 50b4 8d36 dd36 0c40
00000230: 6768 b904 917e f4bf 92c7 f6e5 d80e 0340
00000240: 1106 9887 318c d0bf 2cce e789 c3e7 fa3f
00000250: ec3a 9670 ac82 04c0 fa80 cc22 8420 0840
00000260: ef6e 506c 3c8e c3bf d7da 34cb 2815 18c0
00000270: 2b5e 3cfb 76fa eebf 04fb 20fa 2619 cd3f
00000280: d283 c0e7 5320 f8bf f43f 47dd 8c70 0a40
00000290: fc79 ab87 a9e9 f93f 34f7 454b 3f23 d7bf
000002a0: cef1 3629 bf50 17c0 868b fe4c 17a5 0f40
000002b0: 35e7 6bdc 8b0a 04c0 0b8b bd24 a069 23c0
000002c0: e54b 9b1b 08da 2140 9147 b767 d30c 09c0
000002d0: dd84 c9d1 1c34 01c0 3572 28eb 77a5 ddbf
000002e0: b64d ed49 55f0 dcbf 05c9 2689 f8ac 0540
000002f0: 5d91 aa2a 0154 ebbf e6b2 490b d3d4 fdbf
00000300: 76c4 a330 876e 29c0 d09c e4a3 dda6 d1bf
00000310: c906 c93a c1fa 0c40 b04c 3936 8fd8 0440
00000320: 3ef3 9020 a6d5 e0bf 0845 2bc5 6090 e73f
00000330: e73f 1ed2 fb2d fc3f 2e15 9113 0678 03c0
00000340: 6a45 8e38 daf0 00c0 4eea f5eb 367d f9bf
00000350: 35a0 d2f5 e938 fb3f 601c 47d7 37bc 0a40
00000360: eaa3 6c93 22ce 0340 8ac0 fcb1 a0ba 0740
00000370: 4acb 088c 1e6b 02c0 2d8a 6731 5161 2b40
00000380: f545 324b 8fb4 12c0 e4c6 73f6 7395 ffbf
00000390: d1a3 a82d b1f2 35c0 05bb 89a1 bd19 2e40
000003a0: ecaa bf80 213c 0440 cd63 314e c736 1b40
000003b0: 1c3f 5f8b fef9 a7bf 0e15 e030 7440 1940
000003c0: f088 755b 6374 0840 e0af 71d8 232b 2740
000003d0: dcb6 be43 6f34 f7bf b2ad 1188 d775 2ac0
000003e0: 9f0d eab5 0eeb 0240 684a 3818 5367 e0bf
000003f0: e2a5 bd91 562f 1f40 61b6 cc98 09d7 e2bf
00000400: 2efd a674 74c7 2ec0 4487 656c 0759 0340
00000410: 8728 6573 341a 1cc0 0020 113c 1e02 1d40
00000420: 1a73 1d30 2720 e43f f4c6 e521 3d0c e7bf
00000430: 99b5 7b35 55c3 01c0 a49e 4034 5c6e 01c0
00000440: 5b89 a4c9 777c 0fc0 f8e5 cdc2 1c59 1a40
00000450: e68d c361 9140 f9bf 7859 c969 8b94 ef3f
00000460: 476d 5244 e5af 0a40 58e7 d0cb 281c d53f
00000470: 4e34 4489 40cc 1cc0 c2bf 43f5 ef48 1040
00000480: 1279 719a 61cc 1cc0 72ec 73ba a8a9 fbbf
00000490: 5c9b 3e02 2f6c 1840 97d9 1466 839d e9bf
000004a0: 6fe6 acb7 9f92 08c0 1a7d 30e1 2b55 10c0
000004b0: 23e0 0ab2 f6e7 03c0 16d4 6ed5 eb51 13c0
000004c0: dde8 464d d17a 0240 5a16 80d5 4948 f1bf
000004d0: feea df39 beb3 fe3f 34d2 5c00 c94a 1d40
000004e0: 926b 8bb6 2212 30c0 1d8b 80b3 4090 14c0
000004f0: b95d 4d7d 74cc 0840 88f2 30cb 859e fe3f
00000500: 0df9 0875 ea7c 2c40 c352 bf92 9800 2bc0
00000510: c878 ff70 36fa 1740 9735 1db6 1083 00c0
00000520: 53f6 ca28 dd04 0240 ea35 19a5 8ff1 0fc0
00000530: 4ef2 71d5 a202 0140 5b38 7e21 1e7c 2c40
00000540: 3dfd 2776 c1bd 24c0 8470 4b9a 26a2 2dc0
00000550: 2999 1fd0 3d30 bdbf f4a0 1539 adb0 d1bf
00000560: bc6e 9747 e628 02c0 e229 43bb 96c3 10c0
00000570: 8618 4f06 572b eb3f bb9b 3d3d 789b f2bf
00000580: e9a6 3913 df18 e3be 36f9 8327 3da5 d0bf
00000590: bbcd 03a3 4152 843f 71c9 c9a1 36e1 0040
000005a0: cff9 ba2c edea c13f 5bcd d06b e414 02c0
000005b0: 168d 1fa7 c7a3 d03f 3861 cc44 2100 f83f
000005c0: 45fa 3620 5585 03c0 dd3c ad65 e185 f33f
000005d0: 3fa0 d563 c485 fb3f aada f7e2 7a19 9ebf
000005e0: ebbd d977 7a9a 0fc0 dcf4 54a5 1dae f33f
000005f0: e401 a9cd 2500 0440 8ce4 6435 bdcf e23f
00000600: 08d1 f333 8030 1ac0 b987 d3a4 34e5 f2bf
00000610: 4f01 4edd 937e 0240 fad4 76d2 1979 c43f
00000620: cc64 ee26 bc28 f83f 4cc9 8c54 c826 e53f
00000630: 2f25 5a1b 1e92 ecbf d53d cc5a 88ac 0ec0
00000640: 52e6 2dc6 d700 0140 df7c b132 5c50 c83f
00000650: 2798 c557 cee1 17c0 f618 7a20 64cd dcbf
00000660: 1434 3c31 bc98 0b40 10fa c6a4 e5e4 fa3f
00000670: e335 4d94 ca61 e8bf bd21 940f 3df1 debf
00000680: b857 224c 11e0 b9bf 2856 3e7b c5e8 dcbf
00000690: 028d c28d 0d5a e13f ce18 4169 35a7 e1bf
000006a0: 3ecf f26e 03cb 1a40 1fbf 9775 5de1 f2bf
000006b0: 941d e48d 0713 9d3f b2a1 eac4 cec4 0bc0
000006c0: 9aaf ecf1 6100 0a40 0d30 2ca4 b570 e5bf
000006d0: 6e13 a16b 1463 bb3f 0316 caa2 8101 fa3f
000006e0: f2ee d2ed 9bfa 00c0 6531 d5e5 3bbd d9bf
000006f0: 6380 4c07 25e7 d0bf f9b8 249b db85 f73f
00000700: c06f 9dff b80f c73f 9b44 9319 7e91 cbbf
00000710: 94c0 3d30 0861 11c0 9e01 8676 cb6d 15c0
00000720: 0307 c7e1 8995 0540 1a5d f13f 62f7 f23f
00000730: 628e 2b73 22fd 07c0 7494 e250 0f0e 0740
00000740: a537 b00d 2a85 ddbf 8412 fd86 c14c f4bf
00000750: 79f7 5132 897a 0c40 54e6 badd 33a9 0740
00000760: 4306 8a96 24c8 c7bf 8d4c 63ab 2708 fbbf
00000770: df30 d806 7a06 1440 883f 482b d65c b93f
00000780: 9084 0baa ef8d a6bf 16a6 e242 139b 1240
00000790: 4be7 e45c 361a ebbf b9f1 c30f 408e 05c0
000007a0: 9bc2 121b 4808 dd3f ee62 2299 352d f5bf
000007b0: c306 8eee 5fda 12c0 7e54 0d74 398d cabf
000007c0: 3469 4060 cc1a 0640 9526 abcb e3e8 30c0
000007d0: 1937 47c6 3f44 3cc0 43bf c3af 36ab d9bf
000007e0: d7ae 8bdf 1a7d 2040 c47f 14c1 404e debf
000007f0: c4de 7720 152b 0dc0 250e 9a3c 1035 fdbf
0.0 2.7402760808044633 -0.2617121567369538 -2.758447127212892 1.8707473889159147 -5.967524252726357 -3.1951281023538396 -3.795101650010271
-1.9530434865574717 -5.590221242255662 0.10525593212537453 -0.3584812873189881 8.12312452232931 -4.2968636478503015 -2.181590812401783 -1.0557838604753493
-0.8819550533966443 -0.05566068929186596 2.0294446460571844 -2.0425816398557353 -2.294931984299357 2.4924069555400137 -1.6320548823843835 6.831760152214031
-2.2831839386495307 -6.581669854755212 9.476099728723545 -14.794683738088459 -0.475715586158093 1.9999836744686437 -1.378728399663996 -0.7410114149013807
-3.3080315539862806 -0.049231144250856146 1.3558519095465051 1.0321773092849684 -2.1321314007620886 1.4621336192409176 -10.35653154200367 -1.3316221052860393
2.7658514681059176 -1.7910308038675773 1.0035768666444098 0.8335991909621157 0.4383406534429497 2.216397167858008 -0.5145200181264142 -2.5221090949492044
2.0335411168593525 -1.0000650056288993 -2.911741296040497 0.545199265194656 -2.711486513950365 -0.2393832673264061 -0.15075220466123698 2.624235062521215
2.042100210854356 -8.194079308589975 3.9698470968930923 -1.9294532801025395 -1.5830871894758365 -2.671564852038569 1.0112817753007124 0.6360260760940253
-0.32603243109165797 2.2279706408548705 -1.9008485315338455 -1.3529703818794694 -1.0611319961303902 3.526789118003343 -1.280900019125079 2.382249638169875
-0.25855673066698254 1.681582964604682 -2.563805465302144 3.015877029291116 -0.15277819908884946 -6.020663428402904 -0.9680743128728343 0.227330085881441
-1.5078925183117815 3.3049561774605483 1.6195464419939745 -0.36152632094296 -5.828854221323537 3.955610848920915 -2.5051495762280873 -9.706299923074331
8.925843107897842 -3.131262598305462 -2.1504455937980382 -0.46322439160011025 -0.4521687719290769 2.709458419319278 -0.8540044625592987 -1.864459079831414
-12.715875167838231 -0.2758096790807487 3.6224388687704487 2.605741904853481 -0.5260801921900577 0.7363742686231101 1.7612264831295705 -2.4336053398752915
-2.117603723375102 -1.593069955559844 1.7013949968768547 3.341903383119231 2.475651885750712 2.96612681439007 -2.30230435754621 13.690072578324441
-4.676327872222363 -1.973987543777576 -21.948016027137616 15.050274894774256 2.5293607767574624 6.8034946649213 -0.04682918025321056 6.312943233181853
3.056830133938199 11.58425785434514 -1.4503014227188293 -13.230159999998111 2.3647741519977923 -0.5126128647846828 7.796228673172182 -0.5887496933334654
-15.389560361275098 2.418471190307999 -7.025590708779538 7.252068460984447 0.6289249362704112 -0.7202439939557892 -2.220377366864977 -2.1788868028850903
-3.9357753518426484 6.587023776833568 -1.5782636469747273 0.9868828836577412 3.335886510625332 0.3298437109366339 -7.199464936054097 4.071227867374491
-7.199591077018583 -1.7289206775010624 6.105648074218006 -0.8004776948717333 -3.0715936994209225 -4.083175200066103 -2.488263503033538 -4.830001196755822
2.3099695241227054 -1.080148538575847 1.918882585595099 7.32303238455329 -16.070842179334768 -5.140871815415065 3.099831561015631 1.9137018143802909
14.24397626623661 -13.50116404138078 5.9943483024528135 -2.063996718183897 2.252374952978053 -3.9929497621840158 2.1262871432684625 14.242417380006534
-10.37061661947393 -14.81670076533215 -0.11401735621584365 -0.27640848707825616 -2.2699704735840367 -4.191004682516423 0.8490405200216322 -1.162956465932196
-9.106232574402017e-06 -0.26008538111627233 0.009922516619986213 2.109967483492419 0.1399818867120772 -2.260201303777348 0.25999633141164347 1.5000317275462987
-2.4401037709024274 1.2201856586214526 1.720157995203422 -0.02939407358459315 -3.9504289019894165 1.2300087412143546 2.5000721041871987 0.5878587763646848
-6.547364055401211 -1.1809584082152311 2.311805466597583 0.15994570519038814 1.5099450608016012 0.6609841967931884 -0.8928366216870581 -3.834244450910527
2.1254115565068696 0.18995239711055142 -5.970513698039247 -0.4500360791356707 3.4495776983735684 1.6808830677615596 -0.7619374176517194 -0.48347403069831413
-0.10107524975532456 -0.4517072394895387 0.5422427910565661 -0.5516612106082677 6.698255284852904 -1.1800207704035939 0.02839290431532289 -3.4710975059608353
3.2501868152957742 -0.6700084883209471 0.10698058726945955 1.6253677710495829 -2.1223677234646567 -0.402174925275878 -0.26410794937874565 1.4701801357546727
0.18016731721115598 -0.2153775811080195 -4.344757798928317 -5.357221462182137 2.698016895185789 1.1853964326636004 -2.998600864187936 2.881865150370283
-0.46125270210984076 -1.2687392495146534 3.55983199417727 2.957618458048083 -0.18579537725968195 -1.689490956767972 5.00632487005734 0.09907282406515894
-0.04405163717979932 4.651440663417381 -0.8469497503603888 -2.6944581252739366 0.45363047260165396 -1.3235374433335738 -4.713256575983624 -0.20743482748608594
2.7630851287514364 -16.909725884709207 -28.26659812201169 -0.4010750500155959 8.244345651436943 -0.47352618079639464 -3.6460363899785495 -1.8254549376732794
