code/results/RRL_model_returns_f__nxt.npy (npy, 22648 bytes, 1 tensors)

array f8 [2815]
0	0x0000000000000000	0.0
1	0x40725b5a78a04ad6	293.7095876943034
2	0xc084cb93fde83a1e	-665.4472616331802
3	0xc091e5d889835d16	-1145.4614620709958
4	0x408a5fb1974b28ff	843.9617143508802
5	0x4095c48b793c8724	1393.136204667805
6	0x40870b96bf352cf1	737.4486068872776
7	0xc06a111feb3fb167	-208.5351463550571
8	0xc0821908841a8bb6	-579.1291582178008
9	0x407be1cb6c6119a0	446.1121639054272
10	0x4060e368c18114af	135.10653758250325
11	0xc076298b04ebbc77	-354.596440239758
12	0xc07477f1af212981	-327.4965049071689
13	0x409433635daf6818	1292.847037068108
14	0xc0a6d7b2b84e5900	-2923.849062393536
15	0xc0ab6351546f00e7	-3505.6588473023035
16	0xc08311388d42481e	-610.1526131799944
17	0x4092ae7d1fb62b49	1195.622191282646
18	0x40703ee055948188	259.9297691155448
19	0xc08cb7ec12f8b36a	-918.990270560241
20	0x40818889484ad9c0	561.0670324180319
21	0xc071c1de67aa246c	-284.11679808103395
22	0x4081b2a7be5cbadd	566.3319060558821
23	0x4096e098d7ac0779	1464.1492602233468
24	0xc093bae5456ee24b	-1262.723897678911
25	0x408a40b10a5affd1	840.0864455327338
26	0x4071195b00ea3c6f	273.58471766947235
27	0xc0a1d0cc7e67f81b	-2280.3994019022334
28	0x40a2ffdb757a0157	2431.9286306501995
29	0xc0ab30e536499180	-3480.4476798048127
30	0x40a3781c26b89472	2492.054982917901
31	0xc0aabe8e028fe551	-3423.277363297217
32	0x40aab932d6b67194	3420.5992943776746
33	0xc08e20ea81ae60d8	-964.1145051596932
34	0xc0a73860a6d06bee	-2972.18877269094
35	0x4091bbc4ad58c02c	1134.942067515115
36	0xc0986af8e2140d4c	-1562.7430499203792
37	0x4095dece03ae32e4	1399.701185914856
38	0x407124253260172d	274.25908124480594
39	0xc090bdbe8d5c68e6	-1071.4360861243272
40	0x40722a993b712a88	290.6624102039864
41	0x40786fa2b97444f0	390.9772276441354
42	0xc05a4322226dc8f4	-105.04895840378941
43	0xc089a31b9be886d6	-820.388480965247
44	0x408b45409f9a0597	872.6565544159847
45	0xc0857a42932f4379	-687.28250729489
46	0x409139fa9539398b	1102.4947098676082
47	0xc08e19138d68fbde	-963.1345470620979
48	0x4078385a54e7aa82	387.52205362791585
49	0xc0722b0e40a9b763	-290.69097963614894
50	0x4068383a48c9747f	193.7571147856397
51	0x40810271a7ff477c	544.3054962104502
52	0xc09747dc0e9c68c3	-1489.9648994864408
53	0x40821f5b92deea8d	579.9197137275056
54	0xbfb97098ac90513f	-0.09937433445913245
55	0x4067fce18a8e09e3	191.90253188840788
56	0xc07e12e829189b7e	-481.18167981731665
57	0x4077d391e42b66ab	381.22311799005064
58	0x40ab4b0a5f06cc3b	3493.52025624507
59	0x408e64a1d78ad0ce	972.5790243954632
60	0xc08b9bb7682f154c	-883.4645541838049
61	0xc0565f1ff98272d7	-89.48632657755967
62	0x4088ecfd10bc2ed6	797.6235670759004
63	0xc08915da8bd7762d	-802.7317120392742
64	0x4080a7db5d05e0ac	532.9821110209646
65	0xc092519bbb6b6e65	-1172.4020821367387
66	0x408463423ea8f509	652.4073460769442
67	0x4091b9b5713f688b	1134.4271898181494
68	0xc07e0e81ae0e2b2a	-480.90666013273824
69	0xc096efdfac9ff3e0	-1467.9684319489097
70	0xc06fe6e7045268d2	-255.2157003030357
71	0x40950a1d81dfbd0e	1346.5288157424106
72	0xc036ddc4558fa260	-22.866277072493517
73	0x4099f9fa90398177	1662.4946907983083
74	0x4072e83aca646ea5	302.51435317260103
75	0x40949ed4613b9f03	1319.707402164059
76	0x407551e2422af438	341.1177388837709
77	0xc09559a3082fc5f4	-1366.409210916955
78	0x408ec459cabf15b1	984.543843739366
79	0xc04588083ece1821	-43.06275162757107
80	0x4070d148cb1aca23	269.08027182068525
81	0xc08dd7e6b73f374a	-954.9876542032955
82	0x40774f7974acd065	372.9671522856282
83	0xc08e56a9e872e149	-970.8329628920557
84	0xc0582e73e316a600	-96.72582318507921
85	0x408c57f86cc94ee6	906.9963012435153
86	0xc0770638e5afa95b	-368.3888909208087
87	0xc0715717c289db1c	-277.4433007607456
88	0x409ac0f569373c20	1712.2396591787765
89	0x406e6e5098064f30	243.44733811600008
90	0xc09b30a8767f0574	-1740.1645145270422
91	0x40bd9ad6fcce8b58	7578.839795025844
92	0x40a9bc7c8b5f0947	3294.2432508181405
93	0xc0b64d733c8f9c66	-5709.450142837222
94	0xc0a3ff8342ca262e	-2559.756368939553
95	0xc06909b1decd34a5	-200.30296268538692
96	0x40904cdfa329bc96	1043.218395855079
97	0x407d1e25a0ffc070	465.884186743765
98	0x409689fb2416ac66	1442.495254854462
99	0xc08d79e974244328	-943.2389910538668
100	0x407c6ac348c11f44	454.6726768058618
101	0xc0b231e58839c442	-4657.896609888472
102	0x40cda2cccbeecf28	15173.599973536635
103	0xc0cdbf4ccf0fc61e	-15230.600069019067
104	0xc0a745ca968c66fa	-2978.895679843493
105	0xc087673027493bbe	-748.8985124322278
106	0xc06f78e71d085b34	-251.77821208602984
107	0x408e3ce39125d9d2	967.6111166913126
108	0x40a3c089bd6f3539	2528.26902339482
109	0xc09a395c4b1e6557	-1678.3401303052285
110	0xc0aa95a71a094dc7	-3402.826370516533
111	0xc0a5195a1cf59280	-2700.6760021916707
112	0x4092e7da141c7e81	1209.9629673435413
113	0xc0a10abe72cc7cda	-2181.371969595185
114	0x4094d3dd0b44fef0	1332.9658633022882
115	0xc088d32d43f6ac9f	-794.3971022864752
116	0x4092e91a1f82fbb0	1210.2755108324163
117	0xc0d53d0d617de167	-21748.2090754224
118	0xc0847e99510d6b96	-655.824861626478
119	0xc09cf206bb75dd32	-1852.5065744796998
120	0xc05a3e7e08ce27e2	-104.97644252903368
121	0x4088e7f802d31888	796.9960991374837
122	0xc0a4ca02a65e38c9	-2661.005175537521
123	0x40a50951eb050c03	2692.659996183125
124	0x409455c5fac9f10a	1301.4433394959801
125	0xc08d04b5f5aabb09	-928.5888474787072
126	0x40a0b8c20a8ec9d3	2140.3789867993705
127	0x4068e701656fe863	199.21892043930993
128	0xc058e1c8d94a64f8	-99.52788383736686
129	0x4067ebbde30db6ea	191.36692955664267
130	0xc09f4117b966d5af	-2000.2731681888506
131	0x40a151f552d0829b	2216.979147449439
132	0xc08c2759443a3aff	-900.9185871648077
133	0x408bfb8cf47a03bd	895.443825677146
134	0xc068b9a5bf2e7e45	-197.80148276406013
135	0xc072abdb804320a6	-298.74108911725705
136	0x4068d9bcc66cbb76	198.80429383503696
137	0x406897335404ca73	196.72501564918238
138	0x409b758df4cd2cb5	1757.3886291559731
139	0xc0894b32ba7ebfce	-809.3997697737011
140	0xc08ebd84b9bbc991	-983.689807383622
141	0xc0665f14521b7167	-178.9712305580135
142	0xc044e2ee499bbf78	-41.772896958397666
143	0x408245795c54d12b	584.6842581392606
144	0x40583145c3414de6	96.76988297822354
145	0x40906fbf354cf587	1051.936726763235
146	0x4071b2b13e41e199	283.16827226385936
147	0x408185cbea35eca2	560.7245678150978
148	0xc08782959a6db926	-752.3230484554413
149	0xbf14aa9a95a62a94	-7.883614072149776e-05
150	0xc09b08f43f572e00	-1730.2385228750063
151	0xc0788e5c8b1acd43	-392.8975935980745
152	0x40a5b789f58e33ca	2779.769451564619
153	0x4080a6823195cbe5	532.8135711386536
154	0x4066dc6b795baa24	182.8881193914723
155	0xc072b9af7dd05d39	-299.6053445948815
156	0xc06ce8fbb93a7cbb	-231.28072797225272
157	0x408cac630ddf18cf	917.5483663014837
158	0x40708c8ba8c37afe	264.78409649238154
159	0x40acd5e8ecf68346	3690.954932883763
160	0xc0955b4529453518	-1366.8175402463585
161	0xc08c8e8f3e51b14e	-913.8199430830225
162	0xc0920fcba000900c	-1155.9488525474471
163	0x4070d141b6ef545f	269.0785436009227
164	0xc096bf7a4af0d112	-1455.8694265010458
165	0xc0776cdb60553bfc	-374.80355866713194
166	0xc067fba2117de16a	-191.86353373132744
167	0xc09e3cfb46c78a5d	-1935.2453871896935
168	0x407227cb1222e3ab	290.48707784298557
169	0xc09a221a9810a181	-1672.5259707068037
170	0x4086a7924fbe83c7	724.9464411624875
171	0xc0a5e2aec06d8f50	-2801.341311858887
172	0x40b80cf372d80abb	6156.950971129055
173	0xc0c7feb938d16e2b	-12285.447046450417
174	0xc0a87b6f2e46bf8c	-3133.71714993561
175	0x409059d95e5739b1	1046.462273943802
176	0x4091fb51ab90974a	1150.8297560303058
177	0x409bf554407e171c	1789.3322772695165
178	0x4076081594bc3985	352.5052687981154
179	0xc0819d08b4276388	-563.6292498662233
180	0x40813b3435f0a920	551.4004935075391
181	0x407ae0e273155eca	430.05528553340685
182	0xc0906471e3393582	-1049.11121835126
183	0x409868e8e4d04557	1562.2274353544542
184	0x4068dae8c180aa71	198.84091258173024
185	0x40894c99f925e126	809.5751822432837
186	0xc083cbaf5af5e00b	-633.4606227120397
187	0xc062bae9e7e51eb7	-149.84105295896526
188	0x409e322bb46f4011	1932.5426804907659
189	0x40a47b2263a529e6	2621.5671664823194
190	0xc0856ca6ec045cff	-685.5815048542862
191	0x408c6ac4d8e0d30a	909.3461167873768
192	0xc072714a13a98f70	-295.08058515772336
193	0xc0906c8cdd8c41e2	-1051.1375638880932
194	0xc08bee7ad091d398	-893.809968127508
195	0xc00619ba26a57994	-2.7625620860337197
196	0x408c542c199cef97	906.5215332279794
197	0x407c72b59939c107	455.1693355804459
198	0x40900e8f5d82922c	1027.640005150005
199	0x409825fb91fb5a8a	1545.495674064065
200	0x40bb1012a0ff1711	6928.072769110805
201	0xc01cf58d0cf2d6c0	-7.23979587776347
202	0x409cfa1396b6e520	1854.519129617438
203	0xc0a99754bc1f1450	-3275.6654977524086
204	0xc06eed4eb152b83e	-247.41585603862944
205	0xc09c223edb0e25b8	-1800.561382504513
206	0xc0813f0a9ff73ad4	-551.8801879229381
207	0x40855b869fc69acd	683.4407344356529
208	0x4073a02cf79efeb9	314.0109783373587
209	0x4079acd95573ee30	410.80306000981636
210	0xc093eec27ec49374	-1275.689936706066
211	0x40a4e06395e704a0	2672.19450303966
212	0xc05f32a38621b0c2	-124.79123070993504
213	0xc08e5ead4d95d46a	-971.8346206384133
214	0x406c07b6f4df04e0	224.24108356054694
215	0x4096ad686bfcc6c6	1451.3519744392702
216	0x4060e3e2fc26994f	135.12145812548485
217	0xc0a080fe3ec416c0	-2112.4965726163646
218	0x40b91a2f17eca339	6426.183958806848
219	0xc0992970ea3fa03a	-1610.3602685872597
220	0xc0ae463877b55c63	-3875.110288302925
221	0xc095d45960a65bb3	-1397.0872827523679
222	0x40a781c01e2d3b5c	3008.875230229851
223	0xc09ccd90ac08bf63	-1843.3912812582792
224	0xc0a7da1db6e9af58	-3053.0580361391585
225	0x40a081da2df08f53	2112.9261317419964
226	0xbf9a246ba52e2135	-0.025529558140562975
227	0x409d004379831b63	1856.0658932195154
228	0xc0a3fc297031973f	-2558.0809340951087
229	0x40b67272fd539c22	5746.449177957171
230	0xc0b75d93ed6b0deb	-5981.577841463945
231	0x40b12dcc674fa980	4397.798451403505
232	0xc0a1f0af27a4e748	-2296.3420993358923
233	0x40a57da2841f6f3b	2750.817414266899
234	0x40aa3d453fa40693	3358.6352511652017
235	0x40a480a77128d7af	2624.327035213784
236	0xc07b266c9e1f53f5	-434.4015179847477
237	0x4083cf3f24a69a68	633.905831624591
238	0x40a01da46b3d3fc7	2062.821130670581
239	0xc0082db234c029fa	-3.0223125573295393
240	0x4093d302cd33e97a	1268.7527359114888
241	0xc08a63480b03c7bd	-844.4101772589999
242	0xc07a86b20d7c076c	-424.4184698910601
243	0x409daa9dcd1bf6aa	1898.6541027421285
244	0x40a36e1e46b2bfa5	2487.059133134741
245	0xc0ad45ad7b90c07a	-3746.838833354469
246	0x40a6dc44d3fc93c4	2926.1344298296335
247	0x409012c9fe8d6615	1028.6972601026112
248	0x4069964e2f02d280	204.69704390097831
249	0xc093493d60b4dfed	-1234.3099392186807
250	0xc09d3c47b2c8cc39	-1871.0700179457328
251	0x40ab7268aee5c9fe	3513.2044593628952
252	0xc0abb5afbfe8576b	-3546.843261013671
253	0x408930f5c714a21a	806.1200086223573
254	0x4083c2319785933a	632.2742147861056
255	0xc093afbdfa009144	-1259.935523995272
