code/results/RRL_model_returns_f__nxt.npy (npy, 22648 bytes, 1 tensors)

array f8 [2815]
0.0 -270.5218493176898 230.37324746730147 -287.650777771604 -420.2642647668691 -180.82666340822627 -738.4239535150605 169.402508064365
367.28979634077007 -246.46073208866227 -206.48354922054034 203.89445130473013 -164.2386790663696 414.32934032955177 -636.680082307048 -1232.876242736984
558.6586913905675 -893.8478874331975 -248.127454722905 -43.4826582855227 183.83616000298693 -94.47001801143477 188.64972526308895 445.9189451165749
-3.8976435300080823 278.6990289827128 88.85587872696512 -763.271576226341 728.5884154020043 -1004.2490060101889 789.5663681097208 -1118.8914867638955
861.5729215443146 179.75269303805396 152.42436444004815 -983.1517766826108 1552.5430834530969 -1327.9211497900742 -292.0710829774543 871.180620427212
-290.4019697636504 -378.82156234601104 91.65171533608292 735.8639992641471 -872.7975891867618 672.6924682245971 -1016.7247955514571 963.0449040116191
-387.4486981173207 290.08043356573944 -193.60095525941028 -738.4128650729983 251.54516936979797 -344.2439471186976 -0.045888674708691415 -191.7681800840961
480.93753261426053 -387.2252068004923 -3353.0981272014037 -972.592452796123 883.2346068516853 89.11997043024087 -796.5310175120524 792.0340380716785
-533.0015669835612 1157.3565513398376 -600.8624430701678 -1153.6553451568177 401.15089408078944 1408.0133212603885 121.67660458113502 -1342.1604858649273
-275.61053737424044 35.55761823289281 -358.1015484056219 -682.2290270918172 -324.72953848025236 1347.940932726446 -879.66716692143 -23.069585160358322
-210.85255413429635 914.9299793479445 -305.1281555606696 382.7009069176847 -98.20765827495445 -944.9271749419331 53.26651164662273 -61.94752806936446
430.5186999721059 79.78077735676213 -565.8578359408814 2505.854968089428 1094.10861125757 -1902.7359156850966 -911.7705164538309 146.40291052244206
-746.5439930000421 -729.7535530286639 -45.717393997838364 -312.40342521704423 148.76728293051698 -1448.7253125841578 4997.89814911452 -5064.577113536467
-993.5147377689971 -243.4140338387247 -83.90537197296318 314.75357994073966 702.5344874980149 -513.9712033800432 -1152.4532584735477 -381.4444926470146
-1699.210217535195 -655.5518481063559 -1174.9805251017774 479.04105556650256 65.3653514499443 -3945.2324884929703 368.50678010530424 1850.8155698969072
104.81081472477157 -852.3545316448638 1772.7132165018809 -1117.8345637056348 -283.228546150981 928.5760920587485 -2140.9057194852767 -198.98961151927568
99.4822811347837 -202.55999028061316 1845.2258030047283 -2218.469004822069 890.697549163183 -895.5813804563351 197.48383177974355 297.501521466831
-198.39673361598705 -198.71328553941228 -1735.731808769293 747.4125432295044 587.2091916501325 -231.1419066686421 -99.44077678876528 -584.7142896133771
-96.78010365949822 -1052.2609397110452 -282.840615370646 -561.4013041590077 747.433984760991 -4.15807967887788e-05 1730.2385172600793 392.8975878457348
-2779.7693591877414 -568.4629547505685 -172.32532514407112 264.0747217055249 149.82829378322518 -917.4597980598179 -275.5542696746275 -3430.6900374569777
1355.1529281203814 828.2038131633367 1155.947676666025 -269.3768372212614 1452.511745933059 367.90448992974115 180.12635698295603 1872.1119258762615
-290.18158258139005 1666.0631460482073 -972.214270447725 -21.512470805903554 1304.307109829658 -3890.561385591592 -1095.1975865292497 -386.95502380932527
-1435.087233318823 -41.31379549555134 -137.6271662526367 -228.6545338801454 -198.86478360832336 -341.40173520376845 662.6863784581058 112.80829537061624
-487.9358003625616 -65.97573346679918 93.53691660370674 -75.62029684037935 -172.32463384774934 -906.0063554777278 608.22705232438 -1463.043815179744
-103.30990347806916 -316.9555354739282 -345.9327867589058 -1.368649395121362 -906.8035350338383 -836.8303509871693 88.39895504785243 -1592.1687914730596
1323.7636688274276 -468.66853707527196 604.7027501654718 -1074.4158234124654 -83.63030898344155 -607.7426886706294 -126.98908786085974 -737.3914489233304
-161.5809798201738 -428.22466549018475 -290.5914309726071 864.762023149181 -61.1490987133093 309.64970184195914 -585.561047909047 259.5742867640908
-85.63562824914627 -707.6032922102985 1801.602247605816 -35.14198747616008 -1288.096344713644 -465.5092281514345 1002.9407762487585 -614.3666837392284
-1017.9236340190462 699.9686046142185 -0.01222920797445272 618.5641871349301 -851.5784062298845 1915.472148003169 -1993.8340440477975 1465.9110650632533
-765.4453822405029 916.9374792107914 1119.5030252957138 874.115645707526 -144.8806903441885 208.20781199625515 640.2148006562072 -1.4836475013472603
422.88513231729763 -281.2721972989385 -141.47318989111946 632.866340807881 828.8844141015436 -1246.2184941573234 975.1332862597691 342.8546257942465
68.21652716100162 -411.5634290315713 -621.5704986564897 1170.6975660945125 -1180.3331383774785 177.81092183797733 -106.97904581306585 -427.9149608997668
00000000: 0000 0000 0000 0000 af8e ab7e 59e8 70c0
00000010: fd2b aca4 f1cb 6c40 0ce0 f395 69fa 71c0
00000020: 0133 b16d 3a44 7ac0 37e4 d106 749a 66c0
00000030: ac91 bd41 6413 87c0 5e9a 9758 e12c 6540
00000040: bae1 7c01 a3f4 7640 b6a0 3851 bece 6ec0
00000050: 4407 373c 79cf 69c0 c6b5 5758 9f7c 6940
00000060: 8309 4842 a387 64c0 dc8a 5dfa 44e5 7940
00000070: e01a fece 70e5 83c0 d1aa c645 8143 93c0
00000080: 27e5 fdff 4475 8140 2ee2 3479 c8ee 8bc0
00000090: 2053 ed1b 1404 6fc0 52bb 27bf c7bd 45c0
000000a0: ab61 9fd2 c1fa 6640 2ce9 6cc6 149e 57c0
000000b0: 448b a28c ca94 6740 2168 cbff b3de 7b40
000000c0: 40ce 26bb 5f2e 0fc0 52bb 0339 2f6b 7140
000000d0: 116a 91b7 c636 5640 0c14 2830 2cda 87c0
000000e0: 9260 2213 b5c4 8640 26f2 dcf6 fd61 8fc0
000000f0: fce5 00ec 87ac 8840 fefe e7e1 907b 91c0
00000100: 0a00 e457 95ec 8a40 cccb b50f 1678 6640
00000110: f3f2 bb64 940d 6340 df80 b1d6 36b9 8ec0
00000120: 3398 111e 2c42 9840 58fc e341 afbf 94c0
00000130: 7f77 e727 2341 72c0 ec5e 1fe9 7139 8b40
00000140: c0cd d877 6e26 72c0 e1fb 8e1e 25ad 77c0
00000150: c7b1 3db4 b5e9 5640 3d3a 7278 e9fe 8640
00000160: 4886 7076 6146 8bc0 4fd1 c72c 8a05 8540
00000170: 5b2e 9c61 ccc5 8fc0 e86a a2f6 5b18 8e40
00000180: b5ba 13de 2d37 78c0 a0e5 b474 4921 7240
00000190: d830 8606 3b33 68c0 8211 348c 4d13 87c0
000001a0: 06c2 0807 7271 6f40 270c 1835 e783 75c0
000001b0: 92df 426a b87e a7bf 3354 66ee 94f8 67c0
000001c0: ebd2 3222 000f 7e40 382f 7272 9a33 78c0
000001d0: c181 ba3d 3232 aac0 2d3e e457 bd64 8ec0
000001e0: 3f9b 8e79 e099 8b40 c897 7498 ad47 5640
000001f0: f2fe 1b86 3fe4 88c0 6da5 c0b5 45c0 8840
00000200: 31f9 8c35 03a8 80c0 ca5f cb1b 6d15 9240
00000210: 4368 8d48 e6c6 82c0 7f00 cd12 9f06 92c0
00000220: 6962 e90f 6a12 7940 d7a6 16a4 0d00 9640
00000230: 1e13 4d7d 4d6b 5e40 5515 6856 a4f8 94c0
00000240: 9375 d6c2 c439 71c0 c6f6 c408 60c7 4140
00000250: b691 38f1 9f61 76c0 06ea 270c d551 85c0
00000260: b89d 8a30 ac4b 74c0 495f de83 c30f 9540
00000270: 1e64 9c5b 567d 8bc0 a206 4455 d011 37c0
00000280: eb9b 9b1f 485b 6ac0 042b 0399 7097 8c40
00000290: 065e d8ec 0c12 73c0 ef0f 2cea 36eb 7740
000002a0: 15eb ee45 4a8d 58c0 302a b2da 6a87 8dc0
000002b0: b61f bb0d 1da2 4a40 2ffb 8a99 48f9 4ec0
000002c0: 188a 5798 4ce8 7a40 0b30 9741 f8f1 5340
000002d0: 5afb 16d9 dcae 81c0 6f9e 60be b593 a340
000002e0: f61c ca37 6f18 9140 6aa0 e193 f1ba 9dc0
000002f0: ded1 8704 2a7e 8cc0 4ba3 9ba4 e44c 6240
00000300: 7883 0019 5a54 87c0 4e6f cf46 07ce 86c0
00000310: ff87 0791 d3db 46c0 6319 006e 7486 73c0
00000320: 2fab ee94 8d98 6240 5791 57b8 e6a2 96c0
00000330: cbb1 19ed e585 b340 3475 b6bd 93c8 b3c0
00000340: dede d52e 1e0c 8fc0 5198 e4c3 3f6d 6ec0
00000350: e1a5 499d f1f9 54c0 6006 d7a9 0eac 7340
00000360: c2a0 61a1 46f4 8540 6718 4706 c50f 80c0
00000370: 1742 fd22 d001 92c0 d863 52a4 1cd7 77c0
00000380: d5fa 4343 d78c 9ac0 4409 572f 6a7c 84c0
00000390: 2ab4 c50e ec5b 92c0 28b7 e129 a8f0 7d40
000003a0: a543 0ceb 6157 5040 0254 bb08 77d2 aec0
000003b0: b9a8 74c5 1b08 7740 464b c124 43eb 9c40
000003c0: 9680 7163 e433 5a40 b2e0 af14 d6a2 8ac0
000003d0: 2f3a 6d55 dab2 9b40 8538 de97 5677 91c0
000003e0: 7141 0220 a8b3 71c0 7b3e 27d6 9b04 8d40
000003f0: 3ae1 76ba cfb9 a0c0 16e1 c6e5 aadf 68c0
00000400: ec57 b1b1 ddde 5840 f7a9 bc70 eb51 69c0
00000410: 9622 e738 e7d4 9c40 e868 6621 f054 a1c0
00000420: c9d9 a794 94d5 8b40 f1f3 cbaa a6fc 8bc0
00000430: 73d8 c88c 7baf 6840 7fa4 5f3b 0698 7240
00000440: 6c3c b20a b2cc 68c0 890f 323c d3d6 68c0
00000450: 282c 475f ed1e 9bc0 43f7 76e3 4c5b 8740
00000460: 53ff ab6c ac59 8240 de9c da7f 8ae4 6cc0
00000470: 4c25 d9af 35dc 58c0 9e0a 79dd b645 82c0
00000480: 3a42 e637 ed31 58c0 ab94 c733 0b71 90c0
00000490: 0857 1a29 73ad 71c0 7f75 f4de 358b 81c0
000004a0: 5a9b 00cd 785b 8740 34db 7d4c e1cc 05bf
000004b0: 4a5e de3d f408 9b40 7dab 1285 5c8e 7840
000004c0: 748c 72e9 89b7 a5c0 c2c9 9e21 b4c3 81c0
000004d0: 43cb 4610 698a 65c0 7e18 630f 3281 7040
000004e0: d5cd f661 81ba 6240 75ed 9aaa adab 8cc0
000004f0: 09db e049 de38 71c0 78ed 964c 61cd aac0
00000500: b56e 3099 9c2c 9540 34b8 cb68 a1e1 8940
00000510: 0a7f c06b ca0f 9240 bb53 7786 07d6 70c0
00000520: 6639 2007 0cb2 9640 cbbc 6eca 78fe 7640
00000530: 5bad cc1d 0b84 6640 7a68 b29c 7240 9d40
00000540: 7f09 23c3 e722 72c0 b08f 5ba9 4008 9a40
00000550: d3ab 6cd3 b661 8ec0 b282 6749 3183 35c0
00000560: a5ca ff7a 3a61 9440 aba8 ee6d 1f65 aec0
00000570: 0885 1f54 ca1c 91c0 41bf 0bc7 472f 78c0
00000580: deed b053 596c 96c0 3783 6773 2aa8 44c0
00000590: 5807 f6be 1134 61c0 272b 09f1 f194 6cc0
000005a0: b47b ac4e acdb 68c0 669d e481 6d56 75c0
000005b0: f231 fdb3 7db5 8440 8493 811c bb33 5c40
000005c0: 980c cd09 f97e 7ec0 f960 c86a 727e 50c0
000005d0: 6466 75d7 5c62 5740 74cf 84f1 b2e7 52c0
000005e0: 42e8 8566 638a 65c0 eec7 1904 0d50 8cc0
000005f0: 8b1d cf00 d101 8340 46f0 e2dd 2cdc 96c0
00000600: 51ce 6575 d5d3 59c0 08ab 90df 49cf 73c0
00000610: 47fa ceb1 ec9e 75c0 6dc8 7be8 fce5 f5bf
00000620: 359c c6a3 6d56 8cc0 bff0 0e8f a426 8ac0
00000630: 6bc6 c07a 8819 5640 8a02 acd7 ace0 98c0
00000640: 1b7b 33ff 0daf 9440 4ea7 ee53 b24a 7dc0
00000650: ae8f 7a3b 9fe5 8240 cdd5 9ccd a9c9 90c0
00000660: 6a90 7dfb 56e8 54c0 b4fb c106 f1fd 82c0
00000670: d8d0 2b37 4dbf 5fc0 111e f9af 210b 87c0
00000680: 0ae9 fd62 9732 64c0 224e d73a 98c3 7ac0
00000690: 06d3 5280 7629 72c0 38c4 979f 1806 8b40
000006a0: 02c5 a8aa 1593 4ec0 d935 c22d 655a 7340
000006b0: c5a6 af06 7d4c 82c0 bb64 5147 3039 7040
000006c0: ce9f 1b22 ae68 55c0 4fc9 dd8a d31c 86c0
000006d0: 4cac 98b3 6826 9c40 4a46 47a5 2c92 41c0
000006e0: f948 30a8 6220 94c0 d209 6bcc 2518 7dc0
000006f0: 2caa b2b5 8657 8f40 b05f e2f7 ee32 83c0
00000700: 368a 3b9a 63cf 8fc0 96a6 c6b3 bfdf 8540
00000710: c936 7382 a00b 89bf ca6a 8b74 8354 8340
00000720: 4109 7293 a09c 8ac0 ee21 c47a e3ed 9d40
00000730: db92 a40f 5627 9fc0 ce6c 3dee a4e7 9640
00000740: 6f69 9024 90eb 87c0 3bb8 19f5 7fa7 8c40
00000750: 9b28 1019 037e 9140 fa1d a8d7 ec50 8b40
00000760: 2a46 849d 2e1c 62c0 3cf4 5765 a606 6a40
00000770: 8e0c 68e9 b701 8440 f141 9129 05bd f7bf
00000780: d136 8180 296e 7a40 0210 8eeb 5a94 71c0
00000790: fd64 205f 24af 61c0 50e8 1644 eec6 8340
000007a0: 0252 b347 13e7 8940 49b0 eebc df78 93c0
000007b0: b7f5 62f8 1079 8e40 b5c9 188c ac6d 7540
000007c0: a7cc bc94 db0d 5140 7303 29ce 03b9 79c0
000007d0: 4880 9961 906c 83c0 eb2a c44e ca4a 9240
000007e0: 4011 3a22 5571 92c0 32b7 5a12 f339 6640
000007f0: d419 c5af a8be 5ac0 e059 0aae a3be 7ac0
