code/results/RRL_model_returns_f__lsk.npy (npy, 22648 bytes, 1 tensors)

array f8 [2815]
000000 00 00 00 00 00 00 00 00 05 1c 66 c2 ef 44 3e 40
       0.0 30.269283437661233
000010 94 31 7c a1 6e 09 1d c0 ea 1b cc c6 90 70 13 c0
       -7.259211085515194 -4.859927278716876
000020 87 83 10 e1 fa 65 1c 40 ea c6 36 9f 1e 2a 03 c0
       7.099589840538903 -2.39556621919552
000030 4b dc 3e bd ce 60 34 40 40 9b ca 00 97 0a 2b 40
       20.378154590460593 13.520683312160713
000040 36 40 69 17 71 cd ec 3f 13 d6 23 bd db 88 1f c0
       0.9000783402680159 -7.8836507371065805
000050 94 54 4c 74 d4 77 f7 bf 3d 84 e5 42 bb b9 1b 40
       -1.466755346574506 6.9313784077249325
000060 25 c0 f7 b2 af 95 32 40 ca 72 38 55 31 f2 03 c0
       18.58471220539663 -2.493258157525223
000070 ca c2 f4 d3 d0 81 33 c0 52 0b 4a b4 99 d8 dc 3f
       -19.507092711692884 0.4507202397000373
000080 64 0d d3 bb 62 eb 05 c0 0a 10 e9 0a c8 e2 2b c0
       -2.739934413317018 -13.942932454061538
000090 a4 01 7b 5c 5f e8 32 40 f3 90 06 df c9 b2 20 40
       18.907705097227918 8.349196404983081
0000a0 cf 6c 9b 02 40 e5 3e 40 fd d4 48 89 cf a5 40 40
       30.895507967897 33.29539600425958
0000b0 15 06 8f 40 1e 57 35 c0 79 bd 60 08 e3 ce 33 40
       -21.340305361669454 19.808151744478412
0000c0 3d cc 88 40 68 37 3b c0 a0 2d 4b 24 a6 48 e1 bf
       -27.216434510610487 -0.5401182850704807
0000d0 63 09 90 39 21 57 38 40 5a 8f 8a 74 60 0a 40 40
       24.340350721039965 32.0810685802996
0000e0 53 1b 7a f2 06 05 3e c0 b2 0c 9e 1c 74 cb 48 c0
       -30.0196372554886 -49.58948095052018
0000f0 e3 7a 5b fd 23 27 02 c0 a1 bf b8 b1 62 41 12 40
       -2.2691116136114586 4.5638530510913435
000100 3c d8 36 5c 3f 89 00 40 b0 64 12 bd 3b 61 48 c0
       2.067015381263472 -48.75963557623015
000110 c4 f8 a1 9f d5 45 26 40 70 ad 8b 6e 52 39 33 c0
       11.136395443460408 -19.22391405973525
000120 c6 55 21 88 e5 0e 4b 40 7e ee ce ed 30 45 2f c0
       54.11637975337685 -15.635138923177916
000130 a6 55 f0 8e 81 f0 f6 bf a8 98 ef 68 0e 2e 1d 40
       -1.433717306475367 7.294976844428824
000140 8f 5e e9 7e e5 94 0c c0 38 7f 58 bd 88 b2 19 c0
       -3.572703353402012 -6.424349745298791
000150 a9 0f f0 27 6e 4b 34 40 13 fe 43 79 51 f6 34 c0
       20.29464959727162 -20.962180689906813
000160 81 53 cb e3 3d 7f ef bf a2 86 3b 04 a8 89 e6 bf
       -0.984282441053992 -0.7043037493387667
000170 78 f6 19 19 66 b2 45 40 4b d4 14 f8 78 4f 22 40
       43.393740785290845 9.155219795744548
000180 c4 b4 15 43 69 57 09 40 bd 8e c4 04 58 df 29 c0
       3.1676812401770764 -12.936218403810352
000190 0f ed 5e b9 07 27 2e c0 82 af 05 f9 27 f6 3c c0
       -15.076230805242202 -28.961547435653763
0001a0 8f a2 c8 07 b9 41 52 c0 10 34 2b 00 14 37 4f 40
       -73.0269183596922 62.43029787168064
0001b0 34 08 25 59 a8 69 11 40 72 8b 39 64 ed 62 10 c0
       4.35318125999952 -4.096608701717615
0001c0 9f 14 ad ea 42 f8 30 c0 42 94 d4 e3 88 46 26 40
       -16.96977106786346 11.1377631375309
0001d0 ad 45 95 2a 96 8b 5a 40 4e 94 e1 c3 32 60 49 40
       106.18104042603836 50.75154922976127
0001e0 c1 28 a1 08 9a 24 17 40 b3 44 0d 1c d2 f2 3c c0
       5.785743841968896 -28.94851851772246
0001f0 e0 96 fa 96 c5 30 32 40 01 25 33 3e a6 cd fc 3f
       18.19051498048691 1.800207369773773
000200 24 4c 0d 93 b6 96 2e 40 fe c1 e5 b9 ed e5 11 c0
       15.294361682294102 -4.474539665840437
000210 4d c0 6b a7 b7 97 33 c0 b5 41 99 b3 f9 76 4b c0
       -19.59264608746189 -54.92949528678165
000220 52 d2 4f a2 41 77 22 40 cf bc 28 73 f7 ad 37 40
       9.232922622913211 23.679557034917533
000230 fd 40 48 64 c1 82 46 c0 ec dd 2e cc 8a 6f 3c 40
       -45.021526847152906 28.435711633150206
000240 ce c4 bc df 3a 5d 1e c0 71 02 a5 ea 67 14 4c 40
       -7.591044898888141 56.15942128235918
000250 10 34 57 4e 7e 45 44 40 24 9d 79 28 9c 2a 02 40
       40.54291705377557 2.270805660449371
000260 5f e8 e3 db 31 48 36 c0 36 73 21 77 17 cc 16 40
       -22.282010787145165 5.69930826322234
000270 b6 a2 14 78 c6 45 25 c0 63 a1 81 12 a1 82 34 40
       -10.636279823798173 20.510270268104602
000280 be fa 72 47 53 e4 55 c0 e0 fd a6 00 ac 5b 14 40
       -87.56758295277083 5.089523325149884
000290 4e 03 56 db 61 0e 23 c0 8b 5a 51 44 3f 31 22 c0
       -9.528090337991355 -9.096185812884206
0002a0 b3 94 ff 15 ae 19 16 40 fe c2 c2 e6 82 49 1c 40
       5.525078147625368 7.071788411748228
0002b0 4c 82 f5 de 97 05 53 40 70 1b 3c 62 8c 63 22 40
       76.08739446616636 9.194430417859365
0002c0 7e ae 6b af fc 5d 45 c0 6f 43 49 c5 aa 36 39 40
       -42.73427384145633 25.213543253313613
0002d0 16 b4 77 30 ec c2 5c 40 07 4b de eb ab bf 54 c0
       115.04566585244933 -82.9948682471114
0002e0 1e 61 8e 6e 03 10 1e c0 e5 9c 1d ce 30 65 50 40
       -7.515638091507098 65.58110382930643
0002f0 86 63 26 86 16 e2 55 40 68 42 a7 8f 36 6c 1d 40
       87.53262475727942 7.355676884254173
000300 dc 1a 68 94 13 58 32 40 f2 96 ff 7e b0 14 48 c0
       18.34404876271843 -48.16163623313868
000310 1c a5 7a 31 06 ca 31 40 76 6c e5 4c 77 7c 4b c0
       17.789157001917474 -54.972390758536605
000320 84 c0 52 67 c1 0c 32 40 cf 8c 1b 0b 62 1c 24 c0
       18.04982610483468 -10.055435511696855
000330 2d 13 e4 b8 ed ed 22 40 88 e3 da dd 1b 25 43 40
       9.464704301682639 38.2899129217904
000340 bf f8 f2 b1 53 3d 6e c0 dc a8 2d 3c b1 14 4d c0
       -241.9164666886845 -58.16165878514741
000350 76 33 e0 76 98 18 20 c0 16 9b 0e c7 11 fb 32 c0
       -8.048038210743226 -18.98074001413905
000360 5e ff b6 a5 4d ae e7 bf df fb 93 d5 36 e7 16 40
       -0.7400272595041135 5.725795113713473
000370 4c 4a c9 e2 47 a9 22 c0 3f be bb b8 d4 97 50 c0
       -9.330626570769844 -66.37235849699299
000380 a1 75 aa d9 7a 95 2d 40 10 17 c5 23 c4 ea 38 c0
       14.791952898080867 -24.91705535470743
000390 da 16 2f ee a4 fc 45 c0 d1 24 9c 50 43 13 30 40
       -43.97378327655106 16.075245893593834
0003a0 ec 56 75 a0 6e 57 40 40 cd 42 b1 de b5 bc 65 c0
       32.68306356172056 -173.89720091458585
0003b0 f5 74 97 18 85 1f 33 c0 9e 72 ca 58 da fe ea bf
       -19.123124634720586 -0.8436099752612625
0003c0 fb d7 75 85 67 7d 35 40 eb 4a f9 de 7f 72 34 c0
       21.48986086012881 -20.447263656485045
0003d0 02 80 19 29 b7 a3 20 40 59 41 71 d8 6d ca 2b 40
       8.319756779063031 13.89536930449019
0003e0 65 54 f1 ea 70 7c 34 c0 51 25 f5 f5 3c a3 12 40
       -20.48609798805082 4.659412234389792
0003f0 d1 23 2e 58 92 6f 16 40 7b 9a 05 86 38 df df bf
       5.608956697288662 -0.4979993161017899
000400 d1 8d a3 ff b0 d3 11 c0 f2 82 b9 4f d3 ab 20 c0
       -4.4567298835349485 -8.335596553225944
000410 39 72 00 b8 9f 12 37 40 a9 bd 2b 9a cd 7e 2a c0
       23.07274961481946 -13.24766237052866
000420 7d cb b7 be e0 c0 ef bf 1c 5d a9 d0 d2 13 33 40
       -0.9922946667632996 19.0774355329023
000430 3d 35 ad e5 b8 99 3e c0 50 ff 0a a3 16 45 20 c0
       -30.600477556979275 -8.134938330738493
000440 5a 81 ce 4e 33 fc 38 40 c4 0f b0 9d 5e 5e 28 c0
       24.985157895485237 -12.184315612546818
000450 7c 2a 9f f7 a1 6b 1a c0 3f 73 25 87 e0 89 f8 bf
       -6.605110043611258 -1.5336613921310371
000460 68 db 5b 63 ac f5 2a 40 6f 7b ef a2 a1 b1 29 40
       13.47983084198286 12.846936313375151
000470 be 22 85 7e fb e4 21 40 e0 17 a0 2c 06 a4 2e 40
       8.947231248619001 15.320359606306681
000480 cb 3a de 79 22 a3 0f c0 e7 79 08 c5 b0 65 1c 40
       -3.954655601591502 7.099307135240884
000490 51 ae 7c af 30 00 14 40 00 c6 61 d7 9b 90 27 c0
       5.000185720429344 -11.782438975033983
0004a0 9f d5 f9 07 35 b7 0a c0 47 3e 76 8b c0 b8 2b c0
       -3.339456617652743 -13.86084400003814
0004b0 aa 62 aa c2 97 09 fa 3f 08 4e c2 dd ea c9 31 40
       1.6273419956325292 17.788740024507234
0004c0 3e 97 65 90 51 ae 32 40 ef 6e 50 27 39 5c 21 40
       18.68093206863636 8.680123547142527
0004d0 12 79 8f b2 26 b8 57 bf 43 d7 64 c1 38 6e 32 c0
       -0.0014477136521616235 -18.430553519362785
0004e0 ae 00 4d d7 49 1a 20 40 74 df ba 77 0e 35 f1 3f
       8.051344612264383 1.0754532505943333
0004f0 8b 92 3d 2f 56 90 0d c0 0e 57 5b da 31 12 29 40
       -3.6954768839517036 12.535536597871694
000500 0f 54 0b a6 be 7e 39 c0 21 21 97 58 42 e5 3c 40
       -25.495096566930496 28.895543610474423
000510 91 d0 51 d7 7f 8c 46 c0 a6 48 57 4f b5 00 35 40
       -45.09765140051707 21.00276656990959
000520 64 9a b2 63 69 4c 36 c0 5a b3 f0 ab 69 bc e8 3f
       -22.298483115295667 0.7729996069152592
000530 1e 4e 91 13 e6 eb 15 c0 02 d0 83 10 01 51 16 c0
       -5.480369859451029 -5.579105623288344
000540 3c 9b 42 a7 6c 75 3b c0 a5 fb bf 17 24 b7 21 40
       -27.458689168702435 8.857697241006301
000550 a2 d2 0f b1 74 0e 14 40 df dd 59 02 60 1b 44 40
       5.014117018309351 40.213867467766015
000560 ff 73 b0 fb 3b af 26 c0 8a 7e a2 e5 f0 40 68 c0
       -11.342254510202109 -194.02940637337844
000570 ff 3d 1b f7 81 93 4d c0 31 91 11 5a 9d ce 31 c0
       -59.15240372495827 -17.807088498391014
000580 15 74 28 27 48 80 26 c0 29 54 0f 42 53 64 33 40
       -11.250550483406224 19.391895416967746
000590 2d 4a 68 9f f9 8e 20 c0 a7 01 5d 73 f1 cb 41 40
       -8.279248219948466 35.59330598870593
0005a0 b2 32 62 65 f4 4d 0b 40 d9 57 a8 09 86 cf 3c 40
       3.4130638046829853 28.810639003371623
0005b0 6c 31 6b e8 9f 5f e5 bf 83 17 bf 33 31 64 31 40
       -0.667922929709261 17.391375764992983
0005c0 dc ea d4 8d aa f6 0e c0 94 99 3a 28 2a c4 51 c0
       -3.8704424934961548 -71.06507306788109
0005d0 e5 14 3a b2 98 17 3b c0 f3 06 2e ab 7a 8f 51 40
       -27.09217370908745 70.24186210150565
0005e0 67 c5 03 ba da c3 3f 40 62 b9 4c 33 3e 47 33 40
       31.76505625335758 19.278292852622492
0005f0 20 ec 7b bc 8b 7c 30 40 a2 4a aa 0d 53 8c 39 c0
       16.48650720620583 -25.548142294001657
000600 7d 35 89 0a a3 6c db 3f ba 1c dc 8c 20 80 f0 3f
       0.4285056689157825 1.031281042321821
000610 88 b2 96 a4 04 67 30 c0 15 ba 4c 84 bd 42 30 40
       -16.402414595404963 16.260704296810292
000620 60 51 8d 5b 33 37 df bf 6e 3a 46 b7 e3 6b 31 40
       -0.4877441782057499 17.421443419118468
000630 54 c7 a6 73 a6 5d 06 c0 74 88 9f 2e ab 3f 38 40
       -2.7957276377937124 24.248705781887523
000640 fe 61 df b4 bd 3c 48 40 b7 65 5f 7d fd 88 1a c0
       48.47453938395846 -6.633779486606207
000650 be c8 25 15 1a a6 39 c0 7e 5d a4 a4 2a a1 d9 3f
       -25.648835489010473 0.40046182707143163
000660 81 df 3b 7a 22 e8 47 40 4d 9d e3 e3 7d bb 49 c0
       47.81355216907014 -51.464779363765594
000670 40 59 f1 a5 75 57 20 40 5f 7c ff bc 68 c2 18 40
       8.170819459640029 6.189852669805162
000680 19 84 be f0 d4 ad 20 c0 88 4a 9d 89 b7 fb 01 c0
       -8.33951523137698 -2.247908663857121
000690 77 fa b5 59 26 99 07 c0 7c f8 e7 f8 cf f8 26 40
       -2.949780178895988 11.485961702648858
0006a0 a7 0e 12 c0 33 84 48 40 6c 0b 6d c1 b8 57 3b 40
       49.032829293076524 27.34266289627287
0006b0 a5 6f de 95 f7 ae 51 c0 10 12 ea 78 fe 07 e9 bf
       -70.73386141512181 -0.782225834046189
0006c0 c3 24 34 83 bc fd 2c 40 8d 67 9b c2 cb 78 44 c0
       14.495578861346422 -40.943718267327405
0006d0 21 9b 01 73 bc c5 2a 40 2f 4a e2 9d da 89 32 40
       13.38620337862591 18.53849207663205
0006e0 8b e5 96 ca 4e 3a 32 40 fb ca 61 42 4c 3c 3f c0
       18.227764760818484 -31.235538624644487
0006f0 8b 85 2c b5 d1 af 40 c0 24 28 0d 0c c8 43 34 c0
       -33.373587271441544 -20.264771226131543
000700 88 aa 35 84 e2 05 4d 40 99 e6 bb 45 13 f9 32 40
       58.04597523327271 18.972950323461735
000710 04 ce 8c d0 9e 06 5a c0 67 e7 72 45 4c 8a 40 40
       -104.1034432768866 33.080452614884784
000720 f5 f8 e1 6e 2f e5 21 40 c3 73 5f 0b cb 0e 34 40
       8.947627511105091 20.057785712054976
000730 df 9e e5 09 a7 da 56 40 79 24 94 92 ad 1a 24 bf
       91.4164452307118 -0.00015338295751402326
000740 3a 13 71 9d a7 69 3e c0 50 e9 03 c8 99 a7 d7 3f
       -30.412713852030016 0.36960453541509697
000750 21 46 28 14 77 ea 4a 40 c3 f1 c9 b4 f9 72 37 40
       53.83175899473668 23.449122714331462
000760 7a fd 8e 17 01 89 31 40 03 ed 16 bb ef e8 13 c0
       17.53517291298838 -4.977477000498086
000770 5a 85 7e 65 b7 21 35 c0 a2 ab 7d b0 f6 d8 1d c0
       -21.131704657925503 -7.461878545446696
000780 ce 88 5e 46 22 9b 09 40 4a cd be 0b 06 53 3f 40
       3.2007489678954704 31.32431100281
000790 f4 62 85 1a ad fa 3b 40 ff 43 4d d5 8a e4 31 c0
       27.97920385128505 -17.892743426669764
0007a0 c8 ed cc a1 03 b5 56 c0 f7 b0 93 e6 ae 17 10 40
       -90.82834668171483 4.023128130688057
0007b0 ce 21 0a 96 e3 70 36 40 32 0d c5 6e 52 c3 38 40
       22.440972688172955 24.762976573093688
0007c0 82 c6 0d ed 98 c8 52 40 a4 21 1a 15 c6 f4 52 c0
       75.13433386178261 -75.82458999206443
0007d0 c6 d2 42 1f 73 08 28 40 a3 1c 5e ea 08 be 49 bf
       12.016503312022348 -0.0007855933697421723
0007e0 da ad e5 a1 4e 3e 40 c0 5a 86 19 3d e9 13 3a c0
       -32.48677467074204 -26.077777689677852
0007f0 3b b3 08 fa 5a b2 fc 3f 6b e4 de 4d 75 1f 3c 40
       1.7935437933876546 28.122883669774108
