code/results/RRL_model_returns_f__btc.npy (npy, 22544 bytes, 1 tensors)

array f8 [2802]
0.0 -39.30758839370559 11.478795223046866 3.0279122451626304 49.15937344427146 8.77869050120521 -44.17342962780973 -134.7627943829093
-13.01445435637024 64.56290908432405 -50.93628445679416 94.27848831981491 15.589343754359401 9.559916180159703 57.07897198635169 -34.79872897527682
-107.49447777104442 47.07139331044531 -33.75966447500096 -8.72114347370179 -21.38199808649889 -37.495871550709055 -3.718534731395906 -79.12861099117305
28.63873774475907 -7.384224156126515 51.58424934919772 2.2591375543377503 -58.54479521195288 -45.63641508969267 -5.103780915432824 -12.000072786896679
-49.00024318518535 119.00191633602098 -4.672743671108461 60.56218635587685 -17.191532221060385 -42.55526610416492 21.259107370928245 -77.4111718730692
21.659966124314913 -16.72620989385613 11.779499697040633 37.16205990354157 -28.39516839856814 44.2010617893379 135.00037084050913 -2.0024932095937116
31.430038083735173 -26.460763413262388 2.9997246458004017 19.000561861384476 -16.00005873417384 -41.02046797764583 49.07531108994131 33.27601629386893
-30.879144292590915 5.691899961210609 41.18255822281416 12.244364491205578 -21.633688697252147 22.896757703924553 98.13049389224557 27.96022187731422
-4.071671397655981 45.97302794318937 -36.79671660075688 -51.17285647890686 7.859571679144137 -2.477049500637348 -21.442715919800587 -67.34912584117085
1.8748190800418687 40.41744487102555 61.39268983808097 -13.04867965299933 -27.014855121343604 -128.4284403460703 522.822318865909 -42.976756122168695
-314.62624071096826 -74.4996659310795 38.76024669555834 43.33760551083855 -133.77268589335935 -112.23097806174968 14.443151337671914 -122.72605777165744
-37.108276690322064 230.76535201338248 -0.0006268461787444686 -45.21477865194688 16.470866837837693 -204.75423241993497 89.86677855905715 63.66106006389571
-83.97062053566177 -85.81950719233922 30.48124060322898 -17.774411717486824 99.00677199828421 -16.360287622083817 36.75762361284508 -41.84902126568589
-528.4054613612233 -129.88797774520629 30.26027640418078 -16.92602509741452 -34.7401934654847 -3.9843607885790626 111.84421946602956 -38.86507488345751
-12.340154278828127 68.31911226539053 96.99513023569516 -22.9202964841728 -62.50007573787623 -110.22130220240648 -2.78092489140166 33.00000004513399
34.8792544794796 -69.0070496208344 30.318163861648127 -100.5698112676031 -43.248571536496655 43.1600796304414 -17.800005393789643 -40.99708482395488
45.44982533848134 -0.11002643895654589 50.81008860941665 26.120000381584937 54.059993394472315 -35.85901150783292 -2.1922008750023942 -104.9442822911552
17.640074446575163 -42.000000019451704 32.759999919140796 119.06178294918512 -9.570079235660042 54.91510522309796 31.222479387393278 -14.317220628142028
-137.13154203171786 -2.229861350586094 56.13323319413116 10.246030065828712 85.77950248304316 -159.16235996370054 0.42803879316553295 -82.15002095397818
-27.560156033401977 31.736418054233415 -104.62194357773997 24.89278494124463 -43.90773232204811 66.23945051032821 -26.309584408895635 63.99295805580105
-118.7840113754501 -46.144930269381256 39.002422810474286 15.829169601802828 11.58435085612767 -28.694805052654136 10.999988211031289 14.999892187280757
7.99996071205015 -28.032016652693137 30.074147583973893 -2.8752322841598783 36.71783489299564 -83.0101103600278 47.5867033231846 21.001335168389925
104.01950169849225 -46.029474575818355 -13.014412197922102 54.76055227559154 -21.30458737473633 -205.65836960132464 103.73070378344237 26.13375044694787
-14.980873547200684 25.211472803068055 45.372326680540375 250.7682318656792 115.74893961177915 -23.5035574315958 -38.46019995821497 20.72930104671522
-9.72387267662567 17.31608862824707 9.457982082822332 -46.49888564254879 -18.748169151841786 -24.937777229235405 59.407022541324395 -47.70700140500164
-92.59810814201147 -5.238128356907456 -45.929722786038546 -29.988153409924262 72.59635244270937 182.6907933290575 -60.07712518699849 -41.44695912991164
-5.191901853663615 93.08433548841988 -210.40486699091753 -44.55964058428225 212.2574539252783 -71.53663540852286 10.894241353640682 -74.02766152332045
236.95939902215477 38.794260965008974 163.5584591203833 -112.67997598334986 -122.70106027399574 12.62876216731731 80.3671496412394 -114.77818045175803
285.04854192827895 -68.38275678777413 -46.71571900583755 274.7271121331 -35.959802773144595 350.8104391376088 -53.610541895843554 71.6056280176597
-25.41001246655746 139.409660984356 428.9912861196393 103.48260452490307 -363.09110124358256 -50.459975262441304 -24.751955735579088 -115.61788330379204
-39.88982730564907 112.83715015406382 -134.25457644209897 -514.9817977372059 -69.40757580007283 61.13042810606807 -0.5028552008222587 -1.6387176335762526
-127.54330534601513 -265.1863817532644 107.89315178488258 -7.639924191836805 -3.790844995489176 -51.752089044214124 3.8835589562693063 -41.16553052310513
00000000: 0000 0000 0000 0000 1fcc 750e 5fa7 43c0
00000010: 44ef c0a5 24f5 2640 2c0d 210e 2a39 0840
00000020: 977f 5959 6694 4840 b3c3 7885 b08e 2140
00000030: d5cc 29f1 3216 46c0 6005 c4cf 68d8 60c0
00000040: 32ca b78f 6607 2ac0 c2f2 d2b3 0624 5040
00000050: 8fd7 482b d877 49c0 137b acc0 d291 5740
00000060: a626 ee76 be2d 2f40 0893 6455 ad1e 2340
00000070: 2057 09c1 1b8a 4c40 3d97 45c0 3c66 41c0
00000080: 06cf 1786 a5df 5ac0 05c2 7e6a 2389 4740
00000090: f407 7eaf 3ce1 40c0 ca8b a6b7 3971 21c0
000000a0: b6a5 68a0 ca61 35c0 f6a7 0eb8 78bf 42c0
000000b0: a115 2323 8fbf 0dc0 a43f 9829 3bc8 53c0
000000c0: 0476 1c51 84a3 3c40 1996 a30e 7289 1dc0
000000d0: bac1 c3ae c8ca 4940 555e c8b5 b612 0240
000000e0: 712d 79d9 bb45 4dc0 9974 b60c 76d1 46c0
000000f0: 83ee 568b 456a 14c0 7fae 528a 0900 28c0
00000100: 7f35 fcf7 0780 48c0 7322 b265 1fc0 5d40
00000110: dd01 88b7 e3b0 12c0 ce5f f6b8 f547 4e40
00000120: a895 7141 0831 31c0 9bfb aef5 1247 45c0
00000130: 134a 54dc 5442 3540 81f7 d4a3 505a 53c0
00000140: 8266 388a f3a8 3540 ca24 40e4 e8b9 30c0
00000150: 1710 9495 1a8f 2740 1bda 0061 be94 4240
00000160: 4a43 94c1 2965 3cc0 3cd7 8864 bc19 4640
00000170: 7b7b b509 03e0 6040 2656 ed28 1b05 00c0
00000180: 55ad d1f9 166e 3f40 c127 4f97 f475 3ac0
00000190: 47be 95a2 6fff 0740 6e45 78d2 2400 3340
000001a0: 165b 65d9 0300 30c0 534d d7b1 9e82 44c0
000001b0: 7a29 36cb a389 4840 43aa 7d80 54a3 4040
000001c0: 9e24 b199 0fe1 3ec0 5003 666c 81c4 1640
000001d0: 254d 5e11 5e97 4440 3310 b457 1d7d 2840
000001e0: f68a 266c 39a2 35c0 c1ca b2e9 91e5 3640
000001f0: 70e1 0d03 5a88 5840 e2f7 d719 d1f5 3b40
00000200: d6f6 133a 6449 10c0 d70b fd2d 8cfc 4640
00000210: 2e37 40cf fa65 42c0 41e7 3d29 2096 49c0
00000220: aef7 e98e 3370 1f40 fd7b 1e54 ffd0 03c0
00000230: 4bf6 9cd4 5571 35c0 1b81 e913 58d6 50c0
00000240: 6825 ab4a 42ff fd3f 0678 62d5 6e35 4440
00000250: c003 1ea9 43b2 4e40 ba39 1b8a ec18 2ac0
00000260: 5159 948b cd03 3bc0 1555 87c8 b50d 60c0
00000270: b4df e91b 9456 8040 f070 3858 067d 45c0
00000280: 85d0 fa14 05aa 73c0 5c3a d086 fa9f 52c0
00000290: 5628 83c3 4f61 4340 1f00 4aa8 36ab 4540
000002a0: e341 c4d7 b9b8 60c0 bc53 3558 c80e 5cc0
000002b0: 84f5 6cbb e4e2 2c40 9f11 04bb 77ae 5ec0
000002c0: 1bed b502 dc8d 42c0 fa6c 81c3 7dd8 6c40
000002d0: aaa1 2deb 5d8a 44bf d3fe eadd 7d9b 46c0
000002e0: a948 a5ba 8a78 3040 8426 07ac 2298 69c0
000002f0: 9101 c74c 7977 5640 d78f bd9d 9dd4 4f40
00000300: 925f 98a5 1efe 54c0 c27b 4bce 7274 55c0
00000310: 3360 8c95 327b 3e40 bf3e a8d8 3fc6 31c0
00000320: 31ca d1f3 6ec0 5840 ec00 42cf 3b5c 30c0
00000330: 6aec 7fcf f960 4240 5edd 94ba acec 44c0
00000340: f7b1 8662 3e83 80c0 94e7 4d50 6a3c 60c0
00000350: 7ee0 7379 a142 3e40 abab 14fb 0fed 30c0
00000360: 1f7c d3a8 be5e 41c0 754b 938c f8df 0fc0
00000370: 964f 15b1 07f6 5b40 4085 16c6 ba6e 43c0
00000380: 9252 9eb3 28ae 28c0 b5e6 d955 6c14 5140
00000390: 9364 ba36 b03f 5840 5d25 e68c 98eb 36c0
000003a0: cad9 557b 0240 4fc0 9777 b6d0 298e 5bc0
000003b0: af9e a98c 553f 06c0 acec 6000 0080 4040
000003c0: fa1c 2969 8b70 4140 b5bb 4080 7340 51c0
000003d0: 3b8c d42f 7351 3e40 d9cf adc9 7724 59c0
000003e0: 1cfc 2d31 d19f 45c0 34c0 447d 7d94 4540
000003f0: 3bf3 4a27 cdcc 31c0 b01c bb79 a07f 44c0
00000400: 41d8 6ee0 93b9 4640 2b82 0355 b12a bcbf
00000410: 4027 cafb b067 4940 326a 5258 b81e 3a40
00000420: 089e 11dd ad07 4b40 d883 ce16 f4ed 41c0
00000430: d52e c39c a089 01c0 07ad fd1e 6f3c 5ac0
00000440: ae0b 3feb dba3 3140 b0c5 2900 0000 45c0
00000450: 10d6 66ad 4761 4040 d58c 7840 f4c3 5d40
00000460: be93 f26c e123 23c0 61cd fe2a 2275 4b40
00000470: 64e3 bc68 f438 3f40 22f9 febd 6aa2 2cc0
00000480: e288 a297 3524 61c0 a60d 3b8c c1d6 01c0
00000490: 79c4 09c9 0d11 4c40 5422 1da7 f77d 2440
000004a0: 8ef4 615e e371 5540 c1c8 850d 32e5 63c0
000004b0: 6c2d 84d2 fc64 db3f 44c3 7cf1 9989 54c0
000004c0: 5b1e c462 668f 3bc0 d11d c3e4 85bc 3f40
000004d0: 6d96 6fec cd27 5ac0 c901 cd8d 8de4 3840
000004e0: 015c 9e92 30f4 45c0 b1b7 3b28 538f 5040
000004f0: e98e 7fec 404f 3ac0 8dfb e33f 19ff 4f40
00000500: 0350 0c3e 2db2 5dc0 b398 3713 8d12 47c0
00000510: 30e0 0164 4f80 4340 3629 05eb 88a8 2f40
00000520: 78ea 1009 302b 2740 bd3e 72be deb1 3cc0
00000530: a587 6d74 feff 2540 24cb 67de f1ff 2d40
00000540: 3c29 6eb3 f5ff 1f40 923e 4c3e 3208 3cc0
00000550: cb3e 0856 fb12 3e40 e0f5 a6c8 7900 07c0
00000560: 06ac 8603 e25b 4240 e46a eca5 a5c0 54c0
00000570: 25c4 3018 19cb 4740 c391 6880 5700 3540
00000580: 674f 0d84 3f01 5a40 069a a9d2 c503 47c0
00000590: 527a 1d09 6107 2ac0 3348 e7c6 5961 4b40
000005a0: 5c44 2d70 f94d 35c0 d64b 205d 11b5 69c0
000005b0: b33c cdd9 c3ee 5940 6c77 2378 3d22 3a40
000005c0: 167a bd0e 35f6 2dc0 b62b e514 2336 3940
000005d0: b12c 9266 a8af 4640 cb5a fe5a 9558 6f40
000005e0: 4ed1 68a0 eeef 5c40 9a5c cc23 e980 37c0
000005f0: b213 0dd5 e73a 43c0 9894 3079 b3ba 3440
00000600: 8526 8170 9f72 23c0 6bf5 302f eb50 3140
00000610: 73c0 a7a0 7cea 2240 7398 177c db3f 47c0
00000620: 5a09 7703 88bf 32c0 e37f 222b 12f0 38c0
00000630: 8edc 8b50 19b4 4d40 a35a a405 7fda 47c0
00000640: 475a 5f67 4726 57c0 c4ab 84eb d7f3 14c0
00000650: d730 0028 01f7 46c0 3b0e 339f f7fc 3dc0
00000660: e594 6fa3 2a26 5240 1a93 9cfa 1ad6 6640
00000670: 9eed f53c df09 4ec0 3fcf eef4 35b9 44c0
00000680: a71b 66eb 81c4 14c0 f529 adc0 6545 5740
00000690: 10a7 9eab f44c 6ac0 d880 7b4d a247 46c0
000006a0: 82a9 0310 3d88 6a40 cd5e 0a3c 58e2 51c0
000006b0: 293c b100 dac9 2540 3581 d634 c581 52c0
000006c0: 03ff 9365 b39e 6d40 fa99 e257 aa65 4340
000006d0: 6046 a9e5 de71 6440 66a3 fcb9 842b 5cc0
000006e0: 8955 e92b deac 5ec0 0b2e 631d ed41 2940
000006f0: 2077 3561 7f17 5440 fcab 61b5 cdb1 5cc0
00000700: 16a7 e6d3 c6d0 7140 f673 5316 7f18 51c0
00000710: 5599 2dae 9c5b 47c0 0703 5540 a22b 7140
00000720: 11a2 38d1 dafa 41c0 da76 078f f7ec 7540
00000730: 32be a13c 26ce 4ac0 f158 049c c2e6 5140
00000740: 0cd1 b693 f668 39c0 3348 5af1 1b6d 6140
00000750: 468d d54e dccf 7a40 0fd7 16fe e2de 5940
00000760: fedc 9326 75b1 76c0 c493 2a78 e03a 49c0
00000770: 105a cc2b 80c0 38c0 00a2 6966 8be7 5cc0
00000780: df6c 74dc e5f1 43c0 e962 3dde 9335 5c40
00000790: b5a4 7e7d 25c8 60c0 b0a4 c5b8 da17 80c0
000007a0: 0cfd ceb8 155a 51c0 5205 41de b190 4e40
000007b0: b0f6 44ca 6317 e0bf 906a 39fb 2f38 fabf
000007c0: 2038 c983 c5e2 5fc0 78ed 6e6b fb92 70c0
000007d0: d29b 1a66 29f9 5a40 e86e 8f49 488f 1ec0
000007e0: 75a6 7e8a a653 0ec0 2f4a 2c74 44e0 49c0
000007f0: d41d aa5b 8711 0f40 f89c ab1a 3095 44c0
