code/results/RRL_model_returns_f__etc.npy (npy, 22648 bytes, 1 tensors)

array f8 [2815]
0	0x0000000000000000	0.0
1	0x3fc5154241ca7920	0.16471126759001553
2	0x3fd7f842ef9b1da5	0.374527677526624
3	0xc0087eb131a4f812	-3.0618614080876876
4	0x400cccf24c3f10d1	3.600071521448719
5	0xc0208bb610d47377	-8.272873426374401
6	0x3ff086483c1598d1	1.032783732132476
7	0x3fed9ae512f6d6ef	0.9251580591578356
8	0xc000d8ac8696da76	-2.1057978167330544
9	0xbff9a27fdf6f61f4	-1.6021727302487507
10	0x3fe1b434e2a41031	0.5532478739337475
11	0xc017d3ddc1fee6ff	-5.956900626357082
12	0x40047f8045b99540	2.5622563788662376
13	0xbffae16ca9b2fa4c	-1.680035269629701
14	0xbff6e84928a12bf4	-1.4317103945820664
15	0xc00906c83c6c5e20	-3.128311607415313
16	0x400c62703cfc44c6	3.5480656399236947
17	0xbfe28f12b0a30cd4	-0.5799649667682396
18	0x40203e733b1b8a81	8.121972891914313
19	0xc026ddab6652f798	-11.432948300960376
20	0xbfdd714485ab4488	-0.4600383096085996
21	0xbfe4affdb818080b	-0.6464832873900844
22	0x3fa67677caf359e0	0.0438725886576099
23	0x3fd7f5ceeed89574	0.37437794995124496
24	0xc025da6c8dee2459	-10.926609454460207
25	0x4011515febcb10e6	4.329467472333112
26	0xbffdde2ffb61365a	-1.8667449779053613
27	0x40125c85e10cace9	4.590354458235404
28	0xbfa1ad19e95ac24d	-0.03452378247800834
29	0xc02cc5fef0372182	-14.38671065018639
30	0x3fedb3fd4a35193f	0.9282213639606097
31	0x3fd4419207247753	0.3165021009207198
32	0x3ff93c3696794f33	1.5772004964719144
33	0xc01308340af3a0d7	-4.758011027450457
34	0xc0011ab1724da134	-2.1380337648335175
35	0xc0190623191e2b2e	-6.2559932636893745
36	0xc01ce4b435e1abc2	-7.223343698405133
37	0x400a2e9b429e5c61	3.272757072885313
38	0x4010cc32ea255514	4.199412973908029
39	0x3feeba34bc1b905e	0.9602302240350686
40	0x3feea01f252d683d	0.9570461012001555
41	0xc0172a75dc9f79d4	-5.791465232118259
42	0x3fd4ca3199b31b43	0.3248409272168155
43	0xc00f6217dc8c1ac1	-3.922897074723864
44	0x4004f84cc2768547	2.6212401573581334
45	0x3fef41286c1b0cec	0.9767038451613224
46	0x400efe755af59407	3.87424727498956
47	0x4001e28fe5cb0260	2.2356260254457965
48	0xc001e2957e1aca65	-2.2356366969991535
49	0x4006f811777d8ba9	2.871127065199705
50	0xc00c1b17c91b57a4	-3.5132289611310217
51	0x4006eef89ff24b79	2.8666851516549596
52	0xc0195b42e1103593	-6.339122311224304
53	0x3fc942813b1d3122	0.1973420656817178
54	0x400c7651f6c74c0e	3.5577735213823933
55	0x4001ece974512522	2.2406796538604263
56	0xbff998d2f2f51521	-1.5998105516931178
57	0x400d0dd35a3b2720	3.631750779085351
58	0x401f76ec0ea09194	7.866134861517271
59	0x4022869f96814a61	9.262936309130227
60	0xc01c609a78e1ec6f	-7.094339264668732
61	0xbfffb8c042f0a9ef	-1.982605229840029
62	0xc013bf987d1f62ac	-4.937105135956397
63	0x40123a586b0738b2	4.556977913203967
64	0x3fd2d120e2772e65	0.2940141879632619
65	0x3fe0ce59de9268a0	0.5251893374545666
66	0xc01321c440d77220	-4.782975209378975
67	0x3ff74ec58086745e	1.4567313213840616
68	0x40012fc29398b397	2.1483203440643126
69	0xc00773821097e6f0	-2.931400422702488
70	0x400d51f032ac183e	3.6650089224595197
71	0x40234523e4072513	9.635039449569865
72	0xc0273741467c2a1a	-11.607919886261744
73	0x4035f4065bf9d59d	21.95322203492616
74	0x40229373d79330b4	9.287993180005607
75	0x400b08fa299449e3	3.3793833969477745
76	0x3ffd75ac8163e4dc	1.8412289671235191
77	0xc00a0ac13f306b54	-3.255251401581896
78	0x400d8982e6699a99	3.692144203279281
79	0xc0144b72d9a26004	-5.073680305991733
80	0xc038e7047c14f441	-24.902412181010963
81	0x402230bc2d307244	9.09518567291628
82	0xc00fc949ca02c6a5	-3.973285272798267
83	0xc021bef8d43e75b3	-8.87299216520737
84	0x4001a1dd6254a7eb	2.204035537918562
85	0x3fcce1a62467d070	0.22563626077283372
86	0x4013a6c3e51a49d8	4.9128566548629
87	0x402dd2203cb5b34d	14.910402199917053
88	0xc01c56f0ce21c84c	-7.084902973949351
89	0xbffb4e87a2e54d69	-1.706672321616532
90	0xc00488f7c9a7d72c	-2.5668788675638066
91	0x4036c976e846113c	22.786970631700783
92	0xc00ab154ca664b9e	-3.336587506529624
93	0xc0041d56c4e874a4	-2.514325655311568
94	0x4017602624bc88f7	5.843895505912079
95	0xc0044cb602b6950b	-2.5374565326661744
96	0x40238f678d788028	9.780086918792293
97	0xc01a201fb5211319	-6.531370954650606
98	0xc02fea8f4f4de685	-15.958124616870245
99	0xc0263e235284e0e6	-11.121363238068124
100	0xc00b963cfa0f8c56	-3.44835849151563
101	0x4014a25f58a288f6	5.158566842003202
102	0x4040c1d0d0bd97d4	33.514185040068384
103	0x400a499396e2d9f9	3.2859260356883593
104	0x3ffa3467e12a5aae	1.637794379761242
105	0xc03088a8e1736739	-16.53382691447698
106	0xbfeac018b399de5d	-0.83594927862482
107	0x3fea9bc85bb1ef1a	0.8315164366644894
108	0x4037d3129b05404d	23.8245026481457
109	0xc03c0d69513b9fb6	-28.052388264710054
110	0xc030f7208ff73265	-16.965340612269205
111	0xc01d3131c964935c	-7.298041483653687
112	0x3ff1818f96e0873e	1.0941310781131075
113	0x402269101ef48d08	9.205201117851644
114	0xc00e1a1059109d41	-3.762726493663337
115	0x4002fd2634a4077b	2.3736080277021165
116	0xc0040873e12f02f8	-2.5041272728416253
117	0xc067b160fb955f02	-189.5430887143521
118	0x401b589921530c1a	6.8365216452539475
119	0x403032d127bc077a	16.19850395527417
120	0x3ffef789b78a27d5	1.9354340714949008
121	0xc014d3d8df50c25e	-5.206881989769128
122	0x3fe90acad994bb90	0.782567429507127
123	0x4011c9d16e33ac47	4.447087976364009
124	0xc00dfc219dd8f8fb	-3.7481109935607697
125	0xc00deff6a61e969c	-3.742169664200288
126	0x3fed9cb5cf1d3e7c	0.9253796620559593
127	0xc00c224bf53212a4	-3.516746440497018
128	0x3ff5b5cc34a4235f	1.356884198789167
129	0x400ade4ad6e26d16	3.358541182312943
130	0x400009579e082aa6	2.004561648010468
131	0xbfd545ecd1892988	-0.33239288771132935
132	0xbec89ae61cf8d2b4	-2.9331533608851506e-06
133	0x400fb43d25ec8370	3.9630072558215304
134	0x3fd4f4fefcd9804a	0.3274533719286451
135	0x401d8c510a8fb0a2	7.387027897853985
136	0xc020e0299174d733	-8.437817140114566
137	0xc0211d2372a648aa	-8.556911070631333
138	0x40051f59c47c2626	2.6403079367053293
139	0x3ff9c038f03fc6c0	1.6094293007594587
140	0xbff9c41a8e8a514d	-1.6103768890362347
141	0x400ecbd22afa8d75	3.849521957179315
142	0x3fee85855b515884	0.9537989409971179
143	0x4014fcd979d3dc58	5.246923354679062
144	0x3ffd3a43ce27f5e4	1.8267248204205027
145	0x3ffeea491140355a	1.932198588739388
146	0x4022055fa69eea8a	9.010495383166262
147	0xc01cec9bde304cc7	-7.231063338945382
148	0xc0148b25f8eea782	-5.135887040678314
149	0x4008db64781090db	3.1071252231650823
150	0xc012b1eadffca62c	-4.673747539325216
151	0x4013ee245bf4ca36	4.982560574355878
152	0x4025c9440bb7f6fb	10.893097273069989
153	0xc020f1ca102afcfc	-8.472244744536958
154	0x401cbc799ffa1baf	7.18405771221198
155	0xc0067e19a15adff1	-2.8115723234041003
156	0xc01fd66321d75de7	-7.959362534303614
157	0xbf253035c91004b8	-0.00016165405807558818
158	0xbfd3a1465e62b604	-0.30671843736021764
159	0x401a878bc18231fd	6.632369063922394
160	0x40006adeabf54808	2.052182525084394
161	0x40208cd2af1bf92b	8.275044891514503
162	0xbf35172c5331324a	-0.0003218157973534959
163	0xc013d1ac199b712f	-4.95475807200664
164	0xc020b11dc60bd779	-8.345930279679793
165	0xc01e8c41fffefc09	-7.636970519960422
166	0x3ff8c781926c2b55	1.54870755382827
167	0xc020366faebffece	-8.106320820748262
168	0x3fd43496b8c34f7f	0.31570976298575454
169	0xc0172c4c91672f97	-5.79326083366677
170	0x402cae1f1bbe74e2	14.340081088065237
171	0xc01b10ad13f4746f	-6.766285239978159
172	0x402f7c1deb32b018	15.742415761888012
173	0xc042a2d5b886e864	-37.27214724147123
174	0xc0297be0c3ead3bc	-12.741949198165337
175	0x3feea5b82e312d21	0.9577294256390908
176	0x4023653954f12fdb	9.697703031961217
177	0x402b08b4a0c12942	13.517003081874126
178	0xc0233fecadde4afe	-9.624852593789452
179	0x402f0b5162a2e4c3	15.522105295547936
180	0x400c68f20bd913fb	3.55124291664333
181	0x401682ed73519d42	5.627858926636067
182	0xbfbf0eb6016e34d8	-0.12131822142528692
183	0x401a0ba66a7fd4e5	6.51137701420996
184	0xc027acb597dbee1a	-11.837322946164068
185	0x4022880debbd3000	9.265731207698991
186	0xc02645ebfcff7fbb	-11.136566072644078
187	0x403090429107de68	16.56351572458371
188	0x403005f329d15575	16.02324162827195
189	0x402388380166c73c	9.766052287861037
190	0xc01e5ec7b3c49fee	-7.592558678508778
191	0x4027fdfe0448b94d	11.996078618886395
192	0x401cfa0e965e8b17	7.244196271439043
193	0xc00b03bdb8e05d84	-3.376826710078321
194	0xc00123350907cf3f	-2.1421910005100524
195	0x4023c2f061829c43	9.880740210717823
196	0xbfeac2e4acda9753	-0.8362906814624956
197	0xc013c9da0fc59fda	-4.947120901524579
198	0x4020aaae8fc136ff	8.333363048873705
199	0xbfdc5894ae9f350c	-0.4429065423290275
200	0x404247945083c27c	36.55921369966106
201	0x401381bad2f0a80b	4.876689239443304
202	0xc00ef7ba0795dd73	-3.870960292111414
203	0x4018bc401e23562f	6.1838383397167
204	0x401878201ecea25b	6.117310029375029
205	0xc0085b96ffc932de	-3.044721601798627
206	0x4007cbd4ae73451f	2.9745267514159788
207	0x40281ecb38301c31	12.060144191620653
208	0xbff3c6db5765ff8e	-1.236049024009819
209	0xbfae6d573632f240	-0.05942795311554905
210	0xc01db520911b9fbc	-7.426882045088799
211	0x4022116dff2b60aa	9.034042333645932
212	0xc02b2cab2007d9ab	-13.587243081053051
213	0xc0263d074a1d07c4	-11.119196239513151
214	0x4016be72fa8b66da	5.68598548389283
215	0x4000eafd985fe09b	2.114741506982751
216	0xc031a183284f668c	-17.630907554039865
217	0x40303bd12346625a	16.233659939464225
218	0x40209d5054ce8cfb	8.307253504003247
219	0x3fe6d2b967245e4e	0.7132231726163327
220	0x40238c557e5e9f1d	9.774089764643174
221	0xc01e07b548245c24	-7.50752747270511
222	0xbfe82833084c3055	-0.754907146650576
223	0xc029e6aba6225e06	-12.950528327651238
224	0xc0127eddb092a28a	-4.623892554235349
225	0x4023f5aa7598e096	9.97981612673929
226	0xc0087af3c6ffc0d4	-3.0600352808761304
227	0x401b6adc6b71ac99	6.854356459439395
228	0x40083de5a45ae48e	3.0302231636274604
229	0x401216fbf4377e8f	4.522445503127201
230	0x4014f78dda94ea15	5.241752066935551
231	0x401abed4b0989c19	6.68635822230774
232	0x40231b432ad1ee5f	9.553246820570335
233	0x401745e59e9b6448	5.8182587416022855
234	0xbfe731676073df6f	-0.7247807391968147
235	0xc0016e4157371e26	-2.178835564965783
236	0x40144a69a75e17e6	5.072668662183764
237	0x402f664560fc0ad1	15.699748068587185
238	0xc0226b45dcd6ca14	-9.209517384738355
239	0x4016d22e44509aa1	5.705254619044951
240	0xc016d24ef64cb1e9	-5.705379341536607
241	0x4013f4e3019bd3fa	4.989147210250843
242	0xbff6d2205c83d43c	-1.4263003934731975
243	0xc019c6be2c111df1	-6.444084824127899
244	0xc01cde490acfff3f	-7.217075509019025
245	0xc02476e4df1a7851	-10.23221490095253
246	0x404514552340acf3	42.158848196582674
247	0x401ba0ad0bd49678	6.906910118913963
248	0x4015ed9453581456	5.48201112961859
249	0x3fe5cce555ad8f20	0.6812616990468747
250	0xc0132ac32b83ba37	-4.791760139384272
251	0x401b54e955930e9c	6.83292134962144
252	0x401022f4108aefbf	4.034134157638561
253	0xc02593bb6a323799	-10.788539236669566
254	0x403776d23cb5b94d	23.464145464292688
255	0x403053ae6248de1e	16.326879637517884
