code/results/RRL_model_returns_f__eth.npy (npy, 22600 bytes, 1 tensors)

array f8 [2809]
00000000: 0000 0000 0000 0000 4f85 57b1 ac79 1cc0
00000010: a7a9 b4c0 0f08 00c0 fedf c1fb a077 2440
00000020: 1467 f74c f3b1 da3f 33d0 14d2 3fd4 f3bf
00000030: 45dd 27b1 5690 e9bf 80e9 6bc5 0990 62bf
00000040: ba73 a96c 14e1 eebf 32c8 ed65 4cf9 f0bf
00000050: 24d7 d514 2313 c7bf 3251 7ec6 f620 f73f
00000060: 10b2 3667 ec81 a8bf 2dfd dd04 963d 1dc0
00000070: c28f 3743 d7d4 f4bf ffc0 ada4 1cc6 f7bf
00000080: e349 40e1 5b7b e53f 542f 5a78 5b57 fdbf
00000090: b04f 226f 9c55 0d40 20e1 b2cd 6383 dbbf
000000a0: aa11 ce5f df2a 01c0 7809 5a15 8611 d73f
000000b0: b091 ee2d 51a7 f7bf 9e11 eab5 8610 1040
000000c0: 7bc8 df8f ef4b debf b8a2 5500 c2e6 f0bf
000000d0: c984 e4cf 76c8 0140 3a88 ba27 40ac 22c0
000000e0: cae8 0936 f7e2 db3f 1b70 92f2 0eba e53f
000000f0: 1dd7 ce90 3c1e 0bc0 ca36 0b49 3afa dc3f
00000100: cfed 8336 7c4b f4bf 48c2 4636 a6cd 04c0
00000110: 032b acc6 d825 dc3f 184d c1cd 8137 c53f
00000120: b88d 21a7 265c e4bf 5d33 a1fa 273b df3f
00000130: 1842 107d 9162 f3bf 1e88 4500 12f9 da3f
00000140: abd0 e978 27d6 0340 48f1 4689 8004 f0bf
00000150: 406b a929 3e7c e73f 84e3 22c0 00d6 cabf
00000160: c773 3c6c 341e f03f be84 ad00 8f88 ec3f
00000170: 6623 4db6 f74b f7bf 1dfa 5df1 a2cd fbbf
00000180: 4152 a58a 2e92 d23f 1525 e384 e767 b7bf
00000190: 7e9c df29 6e2b d93f 86bf c8b9 4a23 f6bf
000001a0: 27a4 1e99 23a6 f5bf 117d b81c 8411 0040
000001b0: 24c3 0d91 8070 cebf 6862 bf4c 5dd3 f93f
000001c0: 2762 d4c1 4a4b b93f 4dc9 2f91 df0f f2bf
000001d0: f3c5 0724 d918 e03f fe98 9b8a 87ca f1bf
000001e0: 5557 4057 2c40 f7bf c2b5 03e3 f9e5 dc3f
000001f0: 8cc9 accb 4677 0040 0228 afdd 1cd8 f33f
00000200: d1bd 6891 4946 06c0 9a73 2272 1d92 c3bf
00000210: a40f 6241 087e 0140 e1b7 3154 321e 01c0
00000220: aa01 ae4e bc36 03c0 f669 0f68 8cf0 0a40
00000230: 6eb6 7cff 4b04 0240 5d58 fb36 387e ebbf
00000240: 96d9 7c7c 4998 0740 234d 4f59 da32 03c0
00000250: ef87 2fd3 db8c e3bf 5e3b 894d cb8f e53f
00000260: e84c 5d0b 7db6 e93f 6d9c ab59 c491 f63f
00000270: a38f 5d76 dcf0 14c0 65a9 29d4 1f4d e9bf
00000280: ba74 879a 706c d9bf c0ce 1853 99ed d63f
00000290: e5fb 841c 8c5d 0840 b1eb 802c 99fe e03f
000002a0: c077 203d b248 0dc0 89e3 f0e8 2003 2a40
000002b0: 0048 d311 24d1 eabf 8447 7a72 5c69 1fc0
000002c0: 64c3 d7b7 5ac4 ddbf 462c 2c8e 1177 973f
000002d0: b2e0 0f52 7aef f8bf 1a5b 7760 021f 15c0
000002e0: 4082 0f72 4a8b 0fc0 1f98 384e 026e 0640
000002f0: 1838 f88d efc2 7fbf e258 afee 6768 d0bf
00000300: c8dd 4297 51f3 12c0 92c8 eb2c fc53 14c0
00000310: 7a83 7864 edcd 02c0 edf9 ed80 70a5 0c40
00000320: f603 66e9 00b6 09c0 1eb9 cc27 a460 0540
00000330: 06e0 3e80 fae1 d83f 62a0 29d9 5be9 0840
00000340: 0ff1 fa19 41dc f6bf 228d b529 75a7 c83f
00000350: 316d 5947 9ad8 10c0 3d02 f533 aa05 1040
00000360: 9f06 d6da f3cd 1340 7b99 71cf 6a43 0dc0
00000370: fed7 9aa5 42d3 0640 9491 79c3 ec38 3540
00000380: 22d5 d809 d62d 0ec0 db4c ecbe 69e0 fb3f
00000390: 96c7 c712 cdd3 ffbf 83ae 7d0e 666d 1d40
000003a0: d305 da20 68e3 02c0 1b49 345e 289b 0040
000003b0: 1404 764a 236f 0fc0 5cfc 289a 80d9 0540
000003c0: 988d 169c 821b 1040 42f9 d9dc 4d84 f93f
000003d0: 149c df61 1d09 de3f 4fef 903e cd71 21c0
000003e0: 440e aeea be7d 19c0 698f 6da4 0ff4 f03f
000003f0: 8b09 57ff 92e7 0540 022f 1db0 0b0f 0a40
00000400: 89f8 007a db3b 14c0 4c78 0500 b943 11c0
00000410: 9d35 b848 ed30 11c0 f4e8 6712 b7c4 00c0
00000420: 07a2 cbed 2edf f9bf 7255 6bb8 61c9 07c0
00000430: 5338 c0d1 92d1 ec3f aa93 fdee a4df 00c0
00000440: 07cb 653e 028d 0bc0 d078 17d7 8b39 0540
00000450: 35e4 7502 4782 cdbf b24f e412 a2bc 0640
00000460: 7a00 c28e 878f f8bf e914 0691 51c2 15c0
00000470: 56a4 3638 f4ca 06c0 c22d 3414 1ffd d43f
00000480: b1af 12a6 f20a 1ac0 317a e060 5f63 de3f
00000490: e24a 5ffd 3f41 0ec0 4a13 c655 f76a 1c40
000004a0: 757d bb93 327b e63f e8f2 cfc3 25f1 f63f
000004b0: b426 cdc2 08ee 00c0 49cf 7339 70e8 26c0
000004c0: b5bd 5d58 4fd2 0640 bd7a 1571 a850 f03f
000004d0: 89c2 2c98 3760 10c0 8e3a 1d37 a5c3 f33f
000004e0: 76e4 e9b9 2f04 2ec0 6d9a 3aed d1da 28c0
000004f0: bf85 483e 2c1e fb3f 0f01 43ba e443 0e40
00000500: 0c1d c156 331e 0a40 2b43 1902 e833 08c0
00000510: 8ece 75c9 c4aa e83f 2681 8ef4 6bf3 2040
00000520: 74f0 e267 1f01 e0bf 5571 b037 4c9d d9bf
00000530: 5e1d 301b 0e74 dc3f 05b3 3ba0 fc51 0940
00000540: 05b4 a6ef 20b8 0640 f052 c089 a4d8 07c0
00000550: 3be9 0d06 dca4 e0bf 3e2d a16a a391 eabf
00000560: 0f65 fb3c cd36 c3bf ae29 50bd c9a8 c0bf
00000570: 265b 01a4 64a5 f4bf a8c2 2041 4ea3 d9bf
00000580: aca9 70ad 18cd f0bf 5a4f 0c3d c600 e8bf
00000590: f5fb 4414 4aa5 c63f ff15 f861 f3e0 fe3f
000005a0: a737 9d8e 7f3c 01c0 557e b5b8 8dd6 fdbf
000005b0: 5e39 b62c 9e55 d93f d782 e994 f1fb f1bf
000005c0: e08e d5fa 2fb6 f4bf 0015 ed01 6102 71bf
000005d0: b6e2 f02c 131f e5bf 553d a3bf 7b6c f9bf
000005e0: d55b 5d32 f05c fdbf 71a3 9d59 fe5d f3bf
000005f0: 64bb bb3a d548 f93f 04a5 ba5d 25a4 f8bf
00000600: 3802 0cc9 79d3 febf d065 a0fc d317 0e40
00000610: c9cd 1161 7608 d5bf d991 2440 4dfd fe3f
00000620: 0a59 ed65 6133 e33f 7ca6 477a e63f c9bf
00000630: a853 55cd c5a4 ec3f df99 c96c 8f6d e7bf
00000640: 35a3 8756 11df c5bf 96ab 4834 6fc4 e0bf
00000650: 9cab 1131 abe2 f2bf f2bf 5346 a750 f1bf
00000660: fe97 c102 dafe e2bf fdb5 7230 2053 0040
00000670: 74c3 8fa3 1fdd f8bf ed8f 8c77 b39f f5bf
00000680: d878 e777 fadd fd3f 0159 bd2c 29ef efbf
00000690: 82a5 2d17 4a34 e13f 0c35 2ac9 d34b f33f
000006a0: 6a2f e0dd 336f d9bf 5267 c619 a256 ddbf
000006b0: e849 b11d ed17 e8bf ae16 7126 eaa0 f8bf
000006c0: 8468 4007 1d7b e43f 2f8f 3ecb 1f3e 10c0
000006d0: 0d57 edbf 81b8 1140 920d aa1f 6852 0040
000006e0: 7261 59f3 7d7c d4bf e4a2 94a4 e7a4 e0bf
000006f0: 5f58 b29b 8217 fabf 37c3 5145 41b0 f33f
00000700: eaef dbf5 9db7 d53f 914e 6d34 bcb8 0040
00000710: 29d9 393a 0a2b fabf 4f1d 96ca 6308 12c0
00000720: 6a27 6cdd 5ddb f3bf 1c5f 23fe 1009 e73f
00000730: 6c99 57f5 5f26 11c0 5b45 ba43 f57e 1940
00000740: 1793 9c36 7036 0ec0 2daf f4b3 1ba6 ff3f
00000750: 8f38 bdf8 3ba5 1440 bec3 b6fb d557 e13f
00000760: 62bb db1f 2e4a 1340 e058 b877 b7f6 df3f
00000770: 50c1 4606 ed43 00c0 24fa 4ae0 3c3a 03c0
00000780: 6112 a4c4 d856 e33f 09f9 0871 0c9a 2440
00000790: 7f2e 5179 bbdb 1340 27cc 99a6 5456 25c0
000007a0: 8004 f61b acd7 0c40 5b15 ef36 dc80 14c0
000007b0: de91 581a 0389 1ac0 263a c5e3 3aef f43f
000007c0: 504e 86f7 38fc f1bf 4204 f0af 5ea4 18c0
000007d0: 0fc1 8234 e4c2 38c0 7a46 734a 02dc 14c0
000007e0: ef2e d228 8dec 1540 08ea f98f faf7 c03f
000007f0: 81b1 01a8 88eb f3bf a411 0bfe f19a 1ac0
0.0 -7.118822833029596 -2.0039362959989435 10.233650081077936 0.41711123005153294 -1.2393186765957693 -0.7988694629738481 -0.0022659483760182897
-0.9649755594542662 -1.0608638745875507 -0.18027151601170843 1.4455478433274718 -0.047866237258265554 -7.310142589615947 -1.3019631028810044 -1.4858671601069202
0.6713084601818163 -1.8338274670849914 3.6668022806497547 -0.4298944004799683 -2.145933865047671 0.36044456563117633 -1.4783489031043295 4.016138880168368
-0.4733847527524017 -1.056337357813545 2.2228828660596247 -9.336426965255772 0.43572788502900706 0.678962205670817 -3.3897639573214193 0.4527726853674322
-1.2684290055757292 -2.6004146805137545 0.4398099842225493 0.1657564406074037 -0.6362488998678861 0.4879856059604231 -1.2115645299237539 0.4214520456936287
2.4795674749712666 -1.0010991442096202 0.7339163602549448 -0.2096558511891794 1.0073742130255015 0.8916697514761365 -1.4560467835564963 -1.7377042225267652
0.29017222919108937 -0.09142920488661262 0.3932757767601699 -1.3836161858743892 -1.3530612927663783 2.008552765255111 -0.23780829508498258 1.614102649493498
0.09880511505287669 -1.1288753196100345 0.5030332282751132 -1.1119456686370195 -1.4531672867064647 0.4515366284311676 2.05824050065093 1.2402619037188747
-2.78432000733276 -0.15289657662370076 2.186539183430755 -2.139744432227403 -2.401726355252511 3.3674553041175797 2.252098079675128 -0.8591576646674742
2.949358913955801 -2.3998305299115983 -0.6109446644516064 0.6738029970527852 0.8035264226877219 1.4105876448391215 -5.23521599718143 -0.7906645911983047
-0.3972436436723218 0.3582518874638758 3.045677397545193 0.531078898354613 -3.6604962134869936 13.006110457806942 -0.8380298946524363 -7.852891720498409
-0.4651095195140924 0.022915148069881285 -1.5584662633464572 -5.280282504353432 -3.9430130873663813 2.803715334989661 -0.007754264602693815 -0.2563724356563296
-4.737615931945989 -5.082016660586435 -2.350550446441443 3.5807809898972125 -3.21386892645432 2.6721881017066513 0.3887926342390532 3.113944717963066
-1.4287730231145053 0.1926104024561051 -4.21152602656666 4.005532085255763 4.951125544846632 -3.6579185682814432 2.8531544626121095 21.22236272542939
-3.772380902223305 1.742288347047 -1.989209245072265 7.3568346275529874 -2.361038452771689 2.075760589571599 -3.9292665307298282 2.731202320457255
4.026865424038441 1.5948008181581632 0.46930632169682096 -8.722269015495526 -6.372798601983565 1.0595852301566657 2.738073344081561 3.2573465117365012
-5.058454424199348 -4.316135406812531 -4.297780166857959 -2.0960523069344337 -1.6169881142506044 -2.9733309180980365 0.9005827042290185 -2.10920130454402
-3.443851935845831 2.653098755267912 -0.23053825016157395 2.8421060062337 -1.5350413872220359 -5.439764276500889 -2.8490986243892094 0.3279493043234788
-6.510691256418725 0.4748152204573755 -3.7818603319841353 7.1044591333528135 0.7025387654684169 1.4338739060323693 -2.1162276476723836 -11.4539812044019
2.852690401421308 1.019691888555527 -4.09396207593148 1.2352649834535074 -15.008176622201272 -12.42738286342975 1.6948664124432609 3.7831511069963493
3.2647463586505463 -3.0253448642692056 0.7708457884568405 8.475433008571212 -0.5001370457680552 -0.40022569120789814 0.44458344130585725 3.1650326269358424
2.8399065706967144 -2.9807825815026874 -0.5201244467018918 -0.830278118382388 -0.15010991552006955 -0.1301510023479983 -1.2903791815239827 -0.4005923877730688
-1.0500723624232746 -0.7500945274682451 0.17691923131675905 1.929919607822171 -2.1545401708344403 -1.864881249923106 0.3958507000578687 -1.1240096871262517
-1.2944793508731252 -0.004152659354820232 -0.6600433233025658 -1.5889852033468135 -1.8351900069590006 -1.210447645246145 1.580281476428092 -1.540074697617741
-1.9266298154253843 3.7616348015260215 -0.32864150504539374 1.9368412499981018 0.6000220289959384 -0.19726258249947992 0.8951138506332557 -0.7321240544086399
-0.1708699867733913 -0.523978807560854 -1.1803390423544675 -1.0821907755998805 -0.5936098150093583 2.040588739872645 -1.5539852513431613 -1.3514895124326316
1.8666939433820087 -0.9979444383450585 0.5376329853726676 1.2060125215533075 -0.3974122683291542 -0.4584126712521669 -0.7529206829006485 -1.539285802996726
0.6400284902222357 -4.060668159192388 4.430182455884062 2.040237662675005 -0.3200983883339382 -0.5201299871888208 -1.6307397920513933 1.2305309970653988
0.33933209428482647 2.0902027221544093 -1.6355078005268047 -4.508193173801671 -1.241056313449429 0.7198567355762608 -4.2874754271236775 6.373982485050273
-3.776581217435147 1.9780537633441313 5.161361586140756 0.5419721523559173 4.822441575800299 0.49943339053551306 -2.0331669321387054 -2.4034364245301436
0.6043514099734005 10.300876171441375 4.964582343654569 -10.668614584230523 3.6053087410405738 -5.125840051977629 -6.633800899177428 1.308405770996282
-1.1240777653628307 -6.160517453216984 -24.761294633791348 -5.214852488790365 5.481007230595181 0.13256771116341803 -1.2450033724554432 -6.651313752580254
